trained_probes_truth/probe_sae_diff_label_seed_15.pt (torch, 10966 bytes, 1 tensors)

net.weight f4 [1, 2304]
00000000: a66b 2a3c 0e7f 8e3d 18a6 05bc 6318 293c
00000010: 08f8 5f3d 9758 313d 50a1 9fb8 0fc9 1d3c
00000020: b30d 553d 8b13 d8bc f77e edbc 6896 10bd
00000030: d3bc 4c3d f04c 2f3d aa75 f13b d965 8bbb
00000040: 691b 89bb ecc9 b9bd 7d31 fb3c 8983 153d
00000050: 9fcc 693d 2635 51be ff09 ae3b d56a 13be
00000060: 75fc 2bbe b5db ae3d ac0c 35bd d4eb f4bd
00000070: 882b 843a c79f 3dbd 97c0 083e 0add 323d
00000080: 8b81 adbc 135d 793c 853d 3c3d 8362 8d3c
00000090: fcbf 9abc 645d 0bbe 4133 69bd 0b45 afbc
000000a0: 07ce 963d 67e1 ab3d 7555 cdbc 3614 1ebd
000000b0: c06b 3bbc 4842 a73b bff1 d8bc d1c0 3cbd
000000c0: a063 773d d13f 86bd a9e9 abbc 6ace d0bc
000000d0: 2675 c23d 2f8a a33b 9c38 93bd 6170 3abd
000000e0: 4d6c fd3c 60a9 aa3d 8336 513c bdd4 9c3d
000000f0: bcb5 933c 8095 7a3d 5a9b f93c 35d0 443e
00000100: 0207 913c 30bc 8d3d f1c4 20bd dd01 573c
00000110: 9940 a1bb ef5f babd 83a7 f9bc 1ea9 463c
00000120: 1b2e 00be 2e84 193d 86a9 023e 2297 24bb
00000130: 3a4a 61bc 90d5 d83c 9af2 783d c987 903d
00000140: 9d77 ad3d 48f3 b43c 55a6 263c 10ba 023d
00000150: 2821 2cbe 0051 74bd b5af cf3c 5814 1c3e
00000160: c62a 06be e857 18bb 75f8 78bd acb2 183d
00000170: ede4 2e3d b60a dd3d a3b9 b73d 6adb 713c
00000180: 540c 233d 27f3 393c e6fb 59bb 96b3 9fbd
00000190: fb9c 773d 73b3 803d 7d69 ed3d f454 1dbd
000001a0: 8898 9fbc 8f46 76bd c79f 663d 0a1b ab3d
000001b0: ab94 333c 47e9 0fbc 984a e5bd 88bb 07bc
000001c0: 01d0 f63b b814 643d 8699 6bbd ea96 8fbd
000001d0: c17f b13d 47a0 e83c e9c7 73b9 98cb e23c
000001e0: 18c5 3ebd 79b0 04bd 2336 63be 87cd 383c
000001f0: 4a28 973d c5d6 0ebe fd51 d83d 4fcd 25bc
00000200: 7d88 583d 42ac 2b3d 9c3e 1a3e 04aa 483c
00000210: 6849 4abc 85be a53d 1e80 a439 d183 22bb
00000220: 2869 c0bd c494 413d 3e86 4bbd e086 283d
00000230: e2fc 2ebe 71d7 45bd 51d6 af3c 4b9a c1bb
00000240: 3619 49bd 9de4 483c 7897 a5bd 2093 1e3d
00000250: 08e8 363e 0683 af3d 7b63 c73d 43f2 fbba
00000260: 7b2f 1dbd 52ab ae3d 1ba5 90bc 4f11 6c3c
00000270: d58b 733d bc5c 8cbc e19f f239 d040 0bbd
00000280: d080 cf3c 2c42 2c3d 6cee eebc 4d2d 02bd
00000290: e9f5 19bd 88a1 6cbd 1e81 143d 1512 b83c
000002a0: ff07 453d 39bf 3fbd 7f42 d8b9 5e89 003e
000002b0: 7a33 c93c 6cc4 933d dd34 aabb 29e1 b7bd
000002c0: f366 b73d eee6 213d a03c 9fbd d08a 9a3d
000002d0: 01b1 9e3c dfa9 8e3c 80ce 343c 3921 c23c
000002e0: 4d46 123a eedf 7abd a06b 19bd a364 10bd
000002f0: ef25 873c 493d 103e 4985 b4bd 8b15 c13d
00000300: 0860 ddbd 07ef b7bd c190 bf3d d23d 87bc
00000310: 0248 98bd 1eb5 6f3d c674 e73c d806 8fbd
00000320: 370e 553c ff42 663d d319 d3bd b495 e53c
00000330: b9ab 973d 9464 283c 9fd5 6cbd 5208 8a3d
00000340: a6ef b9bd 62af 323d f720 d6bc ac6f 10bd
00000350: 0104 053b c081 59b8 6c45 c13d 3043 623e
00000360: 3db1 f43b f4f9 eabb 27a2 a93a c3b0 c9bb
00000370: 3281 6e3c f170 d33d 96f2 cd3c 1efc 43bd
00000380: 1f3e 4dbb 8d10 72bd f104 d23d 87f5 1e3c
00000390: 5824 363e 19ee e2bd 31d9 7dbd 666b e23d
000003a0: e54b 28bb c619 82bc 7d55 01bd 7620 65bd
000003b0: 5e48 433d 5e31 f0bc ec41 f1bc ed32 a13c
000003c0: 0e2b 263b 9ec4 22bc 8fb6 4cbd 11c5 1b3d
000003d0: ab1c 2fbd 1489 683c 2dc0 92bc bf0d 1dbd
000003e0: 01c7 c63d 92f4 503d 89f5 3dbb c553 9ebc
000003f0: 74c7 333e 78d8 a33d 4997 ff3d d0a4 2a3d
0.010401642 0.069578275 -0.008157276 0.010320756 0.0546799 0.043297376 -7.6117576e-05 0.009630456
0.052015018 -0.026376506 -0.028991206 -0.03529969 0.049984764 0.042797983 0.007368763 -0.0042540845
-0.0041841757 -0.09071717 0.030663246 0.036502395 0.057079908 -0.20430431 0.00531125 -0.14396222
-0.16795523 0.085379995 -0.044201538 -0.11959043 0.0010083774 -0.046294954 0.13354717 0.04366783
-0.021179935 0.0152199445 0.045957107 0.017258888 -0.018890373 -0.13609844 -0.056933645 -0.021395227
0.07363515 0.083926015 -0.025065163 -0.038593493 -0.011439264 0.005104337 -0.026482461 -0.04608232
0.060397744 -0.06555141 -0.020985441 -0.02548905 0.094950005 0.004990838 -0.07188532 -0.04551733
0.03093543 0.08333087 0.012769344 0.07657764 0.018030994 0.06117773 0.030469585 0.1922005
0.017703537 0.069206595 -0.039250318 0.013123003 -0.0049210307 -0.09100329 -0.030475384 0.012125282
-0.12517588 0.037479572 0.1275998 -0.0025114496 -0.013750607 0.026469022 0.060778238 0.07057149
0.0847008 0.022088662 0.010171493 0.031915724 -0.16809523 -0.05964756 0.025352338 0.15242136
-0.13102254 -0.0023245756 -0.060783822 0.03727977 0.04269879 0.107930586 0.08970954 0.014761785
0.03980668 0.011349476 -0.0033261715 -0.07797925 0.060452443 0.06284227 0.11592386 -0.038411096
-0.019481912 -0.060125884 0.05630472 0.08354767 0.010960738 -0.008783645 -0.11195868 -0.008284457
0.00753212 0.05568382 -0.05751946 -0.070112064 0.08666945 0.028396739 -0.00023248758 0.027684972
-0.046574682 -0.03239486 -0.2218862 0.01127947 0.073807314 -0.13949116 0.10562513 -0.01011975
0.05286454 0.041912325 0.15062946 0.012247566 -0.012346603 0.08092979 0.00031375972 -0.0024797807
-0.09395057 0.047261015 -0.04968857 0.04114425 -0.17088655 -0.048301164 0.021464499 -0.0059082857
-0.04909631 0.012261537 -0.08085531 0.038714528 0.1786195 0.085699126 0.09735771 -0.001922198
-0.03837536 0.085287705 -0.017656853 0.014408424 0.059459526 -0.017134063 0.00046276956 -0.033997357
0.025329977 0.042055294 -0.029166423 -0.031781483 -0.037588034 -0.057771236 0.03625595 0.02246956
0.04810333 -0.046813224 -0.00041248274 0.12552401 0.024560679 0.07215199 -0.00519429 -0.08978493
0.08955183 0.039526872 -0.07775235 0.07546008 0.019371511 0.017414985 0.011035562 0.023697482
0.00055799336 -0.061248712 -0.037456155 -0.035252225 0.01649758 0.14085878 -0.088144846 0.09427937
-0.10809332 -0.08981138 0.093537815 -0.01650897 -0.074356094 0.058522336 0.028253924 -0.06983727
0.013003877 0.056216236 -0.1030766 0.028025486 0.074058 0.010277886 -0.057820912 0.06739868
-0.090789124 0.04362429 -0.026138766 -0.03526275 0.0020296576 -5.185767e-05 0.09437069 0.22095942
0.0074674175 -0.00717091 0.0012942002 -0.006155105 0.01455717 0.10324276 0.025140088 -0.04784786
-0.0031317545 -0.059097815 0.10254849 0.009702093 0.17787302 -0.1108057 -0.061974708 0.11055641
-0.0025680002 -0.01588143 -0.03157567 -0.05593916 0.047676437 -0.029320415 -0.02945038 0.019677604
0.0025355252 -0.0099345725 -0.04997879 0.038029734 -0.04275195 0.014192838 -0.017913902 -0.038343187
0.09705926 0.05101449 -0.0028985462 -0.019327054 0.17556554 0.080002725 0.12480027 0.041661084
