trained_probes_truth/probe_sae_recons_label_seed_19.pt (torch, 10978 bytes, 1 tensors)

net.weight f4 [1, 2304]
-0.08162667 -0.06752856 0.13029443 0.029701874 0.007558897 -0.058608286 0.045477018 0.16522339
0.10241152 0.025227027 0.05994706 0.09800768 0.005473688 0.0006982457 0.055684276 -0.097113006
0.020235332 -0.10603874 0.05640857 -0.018438539 -0.022159796 -0.047830895 -0.011695857 -0.02039958
-0.0654573 -0.04309524 0.19836959 -0.04038708 0.26575312 0.051155213 0.23369117 0.0032022807
0.024517177 0.03325148 0.006673338 -0.104885206 0.13910174 -0.04590938 0.0015956596 0.06861531
-0.07484151 0.0066515794 -0.07739973 0.075531036 0.018545443 -0.01188268 0.0664038 -0.036097568
-0.102033444 -0.04799324 -0.08722941 0.030964376 0.018925298 -0.26646242 -0.025144339 -0.28665987
0.037015446 -0.09020263 0.03315658 -0.014412659 0.089236744 -0.01573571 0.08117021 -0.014976643
-0.027340401 -0.066980585 0.05286795 0.21912271 -0.013579303 0.0019824484 -0.04556066 0.046243615
0.021383472 0.119251184 0.05146638 0.11185283 0.019204231 -0.055544056 -0.016230073 -0.007303615
0.15511034 -0.018510472 -0.08024627 0.05144586 -0.0089418115 0.035996575 0.07836357 0.0047602686
-0.0044551343 -0.002436954 -0.09382179 0.048157636 -0.069442295 -0.052756976 -0.04248076 0.002282007
-0.020649489 -0.053034678 0.06480692 0.10744408 0.058458388 -0.065939166 -0.07923136 0.012323743
-0.018217206 -0.064455464 -0.13984522 -0.16591151 0.005232718 0.019078653 0.1664996 -0.0036078105
-0.058848687 -0.007088755 0.023105662 0.15265776 0.00065369654 -0.09117751 0.15151156 -0.13240594
0.097546935 0.06293501 -0.02304365 -0.003402545 -0.032882832 0.02462927 -0.10228581 0.070216134
0.13671133 0.17928556 0.05093857 -0.017224621 -0.04283358 0.117618166 0.09404137 -0.0050399103
0.05987207 -0.027231853 0.0152322035 -0.02450399 -0.014080878 0.111962326 0.042822167 -0.03809668
0.038222246 0.11646263 -0.017844908 0.0709577 -0.0016443415 -0.008271359 0.020005 -0.017896831
0.09348983 -0.043699183 -0.07614536 0.04947968 0.044604443 0.0019548198 0.0075287814 0.0017688383
0.10888525 0.13500947 0.025975319 0.0057386393 0.013589528 0.14997688 -0.06948004 0.017188866
-0.05437166 -0.05189076 0.08602792 0.04552622 0.1991875 0.011300724 -0.09750372 0.040626213
-0.10892959 -0.00154466 0.03947317 0.02591034 -0.042800047 -0.19052549 0.03008741 -0.009076137
-0.06484206 -0.049118713 0.03429057 -0.012196391 0.23066312 0.007127142 0.064276725 -0.17189114
-0.05078867 -0.06218949 0.17191327 -0.0013962156 0.046903692 0.07654867 -0.007473302 0.15541123
-0.012553309 0.05970182 -0.08693516 0.012126067 0.055945158 0.0033846823 -0.016082581 0.02808387
0.123490505 -0.1314549 -0.05846279 -0.037358887 0.0070497016 0.015738504 0.0932288 0.075290255
-0.057411138 -0.0058926074 -0.032626785 0.045196284 -0.06293111 -0.16177851 -0.0154396705 -0.05833246
0.031635623 0.0718455 -0.007153825 0.056274924 -0.00926026 0.035217624 -0.019592552 0.14327519
-0.02853261 0.014354004 0.07529585 0.041758403 0.044332094 -0.054483864 0.05941314 0.101718515
0.19007874 0.034257405 0.06548917 0.014101139 -0.027210336 -0.13997553 0.08052503 0.04383992
0.049122937 -0.057639517 -0.032939132 -0.21726859 0.04727262 -0.00909623 0.11486696 -0.020126523
00000000: e22b a7bd 6a4c 8abd e76b 053e 5851 f33c
00000010: a0b0 f73b 3e0f 70bd 1c46 3a3d 5230 293e
00000020: 22bd d13d e9a8 ce3c 0c8b 753d 40b8 c83d
00000030: 9f5c b33b 7a0a 373a 3215 643d 2fe3 c6bd
00000040: 91c4 a53c d72a d9bd ac0c 673d 6b0c 97bc
00000050: 7688 b5bc 54ea 43bd fb9f 3fbc 051d a7bc
00000060: 7a0e 86bd a284 30bd 6621 4b3e ec6c 25bd
00000070: cb10 883e 2188 513d bd4c 6f3e 5bdd 513b
00000080: 3fd8 c83c b432 083d 04ac da3b 0ece d6bd
00000090: b070 0e3e 790b 3cbd 7425 d13a 2f86 8c3d
000000a0: 8146 99bd 7ef5 d93b c083 9ebd 04b0 9a3d
000000b0: 9dec 973c 92af 42bc b7fe 873d 0bdb 13bd
000000c0: e9f6 d0bd 8f94 44bd 55a5 b2bd 01a9 fd3c
000000d0: 3a09 9b3c c36d 88be 80fb cdbc 15c5 92be
000000e0: 829d 173d 28bc b8bd 32cf 073d 1323 6cbc
000000f0: c1c1 b63d 2de8 80bc 913c a63d 9860 75bc
00000100: faf8 dfbc 1e2d 89bd 108c 583d b461 603e
00000110: ba7b 5ebc f7eb 013b d19d 3abd f269 3d3d
00000120: 642c af3c f739 f43d 69ce 523d 1913 e53d
00000130: 3152 9d3c 2a82 63bd eef4 84bc 2a53 efbb
00000140: 3fd5 1e3e 46a3 97bc 2858 a4bd e5b8 523d
00000150: ad80 12bc 2571 133d 147d a03d 07fc 9b3b
00000160: 60fc 91bb 4eb5 1fbb a325 c0bd f140 453d
00000170: c337 8ebd b317 58bd 4e00 2ebd b98d 153b
00000180: 1e29 a9bc e43a 59bd 7eb9 843d a40b dc3d
00000190: 1072 6f3d 1d0b 87bd 0d44 a2bd 86e9 493c
000001a0: 403c 95bc 3a01 84bd 9633 0fbe b5e4 29be
000001b0: 3877 ab3b d64a 9c3c df7e 2a3e 0471 6cbb
000001c0: 520b 71bd c948 e8bb 1648 bd3c 5152 1c3e
000001d0: d55c 2b3a 46bb babd d925 1b3e 6c95 07be
000001e0: b0c6 c73d 12e4 803d 09c6 bcbc 3bfd 5ebb
000001f0: 26b0 06bd 53c3 c93c 397b d1bd 7acd 8f3d
00000200: 0efe 0b3e a296 373e f6a4 503d a61a 8dbc
00000210: 4472 2fbd cbe1 f03d c398 c03d d525 a5bb
00000220: 6a3c 753d 5615 dfbc 7e90 793c 97bc c8bc
00000230: 7cb3 66bc 814c e53d 4c66 2f3d 440b 1cbd
00000240: ee8e 1c3d f683 ee3d 7c2f 92bc 4552 913d
00000250: f286 d7ba 9884 07bc 87e1 a33c 609c 92bc
00000260: 9977 bf3d eafd 32bd 19f2 9bbd 34ab 4a3d
00000270: 26b3 363d 6f1c 003b ffb3 f63b 5dd8 e73a
00000280: 3bff de3d ec3f 0a3e 31ca d43c 320b bc3b
00000290: 9da6 5e3c 8a93 193e 8d4b 8ebd aacf 8c3c
000002a0: d1b4 5ebd 688b 54bd 682f b03d b479 3a3d
000002b0: cff7 4b3e ac26 393c 08b0 c7bd ac67 263d
000002c0: 7a16 dfbd 3076 caba 9eae 213d ec41 d43c
000002d0: 1a4f 2fbd 1d19 43be df79 f63c 14b4 14bc
000002e0: eacb 84bd b430 49bd 4574 0c3d 5fd3 47bc
000002f0: f432 6c3e cd8a e93b 84a3 833d 3b04 30be
00000300: c807 50bd 68ba 7ebd 080a 303e 3901 b7ba
00000310: 161e 403d 8dc5 9c3d 9ae2 f4bb 1f24 1f3e
00000320: 65ac 4dbc e589 743d 100b b2bd 69ac 463c
00000330: c026 653d 8cd1 5d3b 9ebf 83bc 2510 e63c
00000340: 97e8 fc3d 1d9c 06be ae76 6fbd a205 19bd
00000350: 2f01 e73b 09ee 803c beee be3d c731 9a3d
00000360: f127 6bbd c616 c1bb aaa3 05bd bd1f 393d
00000370: 07e2 80bd 44a9 25be acf6 7cbc 04ee 6ebd
00000380: 5b94 013d bc23 933d a26a eabb 8980 663d
00000390: 58b8 17bc 5b40 103d 8f80 a0bc bbb6 123e
000003a0: 38bd e9bc 0e2d 6b3c b634 9a3d dc0a 2b3d
000003b0: 9295 353d 792a 5fbd 315b 733d cc51 d03d
000003c0: 00a4 423e 7e51 0c3d 301f 863d 7708 673c
000003d0: 36e8 debc bf55 0fbe 4fea a43d 7d91 333d
000003e0: 2235 493d 6a17 6cbd 2feb 06bd a87b 5ebe
000003f0: efa0 413d 5b08 15bc 5e3f eb3d 61e0 a4bc
