trained_probes_truth/probe_sae_input_label_seed_5.pt (torch, 10966 bytes, 1 tensors)

net.weight f4 [1, 2304]
000000 67 8e 6f bc b8 7a 4f bc 86 bf 07 3d a6 2c 80 3d
       -0.014621354 -0.012663536 0.033141635 0.06258516
000010 d3 04 da 3d 28 f3 80 bd 81 97 94 bc 54 a9 a9 3d
       0.106454514 -0.062963784 -0.018138649 0.0828425
000020 f1 ed cc 3d 13 f5 b2 bd 8b c1 11 3d f7 01 ed 3d
       0.10006321 -0.087381504 0.035584968 0.115726404
000030 77 b6 04 bc c8 75 2e 3d b6 9a 10 3d 0d 47 83 bd
       -0.008100144 0.042592794 0.035303794 -0.06410036
000040 e2 9a e2 3c 8d 98 2e be d3 d8 05 3b 46 7f 11 3d
       0.027661745 -0.17050381 0.0020423427 0.035521768
000050 c3 e8 af 3d b0 0b cd bd b7 1e c9 bc 57 a5 f3 bc
       0.08589318 -0.10011995 -0.024550779 -0.029741926
000060 10 b1 01 be 8a 3d f0 ba 8f 34 35 bd 3d b6 93 bd
       -0.126652 -0.0018328887 -0.044239577 -0.072124936
000070 df dc 12 3d 5c 82 37 3c 5b 05 6f 3e c5 65 db 3c
       0.03585517 0.011200514 0.23341887 0.026781926
000080 7a d8 3e bd 24 f6 19 3c e9 a6 35 3d f3 c6 b0 3c
       -0.046593167 0.009397063 0.04434863 0.021579241
000090 21 29 80 3d 02 f3 90 be 04 c1 e7 bb 94 bd c5 3c
       0.06257845 -0.283104 -0.00707257 0.02413825
0000a0 ce 6e 84 3d 67 6e 8c 3c 46 9c 1c bd 6f 78 4b 3a
       0.06466447 0.017142488 -0.03823497 0.00077617815
0000b0 cf 4a 97 bc 00 3a e5 bc 36 cf 53 3d 6f 01 03 bd
       -0.018468289 -0.027981758 0.051711284 -0.03198379
0000c0 b1 75 83 bb 12 8d 4b bd 34 b1 88 bd f4 91 2d 3d
       -0.0040118326 -0.049695082 -0.06674424 0.04237552
0000d0 bd 66 e6 3c b9 8d 8f bc ff 75 59 bd cd 10 2c be
       0.028125161 -0.017523633 -0.053091045 -0.16803284
0000e0 17 d7 77 3e 34 a8 9f 3d b4 7c 80 bc 9b 53 cf 3c
       0.24203144 0.07795754 -0.015684463 0.02530842
0000f0 2a 93 ec 3d bb ea 63 3a f2 67 34 3e cf 46 0f 3e
       0.11551507 0.00086943404 0.17617777 0.13991855
000100 8c cf 95 bc 7c bf 94 3d d4 be 01 3d b0 93 56 3d
       -0.018287443 0.07263085 0.03167613 0.05238694
000110 2c 00 d0 ba 94 99 b8 bd f7 e6 28 bb 8d e5 51 3c
       -0.0015869192 -0.09013668 -0.0025772431 0.012811077
000120 5f 2a 7f bd bb 4c ed 3d aa c5 0f 3e 53 ef 1f 3e
       -0.062296268 0.11586901 0.14040247 0.15618639
000130 8a f9 c4 3b 1a 51 59 3b c6 c3 b8 3c 88 f3 8a 3c
       0.0060111927 0.0033159913 0.02255429 0.016961828
000140 c6 7a e9 3d 59 12 a7 bb a1 be dc bd 37 74 9a 3d
       0.1140037 -0.0050986228 -0.10778547 0.075416975
000150 b3 4c bf bd 91 fe 5d bd 32 95 98 3d f6 9e 15 3e
       -0.09340801 -0.05419785 0.07450332 0.1461142
000160 7c cb 58 bd 1b 44 0c 3c 56 30 a7 bd ab a6 25 3d
       -0.052928433 0.0085611595 -0.08163516 0.04044215
000170 89 06 85 3d 3c 20 27 3e a4 7c a8 3c c9 87 03 3d
       0.06495387 0.1632089 0.020567246 0.032111917
000180 6d d0 f7 3b 03 6d 76 bd 92 c0 1c 3d aa 16 6e 3d
       0.007562688 -0.060162555 0.038269587 0.058127083
000190 58 98 82 3d 0d d1 fa 3d ca 3d 24 3b 12 b6 34 bd
       0.063767135 0.122469045 0.0025061243 -0.04411895
0001a0 fd 9a 09 bd 62 63 ec bd b3 01 4e bd 5d f7 d1 bd
       -0.033595074 -0.11542393 -0.05029459 -0.10252259
0001b0 ae 24 6e bd 61 b5 70 3c 09 ac 06 3d a9 fa 4c 3c
       -0.05814045 0.014691682 0.03287891 0.012510934
0001c0 fa 54 64 bd 79 c3 b2 3a f6 76 12 bd 38 d6 1a 3d
       -0.055745102 0.0013638578 -0.03575798 0.03780195
0001d0 5f 54 86 bc 6a f6 b7 3b c7 75 42 3e 9d 01 cb bd
       -0.016397653 0.0056140916 0.18990241 -0.09912417
0001e0 9d c0 7b 3d e5 df 45 3d 70 2d 9f bd b4 fa 08 3d
       0.061462987 0.048309226 -0.077723384 0.033442214
0001f0 71 99 90 3d ea bc d7 bd 9b 7d 70 3c c4 cd db 3d
       0.070605166 -0.105340794 0.014678384 0.10732606
000200 10 87 0b 3e 9c a2 58 3e 1b c8 06 3e 37 c6 38 3d
       0.13625741 0.2115578 0.13162272 0.045110907
000210 dc 00 de bc 6e 15 23 3e fb d3 04 3e 23 b1 a3 3d
       -0.02710002 0.15926144 0.12971489 0.079927705
000220 4d 8e 95 3c e0 be 8b 3c f0 91 f3 3c 68 0c a8 3b
       0.01825633 0.01705879 0.029732674 0.005128432
000230 fd 52 e7 bc a9 b6 80 3d 03 e3 6f bc ee da 37 bd
       -0.028237814 0.0628484 -0.014641526 -0.044886522
000240 f7 e7 96 bc 2c 53 b7 bd 42 07 98 bc 5a ad 48 3c
       -0.018421156 -0.08951411 -0.018558148 0.0122483615
000250 0a e9 94 3d e4 fc ed bc 92 b7 39 3d 62 6f 8b 3c
       0.07271011 -0.029051252 0.045341082 0.017020885
000260 f0 41 a1 3d b4 c6 01 3d 2c c7 39 be e3 c0 c8 3c
       0.07873905 0.03168364 -0.18142384 0.024506038
000270 88 12 30 3d 12 4f 11 bd 74 37 8d b9 ee 5c ec ba
       0.042986423 -0.035475798 -0.00026934932 -0.0018033066
000280 fd ba 28 3e 35 cb f9 3d 96 7c d5 3c 63 00 a2 3d
       0.1647758 0.12196962 0.026060384 0.0791023
000290 d3 d0 13 3c 19 27 ce 3d dc 57 10 bc 8d 5f 28 3c
       0.009021956 0.10066051 -0.00881001 0.010276687
0002a0 6c 2d 64 3c f4 29 e1 bd a0 dd c6 3c b7 90 09 3e
       0.013926845 -0.1099433 0.0242756 0.1343411
0002b0 96 5d 76 3e 62 c2 fd 3d e4 8b d5 3c 77 8a 27 bd
       0.24059138 0.12390591 0.026067682 -0.040903535
0002c0 7c bb 87 bc 3d b1 16 bd 74 2e 69 bd 64 cb ae 3d
       -0.016568892 -0.03679012 -0.056929067 0.085348874
0002d0 19 c1 84 bc 2c 4c 9d bd 94 8c d4 3b 10 73 33 3c
       -0.016205357 -0.07680544 0.006486485 0.010952726
0002e0 97 f2 91 bc 65 de c8 3b 5e 91 ef bd 3a 22 34 3c
       -0.017815871 0.006130027 -0.116976485 0.010994488
0002f0 2d a7 60 3e ad bc c3 3e ed 0e 15 bc 01 98 15 3d
       0.21938772 0.38229886 -0.009097797 0.036521915
000300 c7 9c 3e bd 17 84 45 be a2 8d 3c 3e 53 24 f0 3a
       -0.046536233 -0.1928867 0.18413404 0.0018321372
000310 cd a2 dc bc cc f8 2c 3e 55 d1 d0 3c cb 0f 57 bb
       -0.026933098 0.16891783 0.025490442 -0.003281581
000320 6e b6 d5 bb 96 64 4a 3d 15 c4 0b be a5 91 03 3d
       -0.0065219915 0.049412332 -0.13649018 0.03212132
000330 20 5f d3 3d ac 3d 4e bb 75 94 13 bd 3c 9f ae 3d
       0.10320878 -0.0031469865 -0.03603025 0.08526465
000340 a4 2b 63 bd a2 55 ef bc 13 0a 8f 3c 3e 88 8c 3d
       -0.05546154 -0.029215638 0.017460858 0.06861924
000350 6d 2f d8 3c d3 73 07 bd 46 85 03 3e 66 d4 ea 3d
       0.026389802 -0.033069443 0.12843809 0.11466293
000360 62 93 8d bd 0e 4d e9 bc 68 34 bd bc 87 8a 2c 3d
       -0.06912877 -0.028479125 -0.023096278 0.042124297
000370 2e 5c 35 be 1c fb 24 be 83 19 27 3d 8f 1d b3 bd
       -0.17710945 -0.16111416 0.040795814 -0.08745872
000380 cd 9d cb 3d 06 c0 4e bc d8 63 30 3d 61 d6 12 3c
       0.099422075 -0.012619024 0.04306397 0.008962245
000390 16 3f 3d 3e 3e 32 1f bd 64 d2 54 bd 5a c1 c7 3d
       0.18481097 -0.038866274 -0.051958457 0.09753676
0003a0 3e 36 26 bd 05 40 25 3d 5b a1 ce 3d 24 05 da bc
       -0.040579073 0.040344257 0.1008937 -0.02661378
0003b0 85 99 98 3c 33 ba c8 bc 33 eb 26 3d e2 a1 62 3d
       0.018627891 -0.02450285 0.040751647 0.055330165
0003c0 8e 46 59 3d 85 46 11 3d 0e 9a 92 3d 9f ef 03 3d
       0.0530458 0.035467643 0.0715829 0.032210942
0003d0 75 98 2d 3e c5 c4 d6 bc 80 e8 4b 3b 14 c1 8d bc
       0.16952689 -0.026216874 0.0031113923 -0.01730398
0003e0 4c 00 6c 3d 8a 67 eb bc 74 08 44 bd 16 fe b3 bd
       0.05761747 -0.028735895 -0.047859624 -0.087886974
0003f0 5c 38 15 3e ff 61 87 3c 04 b0 7b 3e e7 b6 4e bc
       0.1457228 0.01652622 0.24578863 -0.0126168495
