trained_probes_truth/probe_sae_input_label_seed_10.pt (torch, 10972 bytes, 1 tensors)

net.weight f4 [1, 2304]
000000 c8 1c f8 3c a8 44 16 bc 03 e3 f9 bb 20 a3 25 3d
       0.030287161 -0.009171642 -0.007625939 0.04043877
000010 aa ee 9f 3d b0 2b a3 3b c9 39 a9 bc c9 c8 80 3d
       0.078091934 0.004979573 -0.020657437 0.06288297
000020 d8 c4 c7 3d c1 dd 08 be 28 d4 86 bc 2b dc 4c 3d
       0.09754342 -0.13365842 -0.016458586 0.050014656
000030 83 5b 76 3d be 55 0d 3d aa d9 61 3d 71 d2 3d bd
       0.060145866 0.0345056 0.05513922 -0.04634327
000040 c0 62 42 bb 80 65 24 be 32 77 59 3d 89 42 bf ba
       -0.002966091 -0.16054344 0.05309219 -0.0014591973
000050 25 26 98 3d d0 cd 97 bd 3a d0 97 bb d9 a0 c4 bd
       0.074291505 -0.074123025 -0.004632977 -0.09600992
000060 5b 78 02 be 49 26 ef bb be 5f f4 bc e7 f8 9f bd
       -0.12741224 -0.007298265 -0.02983081 -0.07811146
000070 17 53 b5 3c 89 09 e4 3c 88 5f 49 3e a3 aa 41 3d
       0.022134347 0.027836578 0.19665349 0.047281872
000080 0e 2b ef bb ee ec b1 3c 37 d6 04 3d c1 df 0e bd
       -0.0072988337 0.021719422 0.032430854 -0.034881357
000090 dd 94 af 3d 20 38 f6 bd a9 91 47 3c 11 ce e0 bc
       0.08573315 -0.12022424 0.012180724 -0.02744201
0000a0 ab 89 89 3d 6e 21 ee 3c 28 94 49 bb 95 dd e6 3a
       0.06715711 0.029068675 -0.0030758474 0.0017613644
0000b0 97 22 47 bd 9c b9 22 bd 57 00 01 3d 5d 98 fc bc
       -0.04861697 -0.039727792 0.031494465 -0.030834371
0000c0 52 d2 17 bd 24 1c 1f bd a3 06 d0 bd 19 f8 8e 3c
       -0.03706581 -0.038845196 -0.10157516 0.017452287
0000d0 d6 39 e6 3b 28 d1 1a bd 7f bb a3 bc ea 4a 16 be
       0.0070259375 -0.037797123 -0.019986866 -0.14677015
0000e0 89 6c 1b 3e 04 82 4e 3d 8c a5 b0 3c 42 7b f6 3c
       0.15178122 0.05041696 0.021563314 0.03008807
0000f0 51 dd 6e 3d 1c 90 b3 bb 3f 73 f8 3d 09 16 b4 3d
       0.058316533 -0.0054798257 0.121313564 0.08793265
000100 04 7c 57 3a 7d be 34 3d 62 2f 12 3c a0 9b 16 3c
       0.0008220079 0.044126976 0.00892243 0.009192377
000110 fc fb 25 bd 67 5d cf bd 7b 49 84 3b 5e d8 3f 3c
       -0.040523514 -0.10125237 0.00403708 0.011709301
000120 6b 2f 87 bd 0e f2 df 3d 75 71 a2 3d 8e 43 94 3d
       -0.06600841 0.1093484 0.079317965 0.072394475
000130 4e c0 7a bc 0d 7e 75 3c eb f2 aa 3b b8 68 21 3b
       -0.015304638 0.014983666 0.0052169464 0.0024629068
000140 e3 2c bb 3d 78 b6 42 bc bf f6 38 bd 71 f7 66 3d
       0.09139421 -0.011884324 -0.04515719 0.056388322
000150 dd d7 04 bd 58 b7 1d bd c8 4f c4 3d bf 90 ba 3d
       -0.032432426 -0.03850493 0.095855296 0.091096394
000160 9d ab 75 bd d7 c5 18 bc 83 5d 95 bd 96 00 4f 3d
       -0.059978116 -0.009324512 -0.072932266 0.05053767
000170 cf a1 37 3c f7 ab 0f 3e 59 f1 f6 ba 9f c2 00 3d
       0.011208012 0.14030443 -0.0018840238 0.031435605
000180 40 c5 1a bc 22 2c 74 bd bd 57 a6 3c 42 8f 35 3c
       -0.009446442 -0.0596124 0.020305509 0.011081519
000190 70 89 56 3d d4 d0 c3 3d d9 c2 71 3b a1 0c 06 bb
       0.052377164 0.09561315 0.003688982 -0.0020454305
0001a0 28 6e fd bc b9 97 d4 bd 32 3f e3 bc d0 a7 da bd
       -0.030936316 -0.10380501 -0.027740095 -0.10676539
0001b0 39 1c 33 bd 76 b2 b7 bb 73 43 b4 3d e6 5e a4 bc
       -0.043728087 -0.005605991 0.088019274 -0.020064782
0001c0 06 41 61 bc ca a5 25 bc c1 dc ff bc be 25 62 ba
       -0.013748413 -0.010110328 -0.031233193 -0.000862684
0001d0 cb df a6 bb 3e 04 50 3b 33 59 15 3e 19 9b e4 bd
       -0.005092596 0.003174081 0.14584808 -0.11162395
0001e0 a9 d5 86 3d 70 59 49 3d cc 73 eb bd f1 95 c1 3c
       0.06583721 0.04915756 -0.11496696 0.023631068
0001f0 47 68 69 3d 81 4c 86 bd 46 ac 45 3c 5e 36 9e 3d
       0.056984212 -0.06557561 0.012064999 0.077252135
000200 0c dd f7 3d b9 62 35 3e 2e e3 f1 3d 99 e6 6f 3b
       0.12102708 0.17713441 0.11810909 0.0036605953
000210 13 44 aa bc c3 e8 b8 3d de 38 93 3d f4 18 31 3d
       -0.020784413 0.09028771 0.07188581 0.043236688
000220 d4 5f 2d 3b 5e bc 0e 3d 62 98 40 3b f9 98 64 bc
       0.0026454823 0.03484761 0.0029387702 -0.013952487
000230 1f ab 4a bd c0 be 63 3a 83 9c 63 3c f3 43 5d bd
       -0.0494796 0.0008687787 0.013892296 -0.05401988
000240 f2 1d 88 bc e3 93 18 bd 12 c1 0c bc fb 4f b2 3c
       -0.016615842 -0.03725041 -0.008590953 0.021766653
000250 4a e8 93 3d d3 8c d9 bb 83 73 06 3d 60 80 01 3c
       0.0722204 -0.006639102 0.032825004 0.007904142
000260 8d c9 0e bd dc 37 b0 3b a6 6d 53 be 69 27 e6 3b
       -0.034860183 0.0053777527 -0.20647296 0.007023741
000270 83 df 30 3d a1 ed 69 3b c6 9f ea 3c 80 f7 b5 3c
       0.043181907 0.0035694616 0.028640639 0.022212744
000280 78 55 19 3e 4b 39 6e 3d 1e 49 9a bc 81 5f d9 3d
       0.1497401 0.058160108 -0.018833693 0.10613919
000290 9d f1 e4 bc cd 6b fe 3c 2f fc 6f bb e0 ad b7 bc
       -0.027947241 0.031057263 -0.003661882 -0.022421777
0002a0 9a 4c 0f 3b 3a 03 12 be dd 58 47 3c 20 5c 24 3e
       0.0021865726 -0.14259043 0.012167183 0.16050768
0002b0 cc 3b c4 3d 1e 6a 49 3d 9f 89 4a 3d 88 bb dc bb
       0.09581718 0.049173467 0.049447652 -0.0067362227
0002c0 8e 1b 44 3d a6 4d a1 bb b9 07 b8 bc ee 41 66 3d
       0.04787784 -0.0049225865 -0.02246462 0.05621522
0002d0 1e ff cd 39 2a fa 3a 3c 43 3f 57 3d ea e4 4c 3d
       0.00039290724 0.011412183 0.052550565 0.050022997
0002e0 79 bb db bc 6d 42 3c 3c b1 51 af bd 16 6a 1e bb
       -0.026822792 0.0114904465 -0.08560503 -0.002417212
0002f0 c1 81 ea 3d f9 fa bc 3e bc 95 ce bc 87 62 32 3d
       0.1145053 0.36910227 -0.025217883 0.043550994
000300 22 41 7f bd c7 96 38 be d4 73 4f 3e 80 cf 25 bc
       -0.062317975 -0.18026267 0.20259029 -0.010120273
000310 a8 63 b8 bc ea 11 03 3e 40 73 a7 bc 7d 5d 8b bc
       -0.022508457 0.12799802 -0.020440698 -0.017012352
000320 5b 9f 89 bd 99 ac 04 3e f7 1b eb bd 8f 5f 2c 3d
       -0.06719848 0.12956466 -0.11479943 0.04208332
000330 a2 d1 d7 3d a1 dc f2 39 2a 9e d8 bb 85 da 34 3d
       0.10538031 0.00046322218 -0.0066106515 0.04415371
000340 23 3d ec bd 0a 66 77 bd fa 0c d2 3b bf e0 75 3c
       -0.115350984 -0.060400046 0.0064102383 0.015007197
000350 27 67 74 3c e2 b7 ce bb 1a ad cc 3d 18 7b 7c 3d
       0.014917172 -0.0063085416 0.09993954 0.06164083
000360 12 64 59 bd 84 b7 3a bc 7d 1a be bc c0 fb 60 3c
       -0.05307395 -0.011396293 -0.02320599 0.013731897
000370 c4 1f 5f bd bb 9f a2 bd 6a 45 3a 3d 77 ef b7 bd
       -0.054473653 -0.079406224 0.045476355 -0.08981221
000380 f8 a5 be 3b 9a 8f 51 bc d0 c7 38 3d d9 b1 c0 3c
       0.005818125 -0.012790585 0.04511243 0.023522304
000390 24 85 7c 3d 5e 1b 09 3d e0 b8 9f bd b1 96 89 3d
       0.06165041 0.033473365 -0.07798934 0.06718195
0003a0 be 65 a4 3c 9d ac 7f 3c a9 a2 2d 3d 1b 14 0e bb
       0.020068046 0.015605119 0.042391453 -0.0021679464
0003b0 e0 4f 0f 3d 9a 70 19 bd 33 e3 d2 3c ec 24 40 3d
       0.034988284 -0.0374609 0.025743103 0.04691021
0003c0 3a 0a ef 3c 58 f0 0f bc 0b 23 9a 3c 56 7d 8d 3c
       0.029179681 -0.00878533 0.018815538 0.017271679
0003d0 93 cc 96 3d c6 53 39 bc a8 20 17 3d 40 a8 00 bd
       0.07363238 -0.011311477 0.036896378 -0.031410456
0003e0 a6 21 6d 3d bb bd aa 3b 18 58 a5 bd 9a bf ab bd
       0.057893418 0.005210606 -0.08073443 -0.083861545
0003f0 c8 fc 30 3e c8 78 c5 3c be 0d 2a 3e 5e 49 a5 3c
       0.17283928 0.024105445 0.16606805 0.020176586
