trained_probes_truth/probe_sae_diff_label_seed_17.pt (torch, 10966 bytes, 1 tensors)

net.weight f4 [1, 2304]
0	0x3cddd429	0.027078705
1	0x3d6ac0f6	0.05731293
2	0x3cb2a2d8	0.021806166
3	0x3d2186a1	0.039435033
4	0x3db888f7	0.09010499
5	0x3d1a2c49	0.03763989
6	0x3d4bfe4d	0.049803067
7	0xbd181ba7	-0.037135746
8	0xbd1ccfed	-0.03828423
9	0xbd8b7a9b	-0.068104945
10	0x3d7b66ef	0.061377462
11	0xbcc77174	-0.02434609
12	0xbc570170	-0.013122901
13	0x3cdc5417	0.026895566
14	0x3c6d3714	0.014478464
15	0x3d3a31c7	0.045457628
16	0xbd0e4f50	-0.034743607
17	0xbd579154	-0.05262883
18	0xbcefa502	-0.029253487
19	0x3d7bf46b	0.061512392
20	0x3e25c3bc	0.16187948
21	0xbe607117	-0.2191814
22	0xbd63ab84	-0.055583492
23	0xbdff6a99	-0.12471504
24	0xbe76796f	-0.2406976
25	0x3e7659b7	0.24057661
26	0xbde19285	-0.110142745
27	0xbdbe32ec	-0.09287056
28	0xbd480b0b	-0.048838656
29	0xbd44f2b2	-0.048083015
30	0x3d3dc154	0.04632695
31	0x3db0d250	0.08633864
32	0xbd455008	-0.048172027
33	0xbd3236c3	-0.043509256
34	0x3d3bf660	0.04588926
35	0x3d1563d0	0.03647214
36	0x3c840a89	0.016118305
37	0xbdae0e42	-0.08498813
38	0xbda9c2a3	-0.08289077
39	0xbd4c7e18	-0.04992494
40	0x3db6178e	0.088912115
41	0x3ca37da2	0.019957367
42	0x3d013221	0.031541947
43	0xbdc293e2	-0.09500863
44	0xbd8f9aa1	-0.07011915
45	0x3da4fc9a	0.080559924
46	0xbdc9d010	-0.09854138
47	0xbd267aea	-0.040644564
48	0x3d51dd50	0.05123645
49	0xbcd14b95	-0.025548736
50	0xbe10de39	-0.14147271
51	0x3bd17cd3	0.006393054
52	0x3e33ca6e	0.1755769
53	0x3c3167ed	0.0108280005
54	0xbd45bde4	-0.048276797
55	0xbd692ab9	-0.05692551
56	0x3e136643	0.14394478
57	0x3d94d5e5	0.0726736
58	0x3cebc44d	0.028780127
59	0x3d2c729d	0.04210149
60	0x3d6f9aee	0.05849736
61	0x3da5b46b	0.080910526
62	0x3d23d653	0.039999317
63	0x3e5eb12d	0.21747275
64	0xbc1dec95	-0.009638925
65	0x3ce4b17b	0.02791666
66	0xbd944a4b	-0.07240733
67	0xbd98aa8d	-0.07454405
68	0x3de5806e	0.11206137
69	0xbdddb648	-0.10825783
70	0xbd79faee	-0.06103032
71	0xbc475ab6	-0.012167623
72	0xbe1dd8f6	-0.15414795
73	0x3bc28ac4	0.0059369523
74	0x3dd28781	0.102797516
75	0xbd19beed	-0.037535597
76	0xbcc4945a	-0.02399652
77	0x3cfed8d9	0.03110926
78	0x3cf9efb7	0.030509813
79	0xbd38a07a	-0.045074917
80	0x3dd53af0	0.10411632
81	0xbd4ba03d	-0.049713362
82	0x3d9efc06	0.077629134
83	0x3e0cae8b	0.13738458
84	0xbd911838	-0.070846975
85	0xbd0c7f54	-0.034301117
86	0x3cbb6a0b	0.022877714
87	0x3e52b5d4	0.20577174
88	0xbde90c82	-0.11379339
89	0x3cbbe246	0.022935044
90	0xbd822eca	-0.063565806
91	0x3d127f92	0.03576619
92	0x3c3b3306	0.011425739
93	0x3e0f9eb3	0.14025383
94	0x3d91dadd	0.07121823
95	0x3dac3e46	0.08410315
96	0x3df838fb	0.12120243
97	0xbda9444a	-0.08264978
98	0xbd092306	-0.033480667
99	0xbd2be4bf	-0.041966196
100	0x3d73ecb8	0.059551924
101	0x3ddc4043	0.107544445
102	0x3def78e9	0.11692984
103	0xbdc5de93	-0.09661593
104	0xbca412ce	-0.020028498
105	0xbd068920	-0.032845616
106	0x3e1e003f	0.15429781
107	0x3dff7a55	0.12474505
108	0x3c415f75	0.011802544
109	0x3df3eaf1	0.11910046
110	0xbdcbe3e3	-0.09955575
111	0xbc3cf1b5	-0.011532237
112	0x39039b9f	0.00012551107
113	0x3d30962d	0.04311197
114	0xbdb22b02	-0.08699609
115	0xbd488b6d	-0.04896109
116	0x3dd718c1	0.10502768
117	0x3d3b8a69	0.045786295
118	0x3dc240ab	0.09484991
119	0xbd115947	-0.035485532
120	0xbcaf2783	-0.021381145
121	0xbc1c39eb	-0.009535293
122	0xbddbd9b0	-0.1073488
123	0x3d208a37	0.039194312
124	0x3d3f179c	0.046653375
125	0xbe133706	-0.14376459
126	0x3e4e4d0b	0.20146577
127	0x3cb04fed	0.021522487
128	0x3d9eb19a	0.077487186
129	0xbc3b5d3b	-0.011435802
130	0x3e01b853	0.1266797
131	0xbcfc052f	-0.03076419
132	0xbd33e183	-0.043916237
133	0x3db54efe	0.08852957
134	0x3e0aa1de	0.1353831
135	0x3d017074	0.031601384
136	0xbd8a6d86	-0.06759171
137	0x3def7b71	0.116934665
138	0xbc7fa9e4	-0.01560447
139	0x3bdc5c14	0.0067248438
140	0xbe8bf635	-0.2733628
141	0xbd48c2f9	-0.049014065
142	0x3c99908a	0.01874568
143	0x3b7973f3	0.0038063496
144	0xbdca40c3	-0.098756336
145	0x3c40e17f	0.011772512
146	0xbd812227	-0.06305342
147	0xbd1d9b8d	-0.038478423
148	0x3ceb74a7	0.028742148
149	0x3dbd8707	0.0925427
150	0x3deba974	0.1150693
151	0xbbd5df06	-0.0065268306
152	0xbb664e49	-0.0035141876
153	0x3db475ea	0.08811553
154	0xbc9cbda3	-0.019133395
155	0x3c222b32	0.009897994
156	0x3cf3769c	0.029719643
157	0xbc4c72e2	-0.012478562
158	0xbba99c73	-0.005176121
159	0xbcd8a180	-0.026444197
160	0x3d374e87	0.044752624
161	0xbce94e74	-0.028479792
162	0xbd2a411d	-0.041566003
163	0x3dc01a31	0.093799956
164	0xbd6b19da	-0.0573977
165	0xbd5c0463	-0.05371512
166	0xbca0551f	-0.019571839
167	0x3d314609	0.04327968
168	0x3cdd6863	0.027027315
169	0xbd0d8837	-0.034553733
170	0xbc044e58	-0.008075319
171	0x3e0f41a6	0.13989887
172	0x3a5b8e8d	0.0008375429
173	0x3dfbc2f9	0.122930475
174	0x3c433d97	0.01191654
175	0xbd6ef883	-0.058342468
176	0x3e7ba6f1	0.24575402
177	0xbc85f3c1	-0.016351582
178	0xbdf2a8dc	-0.118486136
179	0x3e174403	0.14772038
180	0x3d7aef38	0.061263293
181	0x3d911423	0.07083919
182	0x3d12ccb7	0.035839763
183	0x3d842dd3	0.06454053
184	0x3cf5f487	0.030023826
185	0xbdae7bb9	-0.08519692
186	0xbe04e9e5	-0.12979849
187	0x3c7dc7cf	0.015489533
188	0x3d84740d	0.064674474
189	0x3e20c51b	0.1570019
190	0xbdf76964	-0.120806485
191	0x3d6a05dc	0.057134494
192	0xbd441a5b	-0.047876697
193	0xbd8c5a9d	-0.068532206
194	0x3e279c13	0.16368131
195	0xbd518052	-0.051147766
196	0xbcc2216b	-0.023697576
197	0x3e02501c	0.12725872
198	0x3cf17b8e	0.02947786
199	0xbd3f2696	-0.046667658
200	0x3d1cd7bf	0.03829169
201	0x3d2f163e	0.04274582
202	0xbdc0fc1c	-0.09423086
203	0x3d990c8b	0.074730955
204	0x3e17a1f1	0.1480787
205	0x3ca88fba	0.020576347
206	0xbd8562be	-0.06512974
207	0x3d84c933	0.06483688
208	0xbd5079fa	-0.050897576
209	0x3dd97e07	0.10619741
210	0x3bd2b4f1	0.0064302613
211	0xbb9c0ed9	-0.004762512
212	0x3d294568	0.041325957
213	0x3bbc20c8	0.0057412125
214	0x3d5db76d	0.054130007
215	0x3e2b12a9	0.16706337
216	0xbc8812c2	-0.016610507
217	0xbc6d2d6b	-0.0144761605
218	0x3d2aec12	0.04172904
219	0x3d9a1754	0.07523981
220	0xbc4a94ae	-0.01236455
221	0x3dba2443	0.090889476
222	0x3d470b64	0.048594847
223	0xbd85aa71	-0.0652665
224	0x3c902775	0.01759694
225	0xbdcb7b5d	-0.09935639
226	0x3e24c161	0.16089393
227	0xbb99f17e	-0.0046979776
228	0x3e6580bd	0.22412391
229	0xbd37924d	-0.044817258
230	0xbd6050d9	-0.054764602
231	0x3d5e788b	0.054314177
232	0xbc80b197	-0.015709681
233	0x3ca58080	0.020202875
234	0xbd37de23	-0.04488958
235	0xbd9d9f83	-0.0769644
236	0x3dbca9e8	0.092120945
237	0xbd2ebea1	-0.042662267
238	0xbc92b196	-0.017906945
239	0x3d52fab1	0.05150861
240	0x3bd17c89	0.0063930196
241	0x3cd9b3a0	0.02657491
242	0x3cea8558	0.028628036
243	0xbcea0d1e	-0.028570708
244	0xbd16dc11	-0.036830965
245	0xbbe495db	-0.006975872
246	0x3b8eab06	0.0043538837
247	0xbd87689f	-0.06611752
248	0x3d4576f7	0.048209157
249	0x3d1c7e34	0.038206294
250	0x3d76c268	0.060243994
251	0xbc2f297a	-0.010691041
252	0x3e788fa9	0.24273552
253	0x3d87954e	0.066202745
254	0x3db79d53	0.08965554
255	0x3d3f5c8d	0.046719123
