trained_probes_truth/probe_sae_recons_label_seed_5.pt (torch, 10972 bytes, 1 tensors)

net.weight f4 [1, 2304]
-0.09159006 -0.066534504 0.14091872 0.047252968 0.028171664 -0.05984126 0.028032742 0.14663959
0.062323857 0.030409202 -0.00017655198 0.11975735 -0.008519815 0.02202858 0.05221621 -0.032380242
0.021300487 -0.102705054 0.0061799195 0.0033511743 0.006952828 -0.06809854 -0.030026019 0.030859383
-0.015639307 -0.056511592 0.12605686 -0.03908072 0.23207025 0.0324821 0.1828729 -0.020715408
-0.0060026767 0.033690963 0.026973158 -0.0717327 0.15165517 -0.14787082 0.010482828 0.05830838
-0.07987672 0.0063415617 -0.07916028 0.10465939 0.029476665 -0.02719781 0.07784471 -0.022707656
-0.06095015 -0.100510314 -0.04918324 0.021114307 -0.0021695641 -0.24776728 -0.040461045 -0.19785427
0.043478318 -0.06362507 0.013932547 0.007893206 0.078000136 -0.062027823 0.051501956 -0.043042086
-0.03600662 -0.018019425 0.055313166 0.17719744 -0.0015084128 0.050072238 0.0021179772 0.076905295
0.0022243368 0.11195953 0.046612475 0.04063968 0.056895714 -0.027885303 0.0062751262 0.0051345415
0.17602739 -0.0016074494 -0.08035484 0.061661206 0.019661274 0.008631205 0.054066718 -0.008102398
0.013399207 0.0004513404 -0.081815235 0.049262445 -0.09144745 0.050502364 -0.074897885 -0.041063197
-0.022041157 -0.05514348 0.07669932 0.07020968 0.045824002 -0.12246164 -0.09402475 -0.009893766
-0.04646687 -0.07664904 -0.14168048 -0.18905604 -0.025318071 -0.0032123036 0.13796866 0.08411718
-0.06340819 -0.0036739015 0.03378882 0.1663563 -0.01771232 -0.099504575 0.13727245 -0.1607101
0.07566857 0.028659338 0.004905137 -0.002184713 -0.04848621 0.033946652 -0.10812271 0.07179766
0.084431596 0.17399868 0.04165793 0.0049810014 -0.01743777 0.122050434 0.049189553 0.060470283
0.11549376 -0.05617523 0.02928177 -0.017262591 -0.020320764 0.15941489 0.06603325 -0.05236432
0.041831106 0.17167765 -0.026910799 0.04864844 0.01979655 -0.016101193 -0.017182497 0.024255125
0.067615084 -0.019676358 -0.12758613 -0.023661274 0.04205116 0.0012232953 0.011502337 0.00069845794
0.08674217 0.112852715 -0.011975683 0.012777211 0.010555214 0.11305266 -0.068429105 -0.0023219099
-0.07984193 -0.030725015 0.07363928 0.043363016 0.115775555 0.04876703 -0.08716614 0.01751516
-0.12313246 -0.019016188 -0.0132023115 0.0067112744 -0.04999099 -0.16688521 0.022409817 -0.0103400415
-0.034678854 -0.0193031 -0.0023837052 -0.028689746 0.037311163 0.0105308 0.036798768 -0.09226964
-0.005953298 -0.06193211 0.042865828 0.003980481 0.021240473 0.0751807 0.014193202 0.13010095
-0.01944895 0.09205702 -0.079716176 0.031793352 0.079137184 -0.024431635 -0.03810247 0.017982734
0.07208347 -0.08639545 -0.009202042 0.009709588 0.019295376 0.009391015 0.044340607 0.10660934
-0.10821587 -0.022940155 -0.0592338 -0.013309846 -0.09576555 -0.16659597 -0.019670049 -0.0121366875
0.059242103 0.083850816 -0.015438219 0.02897137 -0.02865403 0.021054763 -0.023491643 0.10627548
-0.03172372 0.01266135 0.04400278 0.037470244 0.021240888 -0.02092711 0.07009774 0.13721439
0.1355521 -0.017362103 0.09564441 0.014100724 0.023479946 -0.14176418 0.02977651 0.047305997
0.06517811 -0.054897707 -0.027931936 -0.2001307 0.021498062 -0.024102638 0.10769611 -0.0326037
00000000: 9293 bbbd 3e43 88bd ff4c 103e 548c 413d
00000010: 43c8 e63c 1c1c 75bd eca4 e53c b028 163e
00000020: 4d47 7f3d b81c f93c d020 39b9 5743 f53d
00000030: b296 0bbc 4875 b43c aae0 553d 25a1 04bd
00000040: 5c7e ae3c 0757 d2bd ec80 ca3b 609f 5b3b
00000050: 8cd4 e33b 3f77 8bbd 20f9 f5bc d1cc fc3c
00000060: 011e 80bc b378 67bd 0d15 013e 1b13 20bd
00000070: d3a3 6d3e f30b 053d 0943 3b3e 5cb3 a9bc
00000080: 1ab2 c4bb 89ff 093d d0f6 dc3c 98e8 92bd
00000090: 7e4b 1b3e 736b 17be 2bc0 2b3c c5d4 6e3d
000000a0: 6896 a3bd e0cc cf3b c91e a2bd aa57 d63d
000000b0: 0c79 f13c f1cd debc 0c6d 9f3d 6805 babc
000000c0: dda6 79bd 5ad8 cdbd 5d74 49bd e9f7 ac3c
000000d0: 3f2f 0ebb b5b6 7dbe 7bba 25bd 4f9a 4abe
000000e0: 5216 323d dc4d 82bd 5645 643c 8152 013c
000000f0: 89be 9f3d e310 7ebd b7f3 523d e64c 30bd
00000100: ad7b 13bd 799d 93bc 0f90 623d 3f73 353e
00000110: efb5 c5ba 8c18 4d3d c3cd 0a3b 8680 9d3d
00000120: 2ec6 113b 0a4b e53d b9ec 3e3d cb75 263d
00000130: 7b0b 693d b86f e4bc 939f cd3b a83f a83b
00000140: 8640 343e 0db1 d2ba 1491 a4bd 7690 7c3d
00000150: ae10 a13c e669 0d3c 1075 5d3d ecbf 04bc
00000160: 5988 5b3c e2a1 ec39 bf8e a7bd 6bc7 493d
00000170: cd48 bbbd 91db 4e3d 1064 99bd e231 28bd
00000180: a88f b4bc 21de 61bd 8814 9d3d 18ca 8f3d
00000190: f3b1 3b3d 2bcd fabd 0c90 c0bd 7619 22bc
000001a0: 0b54 3ebd 2cfa 9cbd b014 11be e897 41be
000001b0: d867 cfbc 8385 52bb a847 0d3e a145 ac3d
000001c0: 27dc 81bd d7c5 70bb 2566 0a3d 4e59 2a3e
000001d0: 6d19 91bc 0ec9 cbbd 2691 0c3e 3091 24be
000001e0: 20f8 9a3d fdc6 ea3c 45bb a03b 672d 0fbb
000001f0: 7a99 46bd a50b 0b3d 706f ddbd a70a 933d
00000200: 79ea ac3d b62c 323e 81a1 2a3d ab37 a33b
00000210: a7d9 8ebc 94f5 f93d fc7a 493d b0af 773d
00000220: fe87 ec3d ff17 66bd 53e0 ef3c 476a 8dbc
00000230: bb77 a6bc a83d 233e 713c 873d f87b 56bd
00000240: 1857 2b3d 44cc 2f3e 0974 dcbc 9643 473d
00000250: 602c a23c a6e6 83bc 4fc2 8cbc afb2 c63c
00000260: c779 8a3d 5030 a1bc f0a5 02be 4ad5 c1bc
00000270: d63d 2c3d fb56 a03a 4c74 3c3c b818 373a
00000280: e1a5 b13d 531f e73d a835 44bc 8257 513c
00000290: c7ef 2c3c 2788 e73d 8f24 8cbd 2f2b 18bb
000002a0: 2a84 a3bd 07b3 fbbc 31d0 963d 6b9d 313d
000002b0: bc1b ed3d f0bf 473d 2984 b2bd f47b 8f3c
000002c0: df2c fcbd d6c7 9bbc 824e 58bc 40ea db3b
000002d0: 5ac3 4cbd f5e3 2abe cb94 b73c 4769 29bc
000002e0: 6a0b 0ebd 8921 9ebc f037 1cbb c206 ebbc
000002f0: 97d3 183d 6089 2c3c 4eba 163d ddf7 bcbd
00000300: e213 c3bb 86ac 7dbd 1494 2f3d b26e 823b
00000310: 8000 ae3c 57f8 993d 9b8a 683c 2f39 053e
00000320: 6853 9fbc 6488 bc3d 3c42 a3bd bf39 023d
00000330: ad12 a23d da24 c8bc 5611 1cbd 8750 933c
00000340: 80a0 933d 19f0 b0bd 29c4 16bc f714 1f3c
00000350: 5611 9e3c c6dc 193c 7f9e 353d ff55 da3d
00000360: 48a0 ddbd feec bbbc 249f 72bd 8a11 5abc
00000370: bb20 c4bd 2298 2abe 1523 a1bc f5d8 46bc
00000380: d9a7 723d fab9 ab3d 95f0 7cbc 5e55 ed3c
00000390: dbbb eabc 0a7b ac3c 8c71 c0bc f5a6 d93d
000003a0: bbf0 01bd 8d71 4f3c 423c 343d 667a 193d
000003b0: 5f01 ae3c 556f abbc 678f 8f3d ee81 0c3e
000003c0: 2bce 0a3e f83a 8ebc 37e1 c33d b906 673c
000003d0: 0459 c03c a12a 11be deed f33c efc3 413d
000003e0: 1a7c 853d 6bdc 60bd 84d1 e4bc 10ef 4cbe
000003f0: b41c b03c e572 c5bc c78f dc3d 758b 05bd
