trained_probes_truth/probe_sae_recons_label_seed_18.pt (torch, 10978 bytes, 1 tensors)

net.weight f4 [1, 2304]
00000000: 5e46 03be 8359 95bd 9559 9b3d e622 6a3d
00000010: fba9 ef3c 9a1e 20bd 8563 883d fea1 183e
00000020: e86c 263d c4ac a1bb 2218 b1bc c955 0d3e
00000030: 4150 0c3c 1480 053d 98ec 8a3d e2d8 99bd
00000040: ce1d 8c3c 43ef 8ebd e50b b13c 1967 48bc
00000050: e78f 213d e6c2 203c 3e0b cf3c b3c0 cdbb
00000060: 8362 39bb cdb4 54bd 34b5 b83d 37df b8bc
00000070: 17ff 2e3e 9a2a 383d 2dc9 e63d fe41 0cbd
00000080: 5ada a03c bd46 00bc 4ba7 953c 0fcd 10be
00000090: 2583 283e 85e0 cebd 7409 623b 5b5a de3c
000000a0: 9310 8cbd b79c 273c 3cee 6dbd b12f 433d
000000b0: d3d4 bdbb 8995 58bd 722f 803d 3831 f6bb
000000c0: 4df5 afbd b84b 08bd efae 00be 467e ac3c
000000d0: 927c 38bd df77 59be 7b7d 17bd e782 80be
000000e0: d966 80bc b51e c8bc 31fd 2a3d de6b a8bb
000000f0: fead ab3d bc29 b1bc a2ae 843d c5ea 3d3a
00000100: 9015 01bd 582a f2bc c94f 513d eddf 0a3e
00000110: 89de aabc ae69 333d 8664 13bd c449 283c
00000120: 0b08 893c f03e 883d 8a6a 543d 5163 c53d
00000130: 1073 863c 7fee 15bc fe51 a63c 86ee 023b
00000140: e4f4 b33d 325f f2bb 14e5 9ebd d729 a73c
00000150: f9a0 b4b8 47b8 0d3d a87b 3e3d 6eb5 33bd
00000160: d0b8 d4bb 03cd e23c 5262 96bd a192 943d
00000170: e7e0 ddbd c54b 4d3d ae15 3fbc 08ce a2ba
00000180: caf3 dabc a6df a1bd 4edd eb3c 80ef b53d
00000190: 7011 6e3c 957a ddbd 5c58 1bbd 616d 163d
000001a0: 24d3 bfbc 8411 63bd cd6b febd dd90 1dbe
000001b0: 0d89 3c3c 7d1a 77bc 444b 9c3d 23e3 3e3d
000001c0: 3ec4 35bd 6b1e 653c 9f04 f93c 5ab9 313e
000001d0: e812 27bd aa08 82bd 9f99 903d d1b4 20be
000001e0: 1a62 723d 04c1 033d 1cbd 7f3c ec9d 513c
000001f0: fdc0 3cbd 028a 85ba 36b6 b6bd c7a8 843d
00000200: bfed 7d3d ec26 673e 15f7 673d 2106 953c
00000210: b229 e4bc 1518 b43d e885 b13d 5d1c 403d
00000220: dc60 b23d ce9a edbc c1f3 e13c 0eee 793c
00000230: a05a b83c 99ec 943d 6f73 1bbd ce55 91bd
00000240: 75ea 073d 9bae 3cbb a7cc cfbc 0d5f 0a3b
00000250: fb8f 063d 27ea 2ebb 6f30 223d 9363 2d3b
00000260: be7c e53c e246 0cbd 919a b3bd 65f1 423d
00000270: ab60 0c3d 6a45 1abc 2aff 083d a2de 33bb
00000280: 27cb ca3d cbc4 eb3d 2b5d f83c 3cf7 563d
00000290: abf6 003c 60c0 303e feb8 4abd 0ead 09bc
000002a0: f9a3 80bd 6b31 0fbd 88da b23d 8d9d dc3c
000002b0: c7c9 e03d c5ba f83c 2614 a7bd b1d9 603d
000002c0: 7247 9fbd 032c 763c c10c 943c 52cb 82bc
000002d0: ed57 6dbd 3406 c3bd d677 ee3c 820a 8cbb
000002e0: d241 86bd e73e 1ebd c94e 293d 0f9f 84bd
000002f0: b2d7 2b3e 5cf9 a93c 1583 8e3d 0383 efbd
00000300: 185e 37bd f7a6 9ebd 5005 b63d e0a5 da3c
00000310: 1b05 fb3c 73cc 3b3d a7ea 0d3c 6d5b 1a3e
00000320: f25a b0bb c0e5 423d 41d5 23bd 0804 0a3d
00000330: 9d7f 943d 8290 9a3c 17c9 bdbc 806e 0b3d
00000340: c15e 893d 3d14 34bd 26c8 a3bc 4288 b23c
00000350: 1e07 1d3d e0f1 243c 3a61 bf3d a973 873c
00000360: e2cd b5bd ce9d 2ebd 07b7 87bc 4c22 c9b9
00000370: ad11 80bd 4ad3 38be 97d0 f2bc fe86 3ebd
00000380: 2b6c ce3b 2232 853d b812 1dbc d7fd 053d
00000390: 2d0f bcbc 61c8 853d 6b2c ba3c 3c48 143e
000003a0: 3694 16bd 33f4 473d fbaa 433d c529 023d
000003b0: fd47 2f3d b309 dfbc ab71 253d 8bdb e43d
000003c0: a66c 363e c2c5 11bd 3b80 e93d 1897 8b3c
000003d0: b0bc f23b 019f c4bd 12f6 833d 2b16 ef3c
000003e0: 7e44 9c3d 152e 23bd 191c 32bd 6326 7abe
000003f0: 1903 793c 4fcc 15bd 7930 4d3d c55a 64bc
-0.12819812 -0.07292464 0.07585446 0.057162188 0.029255858 -0.039091684 0.06659607 0.14905545
0.040631205 -0.0049339253 -0.021617953 0.13802256 0.008564056 0.032592848 0.06783408 -0.0751207
0.017104056 -0.06979229 0.021612117 -0.012231612 0.039443877 0.009812092 0.025273915 -0.006279075
-0.0028287477 -0.051930238 0.09018937 -0.022567375 0.17089497 0.044962503 0.1126884 -0.034242623
0.019635368 -0.007829365 0.018268248 -0.14140724 0.16456278 -0.101014175 0.0034490498 0.027142694
-0.06839099 0.010230235 -0.058088526 0.047652904 -0.005793193 -0.052876983 0.062590495 -0.0075131916
-0.08591709 -0.033275336 -0.12566732 0.021056306 -0.045040675 -0.21237133 -0.036984902 -0.2509987
-0.015674042 -0.024428705 0.04174537 -0.005139812 0.08382796 -0.021626346 0.06478621 0.0007244761
-0.031514704 -0.029561207 0.05110148 0.13561983 -0.020858066 0.043801956 -0.03598454 0.010271493
0.016727468 0.066526294 0.051859416 0.09638084 0.016412288 -0.0091511 0.020302769 0.0019978597
0.087869436 -0.007396602 -0.07758537 0.020405693 -8.613052e-05 0.03459957 0.046504647 -0.043874197
-0.006491758 0.027685648 -0.07342972 0.0725453 -0.10833912 0.050121088 -0.011662884 -0.0012421021
-0.026727576 -0.07903986 0.02879205 0.088835716 0.014530525 -0.10814396 -0.037926063 0.036725406
-0.02341611 -0.055436626 -0.12422905 -0.15387292 0.011507285 -0.015081999 0.07631543 0.046603333
-0.044376604 0.013984303 0.030397711 0.17355862 -0.040789515 -0.06349309 0.07060551 -0.15693976
0.05917559 0.032166496 0.015609052 0.012793999 -0.046082485 -0.0010188224 -0.08921473 0.06477504
0.06199431 0.22573441 0.05663212 0.018191399 -0.027851913 0.08793656 0.08668119 0.04690205
0.08709881 -0.02900448 0.027582051 0.015254511 0.02250415 0.0727169 -0.037951883 -0.07096444
0.03318258 -0.0028790596 -0.02536614 0.0021113784 0.032852154 -0.0026689859 0.03959697 0.0026457056
0.028013583 -0.034247287 -0.087697156 0.047593493 0.034271877 -0.009415964 0.03344647 -0.0027445932
0.099020295 0.11512145 0.030317863 0.052481875 0.00787131 0.17260885 -0.04949283 -0.008403076
-0.06281275 -0.034959238 0.08733088 0.026930595 0.10975986 0.030362496 -0.0815814 0.054895107
-0.07777299 0.015025142 0.018072488 -0.015966091 -0.05794518 -0.095226675 0.029109877 -0.0042737136
-0.06555523 -0.038634207 0.0413349 -0.064756505 0.167815 0.020748787 0.06958596 -0.116949104
-0.04476747 -0.0774669 0.08887732 0.026690423 0.030642083 0.045849275 0.0086619025 0.15073939
-0.0053819353 0.047582388 -0.039998297 0.03369525 0.07250903 0.018867735 -0.023167176 0.034040928
0.06707526 -0.043964613 -0.0199929 0.021793488 0.038336866 0.010067433 0.09344716 0.016534643
-0.0887716 -0.042630963 -0.016566766 -0.0003836326 -0.062533714 -0.1804935 -0.029640479 -0.046515457
0.0062995157 0.06503703 -0.009586982 0.032712784 -0.022956455 0.0653236 0.022726258 0.1448068
-0.03676244 0.04881687 0.04777048 0.031778116 0.042793263 -0.027226305 0.040391605 0.11174687
0.17814884 -0.035588987 0.11401411 0.01703982 0.007407747 -0.0960064 0.064434186 0.029185375
0.07630251 -0.03983887 -0.043483827 -0.24428706 0.015198492 -0.036571797 0.050095055 -0.013937657
