trained_probes_truth/probe_sae_input_label_seed_9.pt (torch, 10966 bytes, 1 tensors)

net.weight f4 [1, 2304]
000000 27 76 80 3b 4e 96 03 bb a0 97 57 3c 3c f4 24 3d
       0.003920335 -0.0020078602 0.013158709 0.040271983
000010 24 8e 8b 3d 0b e0 88 3c 63 2b db 3b f0 6a 91 3d
       0.068142205 0.016708395 0.0066885217 0.07100475
000020 ee 0f 7a 3d 27 44 13 be b7 57 f6 3c 75 09 8a 3d
       0.061050348 -0.14381467 0.030071123 0.06740085
000030 74 54 1d bc 22 75 83 3c 5b 30 2c 3c 34 a0 4e bd
       -0.009602655 0.016047064 0.010509576 -0.05044575
000040 c0 fc f0 3b 36 7c 15 be e3 bc b8 3c 21 78 70 3c
       0.007354349 -0.14598164 0.022551006 0.014677078
000050 7a 0a 49 3d 19 ab c7 bc 96 de e2 3c 48 88 6e bd
       0.049082257 -0.024373578 0.027694028 -0.058235437
000060 40 79 ea bd d5 90 22 bc cb 57 65 3b ed 71 38 bd
       -0.11448908 -0.009922226 0.0034994956 -0.045030523
000070 ff fd 5d 3d 7d c9 3b 3d 16 f1 40 3e ff 93 9b 3c
       0.054197308 0.04584645 0.18841967 0.018991468
000080 17 de e5 3b 44 54 40 3d ee 15 de 3c a7 ac 08 bb
       0.0070150006 0.046955362 0.027110066 -0.0020854862
000090 1b 58 ac 3c cd 8c 53 be 1c 54 3a 3c 4e fb 18 3c
       0.021038106 -0.2065918 0.011372592 0.009337259
0000a0 7a 6e 85 3d 97 ff c0 3b f1 ca e0 bb 42 ea 01 3c
       0.06515212 0.0058898437 -0.00686013 0.007929387
0000b0 99 fc a0 bd cc 44 2a 3c 6d f4 86 3c 50 f3 a1 ba
       -0.07860679 0.010392379 0.016473973 -0.0012355838
0000c0 b8 43 74 3b b7 d6 4c bd 6b 3c af bd a7 c6 c5 3c
       0.0037271809 -0.050009456 -0.08556446 0.024142576
0000d0 54 83 74 3d ff ae 9e bc 4a ff 95 bd a3 46 5e be
       0.059695557 -0.019370554 -0.07324083 -0.21706633
0000e0 43 4b 40 3e df 77 f2 3d e1 c5 0d bb cb 1e b5 3c
       0.1877871 0.1183927 -0.0021632838 0.02210941
0000f0 8c 7f 99 3d 45 54 83 3c 4b 17 e2 3d 13 ea 88 3d
       0.07495031 0.016031394 0.11039599 0.06685271
000100 8d bf b5 bb 60 1c 45 bc 4d 53 88 3b 85 f8 f4 3b
       -0.0055465163 -0.012030691 0.004160321 0.007475915
000110 20 25 4c bd 6d 92 f4 bd 69 eb b3 bb 77 8d a6 3c
       -0.049840093 -0.11941991 -0.0054907096 0.020331128
000120 18 8e 8e bd b3 14 fc 3d b4 d3 89 3d c3 42 0a 3d
       -0.06960696 0.123086356 0.06729832 0.033755075
000130 3d 1b 66 39 d8 7a 1d bd ba 56 01 3d 23 1d cb 3c
       0.00021944656 -0.03844723 0.03157685 0.024794167
000140 5f 61 ce 3d 4e a5 d5 bb 04 2a 2b be 23 5e a8 3c
       0.10077166 -0.00651995 -0.16715246 0.0205527
000150 c8 c6 67 bd 41 1b d6 bc 95 e4 b2 3d 44 a6 fb 3d
       -0.056586057 -0.026136043 0.08735005 0.12287572
000160 0d a9 f6 bc 47 44 dc 3a b2 99 66 bd b5 10 93 bc
       -0.030109907 0.0016805016 -0.05629892 -0.017952302
000170 9e 0c 97 3b 43 8d b2 3d e9 07 57 3c ec 67 f5 3b
       0.0046096584 0.0871835 0.0131244445 0.007489195
000180 e8 b1 97 3c 95 d8 90 bd 69 5b 40 3c fa 13 a7 3c
       0.01851745 -0.0707256 0.011740544 0.020395268
000190 4e 47 88 3d e0 2a f2 3d 09 c6 38 3d b1 52 0f bd
       0.06654225 0.11824584 0.045110736 -0.03499097
0001a0 d6 c4 0a bd 2e 35 bd bd f0 d1 06 bd 75 e7 6b bd
       -0.033879124 -0.09238659 -0.032915056 -0.05759378
0001b0 62 75 5f bb 63 01 bf ba 0d b2 1e 3d ee 7f fc bc
       -0.0034097065 -0.0014572557 0.03874402 -0.03082272
0001c0 18 7c 8f bd c8 8f 66 bb 25 03 37 bd 4a 81 63 bc
       -0.07006091 -0.0035180915 -0.044680733 -0.013885805
0001d0 3a f6 20 3c 23 85 de 3c 19 7a 20 3e 99 7b ea bd
       0.00982433 0.027163094 0.15671577 -0.11449356
0001e0 31 cf 7d bb 64 23 37 3d 85 41 a0 bd b8 cf 11 3d
       -0.0038728232 0.044711486 -0.07824997 0.035598487
0001f0 b5 61 03 3d 23 4d c1 bd 23 c2 ed 39 c5 cf 6f 3d
       0.032075603 -0.09438541 0.00045348806 0.058547754
000200 54 08 13 3e a9 a1 fd 3d 4d ae 0f 3e 3c 41 43 bd
       0.14358646 0.1238435 0.14031334 -0.047669634
000210 46 c7 1e bd 6a 0d 02 3e c6 8b d5 3d b0 a8 49 3d
       -0.03876426 0.1270043 0.1042705 0.04923314
000220 20 0e 0b bc 95 43 24 ba 38 26 9a 3c 70 1a 51 3c
       -0.008487254 -0.0006266174 0.018817052 0.012762651
000230 05 56 1f bd 07 67 48 3d 49 c9 8c bc 2a e2 e9 bc
       -0.038900394 0.04892638 -0.017185824 -0.028550226
000240 bb c9 c8 bc 19 73 83 3a 7e f2 5a bd 40 18 1c 3d
       -0.024510255 0.0010028809 -0.053453915 0.038109064
000250 a7 89 33 3d e5 fb 99 bc ab 66 09 3d b1 7c 19 3c
       0.043832447 -0.01879687 0.033545177 0.009368108
000260 72 89 5c 3c 0f b9 ce 3c ff 1f 4d be f9 f4 32 3c
       0.013460504 0.025234727 -0.20031737 0.010922664
000270 99 9f 33 3b 16 ef 00 bd c2 51 99 bb 25 00 c5 bc
       0.002740836 -0.03147801 -0.0046789357 -0.02404792
000280 e4 03 7e 3d bf c1 c0 3d da 04 59 3c df 1c 99 3d
       0.06201543 0.09411954 0.013245786 0.0747621
000290 20 d5 7e 3c 8c b2 b7 3d a1 1b 8d bc 00 5b eb 3c
       0.015553743 0.08969602 -0.017225089 0.028729916
0002a0 f7 cf ef 3c 34 c9 83 bd 39 03 8f 3c f3 03 2b 3e
       0.02927397 -0.06434861 0.017457591 0.16700725
0002b0 a4 a6 41 3e d3 e4 c5 3d 4d f5 9e 3c 70 ae 40 3c
       0.18911225 0.096627854 0.019404078 0.011760339
0002c0 33 72 02 3d ea 4d bc bc 82 9f 0e 3c 63 0d ac 3d
       0.03184719 -0.022986371 0.008705022 0.08400991
0002d0 eb ac 92 bc cb 07 d6 bd b2 b8 69 3c 0c 2d d3 3b
       -0.01790472 -0.10450705 0.014265226 0.006444579
0002e0 07 fc a6 bc f0 b9 98 3c 48 ee 0a be b6 b7 88 bc
       -0.020383848 0.01864335 -0.1356746 -0.016689163
0002f0 61 49 fa 3d 18 a1 8c 3e 9c 99 f0 bb 44 17 cf bb
       0.12221027 0.27466655 -0.0073425304 -0.006319912
000300 07 ec a4 bd f7 58 38 be 79 02 01 3e b3 f1 af 3c
       -0.08052831 -0.18002687 0.125986 0.021477556
000310 6a 34 46 bb 66 c6 da 3d 98 31 b7 bc 9c 59 89 3c
       -0.0030243644 0.10682373 -0.022362515 0.016766362
000320 48 e5 28 bd d0 f6 f5 3d b9 d0 82 bd e8 47 56 3d
       -0.041234285 0.120099664 -0.06387467 0.05231467
000330 c7 e5 9d 3d dd f2 14 3c 98 10 61 bc f6 a1 14 3d
       0.07709842 0.009091106 -0.013736866 0.03628727
000340 a4 d5 76 bd 41 f6 91 bc 34 68 45 3c ee 1a 25 3d
       -0.060262337 -0.017817618 0.01204877 0.040308885
000350 b7 c3 f7 3c bb 40 17 bc 39 16 e0 3d 76 3b c1 3d
       0.030244691 -0.009231742 0.10941739 0.094351694
000360 c4 cf 78 bd e9 13 d2 bb 8d 5a 14 bc 75 7b 04 3d
       -0.060745016 -0.006411065 -0.009054792 0.0323443
000370 de 58 e8 bd 77 d3 be bd 03 54 83 3d 8f a8 7e bd
       -0.11345075 -0.093176775 0.06412508 -0.06217247
000380 9b 59 1b 3d ac 49 ea bc ae 1f 23 3b 8b 56 1f 3c
       0.03792725 -0.028599583 0.0024890709 0.009725223
000390 9f ba aa 3d b7 84 ee bc 97 5f aa bd 21 19 e5 3d
       0.083363764 -0.029116018 -0.083190136 0.111864336
0003a0 11 17 a3 3c 26 a2 06 3c b0 b5 9a 3c 23 9b 8b bc
       0.01990846 0.00821737 0.018885463 -0.017041748
0003b0 2d 70 e2 3c 00 64 ff bc d9 fd be 3c 97 27 aa 3d
       0.02764138 -0.031175613 0.023314403 0.083083324
0003c0 0a b9 5c 3d 5e 7f ff 3c 73 24 c3 3a f9 7e 0f bc
       0.053887405 0.031188663 0.0014888182 -0.0087583
0003d0 45 b3 be 3d 6a 2d be bc 3c 4a fb 3c f1 46 5b 3c
       0.09311537 -0.023215014 0.030675046 0.013383613
0003e0 24 22 ca 3c d4 f8 29 bc d9 c5 86 bd 34 35 97 bd
       0.024674483 -0.010374267 -0.06580705 -0.073831946
0003f0 ba 40 1b 3e 4b e4 e8 3c 4e da 2a 3e 94 ef f7 ba
       0.1516141 0.028429171 0.16684839 -0.0018916004
