trained_probes_truth/probe_sae_input_label_seed_11.pt (torch, 10972 bytes, 1 tensors)

net.weight f4 [1, 2304]
000000 aa b4 3d bc 26 d4 ad bb 91 00 41 3d 5f 6e 3b 3c
       -0.011578718 -0.005304831 0.04711968 0.011439889
000010 cb b2 d5 3d 7b 17 ad 3b 6f 3e 09 3d 92 a0 d2 3c
       0.10434493 0.00528234 0.033506807 0.025711332
000020 e5 60 bc 3d d1 ed a2 bd d0 af a4 3c 52 ed a0 3d
       0.09198169 -0.07955516 0.020103365 0.07857765
000030 fb 3b 04 3c 4f 85 5b 3d 66 a7 a6 3c 9a e4 0c bd
       0.008070941 0.05359393 0.020343494 -0.0343977
000040 4c 4b 05 bb ff bf 0e be a8 3f 3f 3c 8b a7 8d 3c
       -0.002033907 -0.13940428 0.011672892 0.017291805
000050 3c f6 db 3d 92 66 55 bd fc 94 ae 3c 96 8c 6a bd
       0.10740325 -0.05209977 0.021311276 -0.05726298
000060 d1 6f 01 be 8a 86 06 bc 30 e4 8a ba 5e 07 84 bd
       -0.12640311 -0.008210788 -0.001059657 -0.06446718
000070 f8 8a 0f 3d 5f eb c5 3c bc 22 93 3e f8 fd 13 3c
       0.03504464 0.024160085 0.28737438 0.009032719
000080 54 41 01 bc 7b db f6 3c 59 81 08 3d 1d 5d 16 bd
       -0.007889111 0.030133953 0.03332648 -0.036709893
000090 ca ab 83 3d a4 9c 82 be 11 57 bb 3c ba bc 84 bb
       0.064292505 -0.25510132 0.022868665 -0.0040508183
0000a0 a8 a3 c2 3c f3 9d 31 3d 15 3f af bc 9a 03 84 bc
       0.023759678 0.043363523 -0.021392385 -0.016114999
0000b0 69 f5 40 bd ec 84 12 bd 58 4d 1d 3d b1 93 07 bd
       -0.04710904 -0.035771295 0.03840384 -0.033099834
0000c0 5e 0d 7b bb 56 03 60 bd 5e db 04 be 2a 56 87 3c
       -0.0038307528 -0.05469068 -0.12974307 0.016520578
0000d0 87 d5 5f 3c 5b 24 29 bd 7d 6b 84 bd 0f 50 28 be
       0.013661749 -0.041294437 -0.06465814 -0.1643679
0000e0 8f f9 21 3e 65 99 6c 3d be 77 85 3c e8 aa 3f 3b
       0.15817855 0.057763476 0.01629245 0.0029246155
0000f0 ad f2 14 3e 8b 0d 1d bc 08 87 05 3e cc ef a2 3d
       0.14545698 -0.009585748 0.13039792 0.07955894
000100 d3 1e 84 3a 8b 1d 2e 3d 47 cf 2d 3c b1 9b 5b 3d
       0.0010079987 0.042508643 0.010608501 0.053615276
000110 c8 82 6f 3c 5d da b6 bc 4c 13 e8 3b 64 da 82 3d
       0.014618583 -0.02232092 0.0070823785 0.06389311
000120 38 ae 37 bd da 57 ff 3d c5 09 c7 3d 83 23 ad 3d
       -0.044843882 0.12467928 0.0971866 0.08454039
000130 f3 af 55 3c 37 46 15 bb 0a 2e 1e 3d 76 41 00 3d
       0.013042438 -0.0022777447 0.038618125 0.03131243
000140 db 33 ff 3d ad 49 08 bd eb e2 04 be c0 c6 ff 3c
       0.124610625 -0.033273388 -0.12977187 0.031222701
000150 7b 55 72 bd 1e 6a a9 3b 54 23 dd 3d f9 6d af 3d
       -0.05916355 0.005170121 0.10797754 0.085658975
000160 05 b2 0f bd 2b 9a 80 3c 5c e2 92 bd 4c ad ff 3c
       -0.035081882 0.015698513 -0.07172081 0.031210564
000170 81 59 3c bc 35 f1 5d 3e 17 4b 64 3d 1a 9e dc 3c
       -0.011495949 0.21674044 0.055735674 0.026930857
000180 92 51 02 3d ea 7c bf bd 5d cf 1f 3d dc 94 06 3d
       0.031816073 -0.09349997 0.039016116 0.032856807
000190 b1 1d 9e 3d cd 37 ea 3d 22 26 ae 3d 65 55 76 bd
       0.07720507 0.114364244 0.08503367 -0.060140032
0001a0 e3 c0 0f bd 46 66 03 be 16 40 06 bd 10 79 97 bd
       -0.03509606 -0.12831983 -0.03277596 -0.07396138
0001b0 fb bb 3a bd 0a 88 4f 3b 7e 60 e2 3c dc af e8 bc
       -0.04558943 0.003166678 0.027633902 -0.028404169
0001c0 99 c0 8c bd b5 1f 95 3c 92 76 1c bd fb 93 ac 3d
       -0.068726726 0.018203596 -0.038199015 0.084266625
0001d0 29 cb 7d 3c 8e a9 07 3d 3b 42 0a 3e 49 77 13 be
       0.015490332 0.033120684 0.13501827 -0.14400972
0001e0 bb 7d 47 3c 5c 43 a8 3d 2d bf 3e bd 7e d7 c6 3c
       0.012175973 0.08215973 -0.04656904 0.024272677
0001f0 5a 70 5f 3d ec 84 d4 bd 49 44 3d 3d 53 27 a6 3d
       0.054550506 -0.10376915 0.0462077 0.08112969
000200 50 ed 20 3e 1e 99 81 3e be 9d 27 3e 66 01 da ba
       0.15715528 0.25312132 0.16368768 -0.0016632497
000210 c9 bc 0a bd 8c 7c a7 3d 24 95 1e 3e b3 44 a1 3c
       -0.033871446 0.08178052 0.1548658 0.019686079
000220 58 1d 86 3b 5f 2d a0 3c 69 a1 35 bb d8 25 39 bc
       0.0040928535 0.019552885 -0.0027714616 -0.011300527
000230 15 5c 3e bc e5 e0 3c 3d e7 71 dc 3c 4f 36 ba 3c
       -0.011618634 0.046112914 0.026909782 0.022730974
000240 54 67 34 bc 6f f2 3a bd ed f7 00 bd 78 cb 1f 3c
       -0.0110109635 -0.04564136 -0.03148644 0.009753101
000250 c4 b5 92 3d 56 fc 22 bc 50 85 9a 3c 1e 6e 50 3c
       0.07163575 -0.009947857 0.018862396 0.0127215665
000260 12 55 22 3d b8 60 b4 bb 69 b5 63 be cd 39 e1 bc
       0.03963191 -0.005504694 -0.22237171 -0.027493382
000270 79 f8 8b 3d 45 1d 6d bc 25 76 67 3c 20 dd be 3b
       0.06834502 -0.01447231 0.014127289 0.0058247
000280 4b 9f 15 3e 93 60 a2 3d 17 f9 0b bd f1 12 a8 3d
       0.14611547 0.07928576 -0.034173097 0.08206738
000290 6f 85 3f bb 5a 6a 2b bc 3c ef fa bc b3 e7 9b 3b
       -0.002922382 -0.010462368 -0.030631654 0.0047578453
0002a0 3e b8 62 3a 9d 73 fc bd 7a e8 b1 3b 12 b7 9b 3d
       0.000864867 -0.12326739 0.0054293247 0.07603277
0002b0 d2 8e 0e 3e ad 8d 9b 3d 9d 7f 86 bc ff 50 86 3c
       0.13921669 0.07595382 -0.016418273 0.016396044
0002c0 7e cc 86 3d 71 bb 6f bd 89 a7 47 bd a7 e9 80 3d
       0.065819725 -0.058528367 -0.04874376 0.06294566
0002d0 36 1c 84 3a 1a 3a b3 bd c4 3d 0b 3d 31 fc 56 3d
       0.0010079208 -0.08751316 0.03399445 0.052486602
0002e0 1f cf ec bb 61 61 5f bb 41 d0 f1 bd ee 8a 38 bc
       -0.007226839 -0.0034085142 -0.118072994 -0.011263592
0002f0 44 9d 94 3d 38 c0 a2 3e 00 41 c0 bc 6a ce 26 bc
       0.072565585 0.31787276 -0.023468494 -0.010181049
000300 ad 51 94 bd 5d c4 44 be d1 32 51 3e 0b e1 e6 bb
       -0.07242141 -0.19215532 0.20429541 -0.00704587
000310 bc 75 e5 3b ca 3f d5 3d c2 33 05 bc c0 bf 4c bc
       0.0070025604 0.104125574 -0.008130016 -0.012496889
000320 71 f1 33 bd 7a 54 e7 3d 70 42 ed bd cb 97 f8 3c
       -0.04393143 0.112954095 -0.115849376 0.030345818
000330 3e d7 58 3d 23 78 d6 ba 75 20 e5 bc d1 9c 58 3d
       0.052939646 -0.0016362708 -0.027969578 0.052883927
000340 c9 18 73 bd e6 4c e0 bc c1 f0 70 bc d5 29 c9 3c
       -0.05934981 -0.027380418 -0.014705838 0.02455608
000350 59 51 12 3c 5c a3 8c 3d b1 3d f5 3d 63 70 a5 3d
       0.008930528 0.06867096 0.11974657 0.08078077
000360 ec 93 c7 bc de bb 67 bb b8 63 cf bc 3a 20 1b 3d
       -0.024362527 -0.003535978 -0.025316104 0.03787253
000370 b4 80 fd bd 5e a4 f0 bd 21 4d 53 3d 62 ab a5 bd
       -0.12378064 -0.117501006 0.051587228 -0.08089329
000380 a1 ed 83 3d 0b 2f 83 bc e9 67 e1 3c dd 59 7f 3c
       0.064418085 -0.016013643 0.027515369 0.01558539
000390 c3 ef 82 3d 49 43 99 bd e9 e0 94 bc 78 5b f6 3d
       0.06393387 -0.07483537 -0.018173652 0.12029165
0003a0 d4 9c 89 bc c2 e9 f1 3c e8 4b 85 3d a0 d6 5d bc
       -0.016798414 0.02953041 0.065086186 -0.01353994
0003b0 6d e7 a1 3c c2 11 58 bd 1a 5a 51 3c f4 b8 8a 3d
       0.019763673 -0.05275131 0.01277783 0.06773558
0003c0 b8 88 76 3d 7e dc 0e bd 98 46 8b 3b 16 5c 97 3b
       0.06018898 -0.034878246 0.004250359 0.004619132
0003d0 27 24 ea 3d e1 6f fe bc fb f1 2c 3d 4f 7e 1f bc
       0.11432677 -0.031059207 0.042222958 -0.009734704
0003e0 74 39 75 3d a7 e7 a1 bb 57 4a 9e bd 39 57 72 bd
       0.059869245 -0.004940945 -0.07729023 -0.059165213
0003f0 77 7a 21 3e ab 2a c2 3c fa 80 83 3e ef db d4 bb
       0.15769373 0.023701986 0.2568434 -0.0064959447
