trained_probes_truth/probe_sae_recons_label_seed_12.pt (torch, 10978 bytes, 1 tensors)

net.weight f4 [1, 2304]
0	0xbded81ef	-0.115970485
1	0xbd642371	-0.055697862
2	0x3db99d70	0.09063232
3	0x3d0b7f8a	0.034057178
4	0x3c14afb5	0.009075095
5	0xbd874847	-0.06605583
6	0x3da93a92	0.082631245
7	0x3e1221c4	0.14270693
8	0x3df0d4ff	0.11759376
9	0x3baa4fff	0.0051975246
10	0x3d5e63ee	0.05429452
11	0x3dd56873	0.10420313
12	0x3cf58820	0.029972136
13	0x3ba74664	0.0051048268
14	0x3d416ba2	0.047221787
15	0xbd89738a	-0.067114905
16	0x3d015c03	0.03158189
17	0xbe00a3fc	-0.12562555
18	0x3d2c2042	0.04202295
19	0xbceb6d3d	-0.028738612
20	0x3b13a4ed	0.0022528723
21	0xbca09467	-0.019602014
22	0xbcb000cd	-0.021484757
23	0x3c1e08b6	0.009645632
24	0xbc2206e8	-0.009889342
25	0xbd3ba93b	-0.045815688
26	0x3e3c25bb	0.18373768
27	0xbd23c942	-0.039986856
28	0x3e440bcc	0.19145125
29	0x3d1e920d	0.038713504
30	0x3e6100b1	0.2197292
31	0x3b09e30a	0.0021039867
32	0xbc3dfdd1	-0.011596159
33	0x3c8c4e93	0.01712731
34	0x3a7b7b7b	0.000959329
35	0xbdb5378f	-0.088484876
36	0x3e834c87	0.25644323
37	0xbe1433a2	-0.14472821
38	0x3ae34c6e	0.0017341503
39	0x3d15cf96	0.036574923
40	0xbd86ac3b	-0.06575819
41	0xbb096337	-0.0020963678
42	0xbdbc5437	-0.0919575
43	0x3df547e5	0.119766034
44	0x3cac63db	0.021043709
45	0xbd814015	-0.06311051
46	0x3d8468d5	0.064653076
47	0xbd0c392b	-0.034234207
48	0xbd892985	-0.06697372
49	0xbdd908cd	-0.10597382
50	0xbdc58d07	-0.096460395
51	0x3d26840c	0.040653273
52	0xbcbf741e	-0.023370799
53	0xbe6e0b7b	-0.23246567
54	0xbd20a0b4	-0.03921576
55	0xbe88a101	-0.26685336
56	0xbc3844b0	-0.011246845
57	0xbca6a1be	-0.020340797
58	0x3d339568	0.043843657
59	0xbb7af873	-0.003829506
60	0x3db29bfe	0.087211594
61	0xbd37a92f	-0.04483908
62	0x3d4bae1e	0.049726598
63	0x3a02291e	0.00049652334
64	0xbc4470b4	-0.011989761
65	0xbc77105c	-0.015079584
66	0x3d057bf1	0.032588903
67	0x3e4dcdaf	0.20097993
68	0x3aa80b6c	0.0012820787
69	0x3d0f26b1	0.03494901
70	0xbd5306ff	-0.051520344
71	0x3d2ca906	0.04215338
72	0x3a4b8a81	0.0007764474
73	0x3df0c938	0.117571294
74	0x3d2352f9	0.03987405
75	0x3dfb4777	0.1226949
76	0x3c57fed7	0.013183317
77	0xbce358cf	-0.027752308
78	0x3c1b1d61	0.009467454
79	0x3c48d6d5	0.012258251
80	0x3e885db9	0.26634005
81	0xbcd1203f	-0.025528071
82	0xbd3692f8	-0.044573754
83	0x3cf9ae7b	0.030478707
84	0xbcf309b3	-0.02966771
85	0x3d5183e8	0.051151186
86	0x3d9dfa9c	0.077138156
87	0xbcd6b9af	-0.026211588
88	0xbc1270e9	-0.008938053
89	0x3c82c8f7	0.015964968
90	0xbd470d5f	-0.048596736
91	0x3d54a313	0.051913332
92	0xbd5f06bc	-0.05444978
93	0x3db2b73a	0.08726354
94	0xbe0f9dc3	-0.14025025
95	0xbd3dd289	-0.04634336
96	0xbce95b40	-0.028485894
97	0xbd71b6ba	-0.059012152
98	0x3d4ab4a9	0.049488697
99	0x3de44884	0.11146644
100	0x3d0e0c14	0.034679487
101	0xbdb51019	-0.08840961
102	0xbd81e60d	-0.06342707
103	0x3bec606e	0.0072136438
104	0xbcddc32c	-0.027070604
105	0xbd3fa8f0	-0.04679197
106	0xbe08b903	-0.13351826
107	0xbe291a52	-0.16513947
108	0xbcc4ae35	-0.02400885
109	0xbc830e55	-0.015998045
110	0x3e67210e	0.22571203
111	0x3d7d2872	0.06180615
112	0xbda18a4a	-0.07887705
113	0xbc668744	-0.014070336
114	0x3c0c7d46	0.008574789
115	0x3e0b90eb	0.136295
116	0xbcb6eb10	-0.022328883
117	0xbdcd6640	-0.10029268
118	0x3e2187b1	0.15774418
119	0xbe2eaddd	-0.17058511
120	0x3d8312b2	0.0640005
121	0x3d6bbb5c	0.057551727
122	0xbd09587b	-0.033531647
123	0x3c8f9033	0.017524814
124	0xbce6da46	-0.028180253
125	0xbd1a8a25	-0.0377294
126	0xbde65c39	-0.11248059
127	0x3d7054ba	0.05867455
128	0x3ddc4d0d	0.10756884
129	0x3e674e0e	0.22588369
130	0x3df76983	0.12080672
131	0xbaff431d	-0.0019474957
132	0xbc5f27bd	-0.013620314
133	0x3dbc7d85	0.092036285
134	0x3decea67	0.11568146
135	0x3b2e0e3a	0.0026558773
136	0x3db7a743	0.089674495
137	0xbd2b71d8	-0.041856617
138	0xbc3a9511	-0.011388079
139	0xbc8ac393	-0.01693896
140	0xbc235a84	-0.009970311
141	0x3e063fc4	0.13110262
142	0x3da2c7b2	0.07948245
143	0xbc5b303c	-0.013378199
144	0x3d47ea44	0.048807397
145	0x3dafa01d	0.08575461
146	0xbcfb7529	-0.030695515
147	0x3dd5defb	0.10442921
148	0x3c270af1	0.01019548
149	0xbd991f9d	-0.07476733
150	0x3cbc8a46	0.023015153
151	0x3c91aeb0	0.017783493
152	0x3d8410bd	0.06448505
153	0xbcae3cff	-0.02126932
154	0xbdfbf9ed	-0.12303529
155	0xbd487f44	-0.048949495
156	0x3d81ed53	0.06344094
157	0xbcebf17f	-0.028801678
158	0x3ab2f5e2	0.0013653601
159	0xbd038dd9	-0.0321177
160	0x3df720f4	0.12066832
161	0x3ddd1a9f	0.10796093
162	0x3d2b0c6f	0.041759904
163	0x3bbefd8f	0.0058285664
164	0xbc87d740	-0.016582131
165	0x3ddb0968	0.106951535
166	0xbdb051bb	-0.08609339
167	0x3ce23a1d	0.027615601
168	0xbd4e8bf1	-0.050426427
169	0xbd70ffbb	-0.058837634
170	0x3d279d60	0.04092157
171	0x3ca836ce	0.020533945
172	0x3e1b8969	0.15189137
173	0xbc13948f	-0.009007587
174	0xbd8aff87	-0.06787019
175	0x3cb72a82	0.022359136
176	0xbde2916b	-0.110628925
177	0xbab1799c	-0.0013540271
178	0x3d275704	0.04085447
179	0x3c2b722f	0.010464235
180	0xbd3cebd9	-0.04612336
181	0xbe457b46	-0.19285306
182	0x3d4be3d0	0.049777806
183	0xba6181c8	-0.0008602408
184	0xbd693108	-0.056931525
185	0xbd64877e	-0.055793278
186	0xbcd9aa63	-0.026570505
187	0xbc91b5cc	-0.017786883
188	0x3d8def47	0.06930404
189	0x3d07c87e	0.03315019
190	0x3d858fa5	0.06521539
191	0xbe657cb8	-0.22410858
192	0xbc077340	-0.008267224
193	0xbd8757e2	-0.06608559
194	0x3d0f3ee3	0.034972083
195	0x3bbc9818	0.0057554357
196	0x3cb8b3de	0.022546705
197	0x3d8d86d3	0.06910481
198	0x3cff4e96	0.031165402
199	0x3defeb31	0.11714781
200	0xbbc806c0	-0.0061043203
201	0x3d4d652b	0.05014531
202	0xbd7937be	-0.060844176
203	0x3cb993a8	0.022653416
204	0x3d476c89	0.04868749
205	0xbc73047c	-0.014832612
206	0xbcc11fa2	-0.023574654
207	0x3c31bf36	0.010848811
208	0x3dc2eefd	0.0951824
209	0xbdc7a9b7	-0.097491674
210	0x3b7b07c4	0.003830419
211	0xbc94530b	-0.018106004
212	0x3d7be453	0.061497044
213	0x3d1d8f41	0.038466696
214	0x3dd001f7	0.10156625
215	0x3d726358	0.059176773
216	0xbde57149	-0.11203248
217	0x3be3938f	0.0069450806
218	0xbc25df8c	-0.0101240985
219	0x3c911f50	0.017715126
220	0xbd6bb36b	-0.057544153
221	0xbe2522da	-0.16126576
222	0xbc10fb54	-0.008848984
223	0xbd0a04c8	-0.033695966
224	0x3d3c84b9	0.04602501
225	0x3db3289c	0.0874798
226	0x3b155d35	0.0022791151
227	0x3d227b78	0.03966853
228	0xbc8d18ff	-0.017223833
229	0xbbb842c5	-0.005623194
230	0xbb023487	-0.0019867735
231	0x3ddfc743	0.10926678
232	0x3ab61fcc	0.0013894974
233	0x3d17eebf	0.03709292
234	0x3d5dd121	0.05415452
235	0x3cd87841	0.026424529
236	0x3d07d55e	0.033162467
237	0xbc05b9d6	-0.0081619825
238	0x3da98816	0.082779095
239	0x3e022178	0.1270808
240	0x3e205ea8	0.15661108
241	0xbcf4ec2e	-0.029897776
242	0x3d5a9a67	0.053369906
243	0xbb340921	-0.0027471262
244	0x3d3b038f	0.04565769
245	0xbe08bbbf	-0.1335287
246	0x3dd23ef0	0.102659106
247	0x3ce9cf85	0.028541336
248	0x3d0bd486	0.034138225
249	0xbd33c5f6	-0.043889962
250	0xbd1239e1	-0.03569973
251	0xbe2bb956	-0.16769919
252	0x3ce26682	0.02763677
253	0xbc3ad8b9	-0.01140421
254	0x3dd1d803	0.10246279
255	0xbcc2a2d2	-0.02375928
