trained_probes_truth/probe_sae_diff_label_seed_8.pt (torch, 10960 bytes, 1 tensors)

net.weight f4 [1, 2304]
000000 26 ce 9f 3c ad 9d b6 3d c7 1f 97 bc 72 0a 4e 3d
       0.019507479 0.08916793 -0.01844777 0.05030293
000010 5b 2f 07 3e c8 26 c1 3d 9b 3a 06 be cb 0e 87 bd
       0.13201658 0.09431225 -0.13108294 -0.065946184
000020 1c e4 53 3d 11 e4 7c bd 97 a1 d7 3d ff ff 69 bd
       0.051731214 -0.06174094 0.10528868 -0.057128903
000030 eb ac 04 3d 6a d9 96 3d 12 3e b3 3c 5e 8a 5b 3c
       0.03239147 0.07365687 0.021880183 0.0133996885
000040 12 25 50 bb ff e2 8b bd 18 17 f8 bc a6 25 8b 3d
       -0.0031760377 -0.068304054 -0.03028445 0.0679429
000050 b0 ba 06 3c 07 83 30 bd 47 fb 7e bd 6b f9 12 be
       0.008223221 -0.043093707 -0.062251355 -0.14352958
000060 47 c9 4b be 4e 6b 1d 3e 7d ba 3e bd b0 6d c5 bd
       -0.19901 0.15372965 -0.046564568 -0.09640062
000070 d2 54 8a 3c 47 a7 04 bd a6 e5 71 3d fe 13 02 3e
       0.016886149 -0.03238609 0.0590569 0.12702939
000080 7b 69 c6 bc f6 0b 9f bd 8e 22 2e 3c 77 00 86 3d
       -0.024220219 -0.07765953 0.010628356 0.065430574
000090 23 a9 35 bd e0 ef 7e bb 49 c7 c7 bc af 36 64 3c
       -0.044350754 -0.00389003 -0.024387019 0.013929053
0000a0 d4 f5 a6 3d 04 a1 31 3e d1 98 d5 bc 5c 02 92 bd
       0.08152357 0.17346579 -0.026073845 -0.07129356
0000b0 c2 04 2f bd f1 e6 83 3d c2 b1 b7 bc 16 b5 3d bb
       -0.042729147 0.06440533 -0.022423629 -0.0028947047
0000c0 d4 e0 3d 3d d5 19 e4 ba 67 1e 3f bd 17 99 76 3c
       0.04635699 -0.0017402718 -0.046659853 0.015051148
0000d0 a2 4f 14 3e 08 17 45 3d 32 de 9c 3b 4c 9c d3 bd
       0.14483503 0.048117667 0.00478723 -0.10332546
0000e0 10 af 93 3d 05 8c 03 3e f8 b5 fd bc c2 e2 c8 3c
       0.07211125 0.12846382 -0.030970559 0.024522189
0000f0 65 b4 2a 3d 35 b9 83 3d 25 ff 17 bb 9f 23 37 3e
       0.041675944 0.0643181 -0.002319285 0.17884682
000100 9f 53 ef bc b1 a9 fb 3d 5a 8d fb bd d9 87 ce bd
       -0.029214678 0.122882254 -0.1228282 -0.10084505
000110 17 27 5e bd a7 ab 89 bd 39 84 95 bb e2 a6 be bc
       -0.054236498 -0.06722193 -0.0045628813 -0.023272935
000120 b6 4d 15 be d6 eb 92 3d 20 17 ad 3d 04 9b 5d bd
       -0.14580426 0.071738884 0.08451676 -0.054102913
000130 eb f9 60 bd db da f6 bb eb 11 1d 3d 73 29 8a 3c
       -0.05492584 -0.007533414 0.038347166 0.016865468
000140 89 6c d1 3d 91 ac 28 bd 15 a3 bf 3d af 11 c0 3d
       0.102257796 -0.041180197 0.09357277 0.09378373
000150 f7 dc 69 bd a4 01 1f bc 08 48 87 3c 1f cf 54 3e
       -0.057095494 -0.009704981 0.01651384 0.20782135
000160 77 79 34 be ca 46 71 bc 97 b1 e2 bc 0f 4e 2b 3d
       -0.1762446 -0.01472635 -0.027672572 0.04182249
000170 a1 79 b3 3c df 4e 97 3e dd 18 b3 3d 9c 7b 96 3d
       0.021908583 0.2955236 0.08744977 0.07347795
000180 fb 77 21 3d e3 10 94 bd c2 0d a0 bb 87 0f 1f bd
       0.039421063 -0.072297834 -0.0048844526 -0.038833167
000190 02 b7 fd bc 62 37 0f 3e b8 40 bf 3d 2b 12 28 be
       -0.030971054 0.1398597 0.09338516 -0.1641318
0001a0 61 cb 02 bd 67 26 45 bd 96 ef f2 3d 29 26 ab 3d
       -0.03193224 -0.048132326 0.11862104 0.08356888
0001b0 d9 f0 da bd 8b 0b 42 3d 03 f9 95 bd 63 2a 3d bd
       -0.10690469 0.04737429 -0.07322886 -0.046183
0001c0 fd ba 1d bd 36 b9 d9 3c 96 0e 6b bd f1 07 24 be
       -0.038508404 0.026577573 -0.057386957 -0.16018654
0001d0 ff f4 e5 3c ff 07 b9 3d 0b 31 86 3d 18 88 a7 3c
       0.028070925 0.09034728 0.06552323 0.020450637
0001e0 a5 29 20 bd 6c ae 3b 3d 08 e8 45 be 25 6e be 3d
       -0.039102215 0.04582064 -0.19326794 0.09298352
0001f0 4d 20 81 3d 3f 18 21 be 38 02 ed 3d 1a ec 46 3d
       0.06304989 -0.15731905 0.11572689 0.048565008
000200 b5 6a dc 3c 5d 23 23 3c 5e 32 8c 3d ee ed ff bc
       0.02690635 0.009957162 0.06845544 -0.031241383
000210 b5 27 e6 bd 03 49 e0 3d 96 dc 94 3d 2d ce ad 3d
       -0.11238042 0.10951426 0.07268636 0.084865905
000220 3d 6e aa bd 28 be 4b 3d 4d cd 25 bd f7 57 12 bd
       -0.083218075 0.049741894 -0.040478993 -0.03572842
000230 8c aa 0a be 7e 6d 02 bd 79 24 30 3c 3c 53 1e bd
       -0.13541621 -0.0318427 0.010750883 -0.038653597
000240 a0 6d 3e 3c 5d c1 f3 bc 33 e5 4e 3c 89 10 5d bc
       0.011622816 -0.029755289 0.012627888 -0.013492712
000250 1e b3 d1 3d 4b 75 b7 3d 3e eb d1 3c 27 5c 4c 3c
       0.10239242 0.08957919 0.025624868 0.012473143
000260 10 02 0f bd 82 99 04 3e dc 10 6c bd b0 1b e3 3c
       -0.034914076 0.12949184 -0.057633266 0.027723163
000270 b9 b2 93 3d f5 04 63 bd 97 eb 93 bd 35 66 76 bd
       0.07211823 -0.05542465 -0.072226696 -0.060156066
000280 be 66 f8 3c 1d 70 be 3c 07 0b e8 bd fc ca 6f 3d
       0.030322429 0.02324682 -0.11330228 0.05854319
000290 9b 96 22 3b 3a fe 81 bd 4c f5 14 3e e1 3c 1e bd
       0.0024809006 -0.06347318 0.14546698 -0.038632277
0002a0 ef 37 5e 3d ea 4c 24 bd c4 7a 9e bd 10 af e9 3d
       0.05425256 -0.040112413 -0.077382594 0.11410344
0002b0 28 9e 03 3c 18 02 ab 3d 9e a9 0c bb 29 32 30 bd
       0.008033313 0.08350009 -0.0021463404 -0.043016586
0002c0 fe ba 36 3e 75 76 20 bc 4b b6 24 be 14 07 04 3e
       0.1784477 -0.009793867 -0.16085164 0.12893325
0002d0 a2 cc 06 3c f2 ee 27 3d be c0 2c bc 0f 9b 9d 3d
       0.008227499 0.04099936 -0.010544 0.07695591
0002e0 3b b4 ec bc 03 94 40 bd b0 ab 2a be 43 f1 21 3d
       -0.028894534 -0.047016155 -0.16667056 0.039536726
0002f0 79 b2 db 3c 60 3b 4a 3e 85 8d a1 bd 97 96 b3 3d
       0.0268185 0.19749212 -0.07888321 0.08768957
000300 4f e6 ce bd 96 26 a5 bd 80 1a 37 3e fb 06 9c 3c
       -0.10102522 -0.08064 0.17881203 0.019046297
000310 43 c9 d2 bd e6 e6 2b 3e ba 27 05 3d f2 06 95 bd
       -0.10292294 0.167873 0.03250859 -0.07276715
000320 af 2b 52 bd 10 c1 34 3e c8 a1 9c bd 6b 5e c1 3c
       -0.05131119 0.17651772 -0.07648045 0.023604592
000330 0d a4 1d 3e d4 91 f3 3c 4e f5 48 bd 82 b4 c1 3d
       0.15394612 0.029732622 -0.049062066 0.09458257
000340 f9 2a 91 bd 37 28 6c 3d 90 99 3e ba 9d 13 7b bd
       -0.070882745 0.05765554 -0.00072708074 -0.061298
000350 a8 4a 02 3d a0 34 3c 3b 93 0e 23 3e 32 d3 64 3e
       0.03180948 0.002871789 0.15923528 0.2234619
000360 4e 63 bd bd 73 bd 1f bd 5d cf e9 3c 4a 29 91 bb
       -0.092474565 -0.038999032 0.028541261 -0.004429971
000370 53 de b2 3c 03 eb d0 3c 4f fc e1 3d e3 70 49 bd
       0.021834528 0.025502687 0.11034452 -0.049179923
000380 b5 d2 0b 3d 10 f1 d9 bc c6 97 81 3d 97 c4 81 bd
       0.034136493 -0.026604205 0.063277766 -0.06336325
000390 59 50 0b 3e 1a c7 65 bd 2b 48 85 bd 91 90 23 3d
       0.13604869 -0.05609808 -0.065079056 0.03993279
0003a0 df 9a 24 bd d6 5f a0 3d a9 00 5e bd 9a 95 57 bd
       -0.04018676 0.07830779 -0.05419985 -0.052632906
0003b0 28 ef f6 3d 72 ed bb bd b4 f2 85 3d 54 3f c9 3d
       0.12057334 -0.091761485 0.065404326 0.09826532
0003c0 59 82 b0 3c da 47 96 bc d5 88 ca bc 6f 5a 17 3d
       0.02154653 -0.018344808 -0.02472345 0.03695148
0003d0 8d a4 a4 bc 89 0f 37 3d 00 1b 29 bc a9 32 1d 3c
       -0.020097995 0.04469255 -0.010321379 0.009594598
0003e0 00 16 59 bc 5a 38 5f 3d 53 cc 0a 3d 5f 36 3f 3d
       -0.013249874 0.0544971 0.033886265 0.04668271
0003f0 65 90 17 3e f7 7e de 3d d8 40 4a 3e 52 7d a3 3d
       0.14801176 0.1086406 0.19751298 0.07982887
