trained_probes_truth_twoshot/probe_sae_diff_label_seed_2.pt (torch, 10960 bytes, 1 tensors)

net.weight f4 [1, 2304]
00000000: 7200 ee3d 4565 833c adb0 f23c d454 93bd
00000010: 8a81 413d 76e1 ae3c 4522 d23d 3d9f 533b
00000020: 49e3 3bbd daab 4d3b 6f37 a83c 0e30 8a3b
00000030: 0d96 3bbc d6b0 023c e5b7 0fbc d899 6f3d
00000040: d465 e43d 341d 76bd e943 a9bd e3ac 6bbb
00000050: 4de3 5dbd 95c4 85bd d5f8 993d f5b1 383d
00000060: 36c3 7b3d 9c66 df3d 890d f13c 88f7 9fbd
00000070: 2e90 89bc 409c 933b fd4f 32bc 19f7 52bd
00000080: b8f6 813d 10bc d33c 52fa 8abc babb e1bb
00000090: eb4e 053e 978c 3dbe 8c08 fd3d bf7d 70bd
000000a0: 4cf8 00bd 2eee c13d 7a33 f6bc 5ab3 e3bc
000000b0: 3486 a03c 7403 743c 2a15 04bd 1e44 2b3e
000000c0: a533 1abe fd77 e43c 5b85 833b 2a48 af3d
000000d0: 31d8 133d cedf 16bc bbbc 0abd bb09 973b
000000e0: 3449 1cbc 8efc 093a b649 be3d 37df 9b3c
000000f0: a0ec 99bb 9d92 573c f530 a43c 507a 983c
00000100: 5b47 50bd 83cc 7f3d 528b 193d 9969 64bd
00000110: dd2b b73b 0d93 e63b c421 58be 189f 8fbb
00000120: 5fea bebd 048a f8bd 23f3 23bd 29df 633d
00000130: abda 11be 1ff9 a4bc b161 043d 3985 863c
00000140: d7e5 36bc ac39 aabc ee9d 13bc e1b8 143e
00000150: d234 1e3d 7522 b13c 7412 613d aa4d 1a3d
00000160: 17b5 e9bc a92a ec3c e286 63bd 8d03 5bbe
00000170: 1fe6 18bc fbe9 53bc 68ff 1d3d 5b0d da3c
00000180: e058 633c 1a4c 4abc 7c8e 7f3d 8b44 9cbd
00000190: 2724 8bbb f169 063c 6077 76bb 624d 13bc
000001a0: be5b 183e 4965 8d3c 48e7 053e 7209 01be
000001b0: 7842 aa3d b8d0 773d 41ff 693d e917 4abd
000001c0: 9c1e d6bd 3bff 19bd 5306 17bd edb5 3e3d
000001d0: 01ba f4bd 7ccc 053d 991d 5abb ba09 b9bd
000001e0: 6fcd 35bd 7c51 913d 635b 38bd d0b2 3a3e
000001f0: babf d83b bfb3 3a3b 2475 083d 1c52 5537
00000200: 1b8d 20bc d942 3abd 6f90 143d 37d8 b03c
00000210: 17f2 14be 95fe c73c 445d 9ebd afee 293d
00000220: 4fbb c93c d32b 20bd 37f3 0a3c 3233 46bd
00000230: c036 bc3d 0c9b eb3d 5b0c c4ba 05fc 443c
00000240: a3aa 013d 1797 d9bd 6e61 94be 8b12 5ebb
00000250: dbfd f13d 4346 2dbc caba 4b3d ff62 44bd
00000260: 381e 343c af8c ac3c 5150 4c3d 4830 e6bc
00000270: a731 8fbc c85a 03be cd39 b7bc 71d9 b33c
00000280: 2ced 243d a43b 163d bdbc 073c 5ec0 b43b
00000290: bade 2a3d 93a6 4e3c 4504 32bd bade 97bc
000002a0: 05fb 03bd 351c b8bc a77e bcbc ad65 553d
000002b0: d128 eb39 d7c5 36bc 35ff 03bd bfd6 e93c
000002c0: 69fc 3f3e 9d4e d3bb d070 343d 3957 593d
000002d0: f05a 0d3d fd9e c93c ebf1 21bd b941 13bd
000002e0: bd90 07bd fa3b d2bb af56 8d3c 05ae 3a3c
000002f0: 24eb 3b3d a9d2 64bc 07b7 02bd 8dd6 b1bc
00000300: 4885 70bb 2ca1 503d 2583 8f3d 272e a93b
00000310: b616 583d 0fe0 fd3d e252 2fbd 5f46 0f3d
00000320: b0ed 87bc 0cba 2abd 20e0 c1bc 1be1 043c
00000330: eac6 29be 06f8 8e3d 1762 00be 69fe 443d
00000340: aaad 02bc 584b aa3c f721 52bd c8d1 b63b
00000350: 8d5f 183b ae7e 6fbc 454c 99bc 5008 0c3e
00000360: 90c7 8d3c fb96 413e 2841 993b 951d 8d3d
00000370: 2806 7b3d b371 50bb c3ee 413c 2eff cf3c
00000380: ddd4 283e 4695 24bc ec30 f13b a587 d1bc
00000390: cb42 bc3c d707 c73d 5f3d 743d fbd6 cc3a
000003a0: 3798 f7bc 7212 443c 1ebe 3dbe 4df1 443c
000003b0: 2b0d 9e3d 75fe 8ebd aa51 183a 74c1 383b
000003c0: 26e0 86bc 7219 553c cb94 5bbc d2ba acbe
000003d0: f69c c73c a1b6 883c 4acf 2d3d 764b af3c
000003e0: f21c 2dbe 5413 073d 26d0 3cbe 70d4 083e
000003f0: c8f9 1a3e 4635 173d bd7e bf3c b996 053d
0.11621179 0.0160395 0.029625261 -0.07193914 0.04724268 0.021347743 0.10260443 0.0032290958
-0.045871053 0.003138295 0.020534245 0.0042171543 -0.011449349 0.007976731 -0.008771871 0.058496326
0.11152235 -0.060086444 -0.08264906 -0.0035961203 -0.05417185 -0.06531636 0.07518164 0.045091588
0.061465465 0.10908243 0.0294254 -0.07810885 -0.016792383 0.0045047104 -0.0108833285 -0.051505182
0.06345886 0.025846511 -0.016965065 -0.006888834 0.13018386 -0.18510662 0.12355146 -0.05871367
-0.031486794 0.09469257 -0.030053843 -0.027795482 0.019595243 0.014893401 -0.032246746 0.16725203
-0.15058763 0.027889246 0.0040137 0.08558686 0.036094848 -0.009208633 -0.033871394 0.0046093143
-0.009538937 0.0005263769 0.09291403 0.019027336 -0.0046973974 0.013157514 0.020042876 0.01861301
-0.0508493 0.062450897 0.03748638 -0.05576477 0.0055899457 0.007036573 -0.2110663 -0.004382979
-0.093220465 -0.121356994 -0.040026795 0.055632744 -0.14243571 -0.020138321 0.03231973 0.016420947
-0.0111631965 -0.020779453 -0.009009821 0.1452365 0.038624592 0.021622876 0.05494924 0.037671722
-0.028528733 0.028828936 -0.055548556 -0.21388073 -0.009332209 -0.012934203 0.038573653 0.026617697
0.01387617 -0.012347246 0.062391743 -0.07630261 -0.004246253 0.008203969 -0.0037607774 -0.0089906175
0.14878747 0.01726021 0.13076508 -0.1260126 0.08313459 0.060501784 0.057128195 -0.04933921
-0.10455057 -0.037596922 -0.036871266 0.046560217 -0.1194954 0.032665715 -0.0033281802 -0.09035058
-0.04438537 0.0709562 -0.04500903 0.18232274 0.0066146525 0.0028488485 0.03331484 1.2714907e-05
-0.009799267 -0.045473907 0.036270555 0.021587474 -0.14545475 0.024413386 -0.07732633 0.041487392
0.024625449 -0.039104294 0.0084808385 -0.048388667 0.0919013 0.11504182 -0.0014957295 0.012022977
0.031656872 -0.10624521 -0.28980583 -0.0033885564 0.11815997 -0.010575834 0.049738683 -0.047945973
0.010993533 0.021063177 0.049881283 -0.028099194 -0.01747973 -0.12827599 -0.022366429 0.02195427
0.040265247 0.03667797 0.008284745 0.005516096 0.041716315 0.012612957 -0.043461103 -0.018538821
-0.032221813 -0.022474388 -0.023009611 0.05209892 0.00044853103 -0.011155567 -0.032225806 0.028544782
0.1874863 -0.0064485804 0.0440529 0.053061698 0.034510553 0.024611944 -0.03953735 -0.03595135
-0.033097018 -0.006415841 0.017253248 0.011394029 0.045878544 -0.013966241 -0.03191283 -0.021708751
-0.0036700536 0.050934955 0.07007436 0.0051629725 0.052756034 0.123962514 -0.042803653 0.03497922
-0.01659283 -0.041681334 -0.023666441 0.00811031 -0.16579786 0.069809005 -0.12537418 0.048094187
-0.007975975 0.02078788 -0.051301923 0.005579207 0.0023250312 -0.014617605 -0.018713126 0.13675046
0.017307073 0.1890525 0.0046769567 0.06890408 0.061285168 -0.0031806051 0.01183671 0.025390234
0.16487451 -0.010045355 0.0073605683 -0.025577376 0.022981068 0.09718292 0.05962884 0.0015628034
-0.030223949 0.011967288 -0.18529555 0.012020421 0.07717355 -0.069821276 0.0005810509 0.002819148
-0.016464304 0.013006555 -0.013402174 -0.33736283 0.024366837 0.016688647 0.042434014 0.021398287
-0.16905573 0.032977417 -0.18438777 0.13362288 0.15134346 0.03691604 0.023375863 0.032614443
