trained_probes_truth_twoshot/probe_sae_recons_label_seed_21.pt (torch, 10978 bytes, 1 tensors)

net.weight f4 [1, 2304]
0.0031858122 -0.033154994 -0.041793004 -0.004829147 0.000609127 -0.016311536 -0.07191197 0.015010149
0.015255538 0.018304294 0.033904284 -0.042549364 -0.008107994 -0.0065549305 0.08892679 -0.031042049
0.10304949 0.07869139 0.0006230379 -0.034955442 -0.08939054 0.11559856 0.029585797 0.15794276
-0.020514663 0.0043068235 -0.031790875 -0.0034903192 0.0600355 0.011092347 0.018234562 -0.0054509602
-0.00877818 -0.013494813 0.16649018 -0.058557887 -0.20123135 0.015360385 -0.009572835 0.017466594
0.041943893 0.05149368 -0.13110822 -0.025114 -0.07190452 -0.008135404 0.013566764 -0.024976786
0.025863655 0.042533826 0.04474065 -0.030070018 -0.03595485 -0.0018693263 0.49680132 0.056801252
0.022590874 0.24297316 0.11924216 -0.19586118 -0.009791183 -0.10309531 0.0005348246 0.030740663
-0.022857398 -0.31977025 0.002906808 -0.008484489 0.022527767 0.009415373 0.042303197 0.014830054
-0.03235455 0.030291291 0.080188066 0.02992872 0.0045372974 0.025645435 -0.033055082 0.15984136
-0.027620979 0.00070240203 0.07653279 0.25451806 -0.04827421 -0.09046941 -0.042407405 0.021879487
0.09921671 -0.053122025 0.03240292 0.020165427 0.011160776 -0.021786103 -0.17977348 -0.0041599455
0.03469321 0.017527534 -0.030208759 -0.079016216 0.04384875 -0.0014615372 -0.17203663 -0.06825344
-0.015567698 0.02405587 -0.13046688 -0.02615109 -0.034278892 0.007979474 0.04725102 0.03422722
-0.0010107134 0.024584897 -0.014084589 0.032404486 0.029044291 0.0011013978 0.025543168 0.029565908
0.052972756 -0.08960926 0.03529844 0.019354792 0.02704434 -0.034556605 -0.0007463877 0.13211432
0.029077614 0.050773825 0.0009719462 -0.026673695 0.14296912 -0.0043896926 0.16216448 0.010120529
-0.04667362 0.025081083 0.013478303 0.054108135 -0.12724574 -0.024908282 0.03157388 -0.0043036435
-0.020252064 0.065509595 0.030089488 0.021353556 -0.037961487 -0.13151936 -0.032237083 -0.0062757996
-0.15778525 -0.007824764 0.0030251013 0.09486528 -0.0013812885 0.084620304 -0.27566537 0.0024712589
0.015653005 -0.0120520815 -0.06455896 -0.03804315 -0.0021216813 -0.5298422 0.031779848 0.014066652
-0.015571381 0.08350059 -0.030539121 -0.00068770675 0.25982186 0.025150469 0.29032314 -0.017722769
0.075313 -0.025213547 -0.041720003 -0.10671918 -0.025060477 -0.12264017 0.041657425 0.036769006
0.029021094 -0.05458397 0.03181188 0.09663906 -0.030927572 -0.007128824 0.003651094 -0.02591205
-0.006235601 -0.08970708 0.06846573 -0.14021234 -0.32727814 -0.0021740203 -0.004261378 0.026965154
0.033700675 -0.02071417 -0.01626951 -5.2208834e-05 0.21075337 -0.0038794747 -0.06542603 -0.124305926
0.02476341 -0.01663101 -0.021277225 -0.17753063 0.019210016 0.055238985 0.15058143 -0.22641908
-0.009760308 0.008886513 -0.053301476 0.08058357 0.022112705 0.042432204 -0.0068769027 0.054050535
-0.04736746 0.01498906 -0.01796999 0.22441117 0.016708625 -0.13786818 0.026041452 0.04362125
-0.018017126 0.10613317 0.1832204 -0.063441604 0.015471622 -0.0037907797 -0.0057442333 0.006088705
0.11258752 -0.020576246 -0.013966292 -0.012172565 -0.08850185 -0.018457167 -0.05722002 0.012139054
0.021841493 0.010678002 0.0056341277 0.011562001 -0.012952922 0.0022970352 0.03443347 -0.09341342
00000000: 0fc9 503b 88cd 07bd 242f 2bbd d23d 9ebb
00000010: d2ad 1f3a c59f 85bc 9546 93bd 21ed 753c
00000020: 5df2 793c e3f2 953c 38df 0a3d 3e48 2ebd
00000030: 64d7 04bc beca d6bb 401f b63d e54b febc
00000040: 9c0b d33d f428 a13d 5e53 233a 702d 0fbd
00000050: 6312 b7bd f0be ec3d ea5d f23c bfbb 213e
00000060: 5e0e a8bc 4120 8d3b 2637 02bd d7bd 64bb
00000070: c9e7 753d adbc 353c a660 953c f89d b2bb
00000080: 5bd2 0fbc 5919 5dbc 677c 2a3e 65da 6fbd
00000090: 970f 4ebe 20aa 7b3c 61d7 1cbc 1a16 8f3c
000000a0: 5ccd 2b3d 09eb 523d 3c41 06be e0bb cdbc
000000b0: ad42 93bd 5c4a 05bc 2247 5e3c 1e9c ccbc
000000c0: 04e0 d33c f337 2e3d f941 373d 6655 f6bc
000000d0: 6545 13bd 2f04 f5ba be5c fe3e 6ea8 683d
000000e0: 7f10 b93c f5cd 783e 3c35 f43d d58f 48be
000000f0: 336b 20bc a223 d3bd 7933 0c3a d8d3 fb3c
00000100: 703f bbbc edb8 a3be 2580 3e3b 8702 0bbc
00000110: 278c b83c f042 1a3c 1e46 2d3d c1f9 723c
00000120: 3486 04bd 7125 f83c a439 a43d 132d f53c
00000130: 9cad 943b 6016 d23c c464 07bd 74ad 233e
00000140: 6445 e2bc 6721 383a 39bd 9c3d 3150 823e
00000150: 2ebb 45bd 0748 b9bd 63b3 2dbd 9c3c b33c
00000160: 2132 cb3d 7b96 59bd edb8 043d f731 a53c
00000170: b0db 363c c578 b2bc 8a16 38be 2750 88bb
00000180: 781a 0e3d e795 8f3c 5c78 f7bc 41d3 a1bd
00000190: bf9a 333d 0d91 bfba 5f2a 30be 76c8 8bbd
000001a0: a80f 7fbc d110 c53c 1c99 05be d03a d6bc
000001b0: 0668 0cbd 57bc 023c 498a 413d d731 0c3d
000001c0: ea79 84ba 4466 c93c 0cc3 66bc 91ba 043d
000001d0: 4bee ed3c c75c 903a e83f d13c 3434 f23c
000001e0: f6f9 583d 0f85 b7bd 1995 103d f18d 9e3c
000001f0: 178c dd3c 3a8b 0dbd 3ba9 43ba fa48 073e
00000200: 2d34 ee3c 37f8 4f3d 35ca 7e3a cb82 dabc
00000210: 7f66 123e 69d7 8fbb 720e 263e 93d0 253c
00000220: d62c 3fbd d876 cd3c 1ad4 5c3c 7ea0 5d3d
00000230: b54c 02be 740c ccbc 9d53 013d 9405 8dbb
00000240: a8e7 a5bc e529 863d 3b7e f63c a7ed ae3c
00000250: 817d 1bbd 03ad 06be 080b 04bd 39a5 cdbb
00000260: 7592 21be 7033 00bc c740 463b ba48 c23d
00000270: 5a0c b5ba 694d ad3d 0324 8dbe d8f4 213b
00000280: bb3a 803c 1876 45bc 7d37 84bd 22d3 1bbd
00000290: e80b 0bbb bda3 07bf 962b 023d d177 663c
000002a0: 1b1f 7fbc 5b02 ab3d 2e2d fabc 3847 34ba
000002b0: 5f07 853e 5b08 ce3c 3ca5 943e 572f 91bc
000002c0: b43d 9a3d a48c cebc 98e2 2abd 968f dabd
000002d0: a14b cdbc c52a fbbd faa0 2a3d 199b 163d
000002e0: a5bd ed3c 7193 5fbd 2d4d 023d b3ea c53d
000002f0: d25b fdbc e998 e9bb 3147 6f3b 8245 d4bc
00000300: 0354 ccbb 58b8 b7bd c337 8c3d d393 0fbe
00000310: 0091 a7be 027a 0ebb 08a3 8bbb 07e6 dc3c
00000320: b809 0a3d c3b0 a9bc a347 85bc cffa 5ab8
00000330: bbcf 573e c93e 7ebb 15fe 85bd 1b94 febd
00000340: a3dc ca3c c23d 88bc 934d aebc 97ca 35be
00000350: 535e 9d3c 4642 623d 0532 1a3e 67da 67be
00000360: b3e9 1fbc bd98 113c a652 5abd 0009 a53d
00000370: b425 b53c 64cd 2d3d a457 e1bb 1864 5d3d
00000380: 6204 42bd ad94 753c cd35 93bc 0bcc 653e
00000390: 87e0 883c 512d 0dbe e254 d53c 32ac 323d
000003a0: a798 93bc 595c d93d 219e 3b3e aced 81bd
000003b0: b07c 7d3c bb6e 78bb 1f3a bcbb c283 c73b
000003c0: 4994 e63d 848f a8bc e0d2 64bc 706f 47bc
000003d0: 7540 b5bd 7c33 97bc 8a5f 6abd e2e2 463c
000003e0: eeec b23c c9f2 2e3c 7d9e b83b 8c6e 3d3c
000003f0: 7e38 54bc db89 163b 1c0a 0d3d 894f bfbd
