trained_probes_truth_twoshot/probe_sae_input_label_seed_4.pt (torch, 10966 bytes, 1 tensors)

net.weight f4 [1, 2304]
00000000: cc44 d63c b144 92bc 8c2f dd3a a243 d5bc
00000010: 5e1d e2bc 59e2 81bb a9b1 d83e 7c97 ed3c
00000020: 4dbe 3ebc 49dd e83c e8b1 493c 3ab7 c2bd
00000030: 7495 7ebd ed7e 1abc 71ba c63c f5ff 0b3d
00000040: ed93 e33e a1de f0bb de83 87bc e854 6fbd
00000050: a3ed 2cbe 7b22 04be b347 503d 6787 9c3d
00000060: a50f 0c3d 1e96 453c 96db a63d 4ee5 9b3c
00000070: abf4 033c 791a d0bc 0420 f33c b4f7 26bd
00000080: 042b 343e 7352 993c ef18 433d 7f0c b9bb
00000090: e040 943d 2107 13bc e7b8 db3c 482c 403c
000000a0: 95c5 c1bb 477b af3e d2df 86be 6a4f 1cbd
000000b0: 1dd4 fe3b 49ab b8bb e55a 403c c620 843b
000000c0: b567 90bc c133 4b3c 0940 073d 20af 423c
000000d0: 9604 383d 46af edbc 4121 bb3c 8ab2 bb3b
000000e0: 2dad 943c 8f16 d13c dfa9 ae3e 15b2 623b
000000f0: de39 05bd 4fbd 303d 6521 83bc 7306 183d
00000100: e2b1 07bd 05fb 323d 0165 293c a004 bcbc
00000110: 5d8e 753a d040 493d 47a8 d4bc 47b9 ebbc
00000120: 2cd1 34be 77c6 08bd 11e9 d73b fac7 d5bc
00000130: 038d 873c 7820 f53b 1d0e 5f3c f239 893c
00000140: b3c3 2abc aaa3 6a3b b963 3e3d 2dcd bf3e
00000150: 26fe 683c 1463 1cbc 544a de3d ef17 4c3d
00000160: 5a15 8fbd 70b6 6dbc b0bd 2bbc c482 3fbc
00000170: c51c 883c 3cbc 07bc 5e43 3e3a c2f9 79bb
00000180: 488b 5abc 6584 643d 302d 643d 774c 02be
00000190: 81be 793d fd67 f33d f05b 443c 455f febc
000001a0: 67d5 8d3e 76a2 b23c 0ea2 9abc bc1a 18be
000001b0: 15d3 bd3c 53e8 1b3c 6d27 663d b0f4 f3bc
000001c0: 8e1f 19bd c4fd a23a 2b2d c6bc 2ed7 da3c
000001d0: 0b50 90bc 1f31 453d d651 043b 3ef1 3ebb
000001e0: 373c 33bd 80d0 6d3d 450e 14bd b192 763c
000001f0: a3e3 e63c 011c 0939 f284 7e3c d6c2 643d
00000200: 1d56 1a3d a40c f33c d27c eabb dcbd db3c
00000210: e5d5 d4bc 1f4c cfbb da0d cd3c 30db 053d
00000220: 0db5 b2bc d367 eebd 278c 68ba a173 e73c
00000230: bf7f f73c 6a14 463c 3ed5 71bd 2cd6 64bc
00000240: 3bcb d33b 305c d3bb d026 f6bd 8ae7 72bb
00000250: 7849 bc3e 29c4 3dbc 0cb6 b7bb 4ff7 20bc
00000260: 2f03 02bc 01b7 433c c42d 873b ee9d 36bd
00000270: 24ea 69bc 3b6d 4bbc 09ba 97be 6c34 803b
00000280: 8553 e83c 481e 69bc 4b5c 02bd bcfb 923d
00000290: 2ffa 853d abd9 28be 3803 843c 86c9 423d
000002a0: 7f26 39bc 4874 12bc bfc0 8fbd b44c 873c
000002b0: a65d 753c 9f32 9eba bd2e 423d 4116 d5bb
000002c0: e3cb 6f3e dc33 f8bb a119 41ba 794c bb3d
000002d0: 39c7 873c 956b e83b c90c 6abc 0579 73bc
000002e0: a08f 92bb 8b00 fdbc d668 ba3d 2179 8d3c
000002f0: 2aa1 7b3b e7ba d1bc 1ff8 79bc 4748 ddba
00000300: 2297 703c b926 83bc 743f 263e 3b64 ac3c
00000310: 4679 6abd 3bd2 db3c 2d5d c23c cec2 193c
00000320: 3ebc b83d ff5c 05bd 0aec e13b 182f ff3c
00000330: 3274 33be 870d 633c a0e5 07be 7539 1b3c
00000340: 2276 2d3c 721b 4f3d ecea c1bd d45c 50bc
00000350: 134a 01bc a206 793c 6ce4 643c 8e19 a23d
00000360: 156b 80b9 02f5 0839 e834 12bb f69a 823d
00000370: f80c 4e3d c119 8d39 71ee 2cbd af51 bdbb
00000380: a94f eab9 e3bd 8abc 8b89 a83a cad5 03bd
00000390: 1447 90ba 03ec 8bbc 7f8a 543e 001b bf3d
000003a0: 10d9 2cbc 679f 583d 4ac2 40bc 8580 96bb
000003b0: 7e04 c93c 0bda 14bd c7d3 afb8 584a fb3c
000003c0: 188a 38bb ee0a b03b 28dc 93bb 154e cebc
000003d0: f645 f3bb 1ab8 8d3d e195 883d ff1d aebc
000003e0: b0ec 41bd 3a85 5b3d 2f60 e0bd 1340 4b3b
000003f0: 8754 8e3c 0fe9 653c 1020 5c3d 1cbd a1bd
0.026155852 -0.01785502 0.0016875132 -0.026033226 -0.027601894 -0.0039637503 0.42323044 0.029002897
-0.011642051 0.02842583 0.012310483 -0.09507604 -0.06215425 -0.0094296755 0.024258824 0.034179647
0.44448796 -0.007350758 -0.016542371 -0.058430582 -0.16887526 -0.12903778 0.050849628 0.076430134
0.034194607 0.0120597165 0.081473514 0.01903024 0.008053939 -0.025403248 0.029678352 -0.04076357
0.17594534 0.018716073 0.0476312 -0.0056472416 0.072389364 -0.008973868 0.026821567 0.0117293075
-0.005913446 0.3427374 -0.26342636 -0.038161673 0.0077767507 -0.005635653 0.011740421 0.004032227
-0.017627576 0.012402476 0.033020053 0.011882573 0.04492625 -0.029014241 0.022843005 0.0057280706
0.018148983 0.025523452 0.34113976 0.0034591008 -0.03252589 0.04314929 -0.016007135 0.037115525
-0.033128627 0.043696422 0.010339023 -0.022951424 0.0009367222 0.049134076 -0.025959147 -0.02877487
-0.17657918 -0.033392396 0.006589063 -0.026096333 0.016546732 0.007480677 0.013614205 0.016751263
-0.010422635 0.0035803118 0.04648182 0.37461224 0.01422075 -0.009545106 0.10854021 0.049827512
-0.06986494 -0.0145088285 -0.010482237 -0.011688892 0.01661528 -0.008284625 0.00072579633 -0.0038143252
-0.013338871 0.055790324 0.055707157 -0.12724482 0.060972694 0.118850686 0.01198481 -0.031051287
0.27701876 0.021805983 -0.018876102 -0.14853948 0.02317194 0.00951584 0.056189943 -0.029779762
-0.03738361 0.0012435247 -0.02419146 0.026713934 -0.017616292 0.04814255 0.002019038 -0.002913549
-0.043758597 0.05806017 -0.03614642 0.015049622 0.028184718 0.0001307577 0.015534626 0.055849873
0.03767978 0.029669113 -0.007155993 0.02682393 -0.0259809 -0.006326213 0.025031019 0.032679737
-0.021814847 -0.11640897 -0.0008870982 0.028253378 0.030212281 0.012089828 -0.059041254 -0.013967078
0.006463436 -0.0064501986 -0.12019122 -0.0037064278 0.36774802 -0.011582413 -0.0056064185 -0.009824588
-0.007935329 0.011945487 0.0041253287 -0.044584207 -0.014277015 -0.012416179 -0.2963412 0.003912499
0.028360138 -0.014228411 -0.0318263 0.07176921 0.06541859 -0.16489284 0.016114816 0.04755547
-0.011300682 -0.008938856 -0.07019185 0.016516067 0.014975941 -0.001206953 0.047407854 -0.006502897
0.2341762 -0.0075745415 -0.0007366185 0.091454454 0.016574489 0.007092903 -0.014285275 -0.014860396
-0.004472688 -0.030884048 0.09102027 0.017269673 0.0038395622 -0.025601817 -0.015256911 -0.0016882502
0.01468447 -0.016009675 0.16235143 0.021043887 -0.05724456 0.026833644 0.02372607 0.009384824
0.09020279 -0.03255939 0.006894593 0.031150386 -0.17524794 0.013858206 -0.13271189 0.009474148
0.010587247 0.050563283 -0.09468636 -0.012717444 -0.007891196 0.015199335 0.013970476 0.079150304
-0.00024493845 0.00013061243 -0.0022309367 0.06377213 0.050305337 0.00026912804 -0.042219583 -0.0057775597
-0.0004469131 -0.016936248 0.0012858374 -0.032186307 -0.0011007511 -0.017080313 0.20755957 0.09331322
-0.010549799 0.052886393 -0.011765072 -0.0045929574 0.024538275 -0.036340754 -8.384097e-05 0.030675098
-0.0028158482 0.0053723967 -0.0045123287 -0.025183717 -0.0074241115 0.0691988 0.06669212 -0.021254538
-0.047344863 0.05359385 -0.109558456 0.0031013533 0.01737429 0.014032616 0.053741515 -0.07897398
