trained_probes_truth_twoshot/probe_sae_recons_label_seed_20.pt (torch, 10978 bytes, 1 tensors)

net.weight f4 [1, 2304]
0.007947572 -0.043820012 -0.021456085 0.0066326414 -0.027233621 0.010360323 -0.1095391 -0.0066585303
-0.0041064573 0.051402815 -0.00086819293 -0.021103965 0.012609862 -0.023074217 0.072011754 -0.0065923505
0.058542978 0.08600392 0.0087005105 -0.05721958 -0.087651685 0.07333088 0.060939047 0.18779552
-0.0034764267 -0.012102092 -0.017056838 0.023428097 0.040529653 -0.0041936687 0.021158068 -0.021452282
0.030372947 -0.008301985 0.12826887 -0.03905653 -0.19655858 0.010403486 -0.011467804 0.022239683
0.03337297 0.032006953 -0.14353767 -0.0031087594 -0.039470427 -0.019791417 0.018632308 -0.060229726
-0.0076090535 0.0015922617 -0.0066554956 -0.02896022 -0.017436912 0.0106666675 0.64694554 0.058073815
0.007234032 0.3257301 0.09437161 -0.159392 0.018124588 -0.00963884 -0.0033189766 0.03625242
0.0034280387 -0.28260198 -0.023846531 -0.006662891 0.0047401865 0.00013330964 0.029014854 0.011783886
-0.04065159 0.022089502 0.0682837 -0.05833518 0.009806896 0.011872843 -0.018486941 0.16675483
-0.005676858 -0.017898533 0.075206324 0.18589544 -0.029933497 -0.06757126 -0.060100064 -0.003437998
0.033824544 -0.022422958 0.0059937267 0.0018887274 0.027039899 -0.013766179 -0.25593647 -0.0113650095
0.012719955 0.027968746 -0.037941057 -0.048131946 0.04489233 0.0061959866 -0.13933101 -0.06976513
-0.06795538 0.0016527876 -0.16579296 -0.035929553 -0.05868187 -0.00993173 0.0816929 0.03704846
-0.0042125955 0.015451895 -0.011656976 0.03716837 0.03337196 -0.021934438 -0.020171177 -0.0048437333
0.06514279 -0.08165523 0.061496485 0.00882284 0.016384197 -0.047651008 0.013054996 0.122924976
0.0034587942 0.06367144 -0.0015979037 -0.02133866 0.10509621 -0.020640466 0.17455268 0.009898663
0.010575357 -0.008757736 0.0079902485 0.037242334 -0.09357558 -0.029669 0.02583101 -0.045212377
-0.035860192 0.0335851 0.043519523 0.01975717 -0.029473627 -0.18833643 -0.0070478297 -0.0013968288
-0.12134465 -0.0074157757 0.001019892 0.07947154 -0.0033601173 0.10843534 -0.24405791 0.012299763
0.013308879 -0.013417962 -0.12016348 -0.027340684 -0.0046258196 -0.45834118 0.008086522 -0.002919418
-0.01741873 0.10320514 -0.020056127 0.004241168 0.28237727 0.018319804 0.24611008 -0.02220875
0.08561817 -0.04443663 -0.011955192 -0.08255009 -0.029350651 -0.1247519 0.0306342 0.04321703
0.0036463207 -0.018090049 0.003692228 0.16049358 -0.042565998 0.015227654 -0.0017440085 0.0011687395
0.015965967 -0.077051744 0.07781076 -0.18723007 -0.364863 -0.0179834 -0.011083843 0.030117907
0.00855369 -0.030923754 0.002569557 0.020144694 0.2553944 0.013061716 -0.076149516 -0.10784942
-0.008682068 0.004440936 -0.025256265 -0.1508286 0.091253 0.03792507 0.13016619 -0.19548823
-0.012910822 -0.021800347 -0.050747067 0.054951992 0.011979459 0.04584766 -0.02369022 0.06464891
-0.010726179 0.009202935 0.009578347 0.21133749 0.008442881 -0.112077214 0.024585094 0.056324348
-0.01436904 0.106251724 0.20009929 -0.061018262 0.039125513 0.023553705 -0.028397147 0.013319009
0.15725198 -0.0009363912 0.0063339015 -0.015524189 -0.06396038 -0.015685054 -0.07759608 0.0048102043
0.047148272 -0.019400895 0.031770073 -0.022140466 -0.018447893 -0.008782611 0.03297784 -0.094218634
00000000: 8836 023c 9d7c 33bd acc4 afbc a156 d93b
00000010: 0b19 dfbc 58be 293c 0956 e0bd cd2f dabb
00000020: 768f 86bb c28b 523d 7197 63ba 39e2 acbc
00000030: 9899 4e3c 2406 bdbc e67a 933d a504 d8bb
00000040: c3ca 6f3d d322 b03d 968c 0e3c 145f 6abd
00000050: ba82 b3bd 802e 963d 399b 793d 784d 403e
00000060: c3d4 63bb da47 46bc c8ba 8bbc 48ec bf3c
00000070: 6c02 263d 0b6b 89bb af53 ad3c b2bc afbc
00000080: b0d0 f83c 0d05 08bc ea58 033e bdf9 1fbd
00000090: a746 49be 6273 2a3c 75e3 3bbc ff2f b63c
000000a0: 18b2 083d b919 033d 8afb 12be 54bc 4bbb
000000b0: beab 21bd 9c21 a2bc c8a2 983c 72b3 76bd
000000c0: 5e55 f9bb 70b3 d03a 5816 dabb fc3d edbc
000000d0: dbd7 8ebc 3fc3 2e3c 399e 253f cfde 6d3d
000000e0: 750b ed3b 18c6 a63e e745 c13d a837 23be
000000f0: 047a 943c 3aec 1dbc 3083 59bb 6b7d 143d
00000100: f2a8 603b 35b1 90be cd59 c3bc 6154 dabb
00000110: 9153 9b3b 09c9 0b39 8fb0 ed3c 3311 413c
00000120: 4882 26bd 0bf5 b43c 53d8 8b3d dff0 6ebd
00000130: 1aad 203c 5086 423c ed71 97bc c7c1 2a3e
00000140: f004 babb f29f 92bc c605 9a3d 605b 3e3e
00000150: 1837 f5bc cd62 8abd 7c2b 76bd 0950 61bb
00000160: 9b8b 0a3d 5ab0 b7bc 0667 c43b 2d8f f73a
00000170: c782 dd3c 8a8b 61bc 1b0a 83be 4e34 3abc
00000180: 5c67 503c b61e e53c 1568 1bbd 0126 45bd
00000190: 05e1 373d b407 cb3b caac 0ebe 05e1 8ebd
000001a0: 312c 8bbd 59a2 d83a a1c5 29be de2a 13bd
000001b0: 675c 70bd b2b8 22bc 9b4e a73d 20c0 173d
000001c0: d009 8abb f229 7d3c e7fc 3ebc dc3d 183d
000001d0: 09b1 083d daaf b3bc 063e a5bc 2eb8 9ebb
000001e0: 9569 853d db3a a7bd bde3 7b3d ac8d 103c
000001f0: 2738 863c b42d 43bd 9fe4 553c 17c0 fb3d
00000200: f0ac 623b 2c66 823d c070 d1ba 6ace aebc
00000210: af3c d73d 3216 a9bc f0bd 323e 002e 223c
00000220: 4344 2d3c 9b7c 0fbc 88e9 023c 6b8b 183d
00000230: 8ea4 bfbd 670c f3bc 8e9b d33c 9d30 39bd
00000240: 23e2 12bd 8890 093d 8741 323d cad9 a13c
00000250: ad72 f1bc 44db 40be 7bf1 e6bb cc15 b7ba
00000260: 8b83 f8bd 0900 f3bb e6ad 853a fac1 a23d
00000270: 6a35 5cbb 5913 de3d 51ea 79be f284 493c
00000280: 7c0d 5a3c 03d7 5bbc 4518 f6bd 92f9 dfbc
00000290: 3094 97bb b2ab eabe 557d 043c b553 3fbb
000002a0: b9b1 8ebc 375d d33d bf4c a4bc 7ff9 8a3b
000002b0: c193 903e 6a13 963c 4804 7c3e 20ef b5bc
000002c0: 9458 af3d 2f03 36bd b6df 43bc 0610 a9bd
000002d0: c770 f0bc ed7d ffbd 93f4 fa3c 5704 313d
000002e0: 1cf7 6e3b 9531 94bc 4ff9 713b 6e58 243e
000002f0: af59 2ebd 697d 793c 3797 e4ba 6430 993a
00000300: 0fcb 823c 4ecd 9dbd 3f5b 9f3d 3db9 3fbe
00000310: 53cf babe ec51 93bc 0299 35bc d4b9 f63c
00000320: c724 0c3c d053 fdbc 0366 283b 7c06 a53c
00000330: 0ec3 823e cf00 563c 47f4 9bbd 28e0 dcbd
00000340: 3c3f 0ebc 4585 913b 3ae6 cebc d072 1abe
00000350: dae2 ba3d 5157 1b3d 494a 053e 112e 48be
00000360: ea87 53bc a496 b2bc 28dc 4fbd 5715 613d
00000370: 7e45 443c c2ca 3b3d fe11 c2bc a666 843d
00000380: dbbc 2fbc e8c7 163c 80ee 1c3c db68 583e
00000390: 0254 0a3c bd88 e5bd ae66 c93c 5cb4 663d
000003a0: 1f6c 6bbc 819a d93d d4e6 4c3e 49ee 79bd
000003b0: 1342 203d b3f3 c03c 22a1 e8bc f937 5a3c
000003c0: aa06 213e 2678 75ba 9e8c cf3b 2b59 7ebc
000003d0: a9fd 82bd f17d 80bc b2ea 9ebd eb9e 9d3b
000003e0: 8c1e 413d a0ee 9ebc 5621 023d ec5f b5bc
000003f0: 0920 97bc f1e4 0fbc c613 073d b3f5 c0bd
