trained_probes_truth_twoshot/probe_sae_input_label_seed_18.pt (torch, 10972 bytes, 1 tensors)

net.weight f4 [1, 2304]
0.03085324 -0.014894441 0.01604638 -0.0031991566 0.0059124017 0.022408092 0.33881667 0.017772177
-0.026683807 0.0027940688 0.002637432 -0.07995541 -0.015335335 -0.012996105 0.034285616 0.028633913
0.43354702 0.0053003193 -0.020754708 -0.033848457 -0.15959963 -0.09915959 0.058970705 0.05065419
0.01926914 -0.007916555 0.08413081 0.03282891 0.006916242 -0.03292995 0.0008665168 -0.07640049
0.1664742 -0.012950364 0.03561055 -0.007091898 0.07250486 -0.024590995 -0.00080435816 -0.01446635
-0.023310166 0.26329863 -0.22803389 -0.033594795 0.009246791 -0.009593968 -0.007244877 0.022325998
-0.0072695757 0.021370867 0.0046392484 0.010283508 0.018039845 -0.0075744176 0.05202497 0.013758227
-0.010895342 0.03419169 0.3015634 -0.00014012493 0.0034778863 0.01745148 -0.010432433 0.032260142
-0.048887946 0.025627013 0.021185348 0.01026467 -9.551337e-05 0.038538046 -0.057853077 -0.009408605
-0.16057375 -0.0041438057 -0.07825979 0.005925826 0.004893014 0.017663972 0.01521934 0.019029196
-0.030739494 -0.024845313 0.06350067 0.36605898 0.030296395 -0.012389403 0.11245343 0.08607247
0.00640294 0.020575676 -0.029722312 -0.0010484435 -0.005062074 -0.03838511 0.00635514 0.015190621
0.014681755 0.027478559 0.02584985 -0.12221471 0.07195921 0.10883705 0.011257478 -0.009658826
0.26260045 0.004359411 -0.010435226 -0.14122961 0.02173203 -0.005118043 0.054312423 -0.010702474
-0.002593446 0.02322951 -0.02774066 0.012270544 -0.0473112 -0.020667441 0.011836614 -0.021372145
-0.08196249 0.06080719 -0.03054432 0.008494146 0.027137611 -0.0060312594 0.045223903 0.03306985
-0.0141618205 0.031534757 0.012091695 0.023890773 -0.065273575 -0.013509073 0.050502267 0.056797408
-0.01061919 -0.109156616 0.0034338266 0.037697036 0.049875356 -0.0050252737 -0.13799755 -0.021766704
0.0216821 0.0070693884 -0.14743513 0.012536488 0.37503955 0.0035415224 0.01577598 -0.017429477
0.026417768 0.0071756053 0.009851769 -0.014941144 0.010554445 -0.05445632 -0.25169954 -0.0046465867
0.048633143 -0.009969822 -0.008045683 0.11374555 0.08307989 -0.13697587 -0.009583884 0.03537937
-0.019750422 0.009185144 -0.05982764 -0.015526481 -0.012837786 0.01913771 0.036307886 0.0037503187
0.20149578 -0.018939711 -0.0078047747 0.07307223 0.021571044 0.012954309 -0.0006725829 -0.012110317
-0.0014538649 -0.03282558 0.08482032 0.0075245863 -0.010571444 -0.01920171 -0.0021535675 0.01039997
-0.007533518 -0.011446069 0.14133438 0.015484613 -0.01895264 -0.0018827565 -0.015850125 0.03086139
0.05947515 0.01803458 -0.004442321 0.028231284 -0.19103035 0.03419785 -0.10715812 0.029048378
0.018985942 0.056108996 -0.11373568 -0.0029980186 -0.008677775 0.004961234 0.016484397 0.088097245
-0.053667147 -0.0043315124 -0.005641931 0.032799035 0.028966155 0.022903454 -0.026938256 0.0005059267
-0.004757473 -0.012717128 0.012774827 -0.03586276 0.025679223 -0.018949684 0.24501811 0.043795045
-0.032696374 0.054470617 -0.010661269 -0.017282229 0.01501353 -0.015948558 0.009821051 0.027135614
0.01642 -0.021408733 0.023625892 -0.019716587 -0.021906355 0.044421792 0.08015274 -0.0024900795
-0.012105675 0.036761772 -0.08280002 0.01684248 0.012422555 0.0052939514 0.07185547 -0.060448136
00000000: efbf fc3c d007 74bc b373 833c f1a8 51bb
00000010: d2bc c13b 2d91 b73c 6179 ad3e f596 913c
00000020: 0098 dabc b21c 373b c4d8 2c3b a9bf a3bd
00000030: 0f41 7bbc 9ded 54bc 136f 0c3d ab91 ea3c
00000040: e0f9 dd3e 4dae ad3b c705 aabc aea4 0abd
00000050: 166e 23be 2f14 cbbd 448b 713d c57a 4f3d
00000060: 51da 9d3c 70b4 01bc c64c ac3d 9b77 063d
00000070: a5a1 e23b 8ee1 06bd f526 633a dc77 9cbd
00000080: 3678 2a3e c32d 54bc 5edc 113d 2763 e8bb
00000090: 6e7d 943d 0e73 c9bc 90db 52ba 4504 6dbc
000000a0: f6f4 bebc 14cf 863e b781 69be b29a 09bd
000000b0: da7f 173c 0530 1dbc 6f66 edbb 03e5 b63c
000000c0: 9f35 eebb f511 af3c d604 983b 297c 283c
000000d0: 4cc8 933c d232 f8bb 2318 553d 306a 613c
000000e0: 6082 32bc 960c 0c3d 8566 9a3e 80ee 12b9
000000f0: 40ed 633b 68f6 8e3c ccec 2abc 3623 043d
00000100: ba3e 48bd beef d13c e58c ad3c 252d 283c
00000110: 5a4e c8b8 12da 1d3d 59f7 6cbd 8d26 1abc
00000120: 726d 24be c3c8 87bb ab46 a0bd 6e2d c23b
00000130: 9455 a03b 09b4 903c 8a5a 793c 1ee3 9b3c
00000140: 64d1 fbbc 6688 cbbc a40c 823d 156c bb3e
00000150: 2530 f83c ecfc 4abc fc4d e63d c346 b03d
00000160: c1cf d13b 528e a83c 357c f3bc ed6b 89ba
00000170: c1df a5bb b539 1dbd c73e d03b 15e2 783c
00000180: be8b 703c b71a e13c 11c3 d33c b54b fabd
00000190: 5a5f 933d f6e5 de3d 4971 383c 0d40 1ebc
000001a0: 9173 863e 64d9 8e3b 83f8 2abc 7f9e 10be
000001b0: 5f07 b23c 42b5 a7bb b476 5e3d 6e59 2fbc
000001c0: cef6 29bb d04b be3c 6140 e3bc 640a 493c
000001d0: 64c9 41bd c44e a9bc 5cee 413c a314 afbc
000001e0: f3db a7bd f610 793d 1538 fabc 082b 0b3c
000001f0: b24f de3c dfa1 c5bb b33c 393d 4074 073d
00000200: fb06 68bc 972a 013d 3f1c 463c 95b6 c33c
00000210: 27ae 85bd 2955 5dbc 77db 4e3d 66a4 683d
00000220: 1cfc 2dbc 818d dfbd 0d0a 613b 3568 1a3d
00000230: 1a4a 4c3d 0dab a4bb 3b4f 0dbe 1650 b2bc
00000240: a99e b13c 54a6 e73b 3cf9 16be d765 4d3c
00000250: 2f05 c03e e318 683b a13c 813c 43c8 8ebc
00000260: 136a d83c 5721 eb3b 5069 213c b3cb 74bc
00000270: 8dec 2c3c 970d 5fbd c3de 80be 6542 98bb
00000280: 8c33 473d 7758 23bc 0ad2 03bc 6df3 e83d
00000290: ca25 aa3d 6743 0cbe b905 1dbc f5e9 103d
000002a0: a3cb a1bc 497d 163c d40d 75bd c862 7ebc
000002b0: 9455 52bc b0c6 9c3c 94b7 143d e8c7 753b
000002c0: e954 4e3e 7427 9bbc 32bf ffbb e5a6 953d
000002d0: c2b5 b03c 4f3e 543c 4650 30ba 5a6a 46bc
000002e0: 9c8f beba 1e74 06bd 47b6 ad3d ce90 f63b
000002f0: da33 2dbc e84c 9dbc de22 0dbb a364 2a3c
00000300: bbdb f6bb 4b88 3bbc f6b9 103e 2db3 7d3c
00000310: 9142 9bbc d3c6 f6ba 1fd8 81bc 07d1 fc3c
00000320: 379c 733d 41bd 933c e490 91bb 4b45 e73c
00000330: 769d 43be 0b13 0c3d b775 dbbd ddf6 ed3c
00000340: 6888 9b3c 8cd2 653d 41ee e8bd 687a 44bb
00000350: 3a2d 0ebc d991 a23b 490a 873c 546c b43d
00000360: 15d2 5bbd 5cef 8dbb f3df b8bb 4858 063d
00000370: 6e4a ed3c 06a0 bb3c 9ead dcbc 2ba0 043a
00000380: 93e4 9bbb 805b 50bc 824d 513c d4e4 12bd
00000390: 3c5d d23c 5e3c 9bbc 07e6 7a3e 6f62 333d
000003a0: a2ec 05bd 951c 5f3d 9aac 2ebc 7693 8dbc
000003b0: 4ffb 753c 8da6 82bc 79e8 203c 824b de3c
000003c0: 3c83 863c 5e61 afbc 168b c13c ae84 a1bc
000003d0: f574 b3bc a0f3 353d 1f27 a43d 9a30 23bb
000003e0: e256 46bc 8393 163d 0f93 a9bd 3ef9 893c
000003f0: f987 4b3c e278 ad3b f628 933d 7798 77bd
