trained_probes_truth_twoshot/probe_sae_diff_label_seed_7.pt (torch, 10960 bytes, 1 tensors)

net.weight f4 [1, 2304]
0	0x3dfc2987	0.12312608
1	0x3c1a7818	0.009428047
2	0x3d18ad88	0.037274867
3	0xbd769a81	-0.06020594
4	0x3cfb5f18	0.030684993
5	0xbad639cc	-0.0016344129
6	0x3dc2c2e8	0.09509832
7	0x3c466d9d	0.012111095
8	0xbd457619	-0.04820833
9	0x3d04b5ed	0.03240006
10	0x3cf3f4e0	0.029779851
11	0xbc34d799	-0.011037731
12	0xbc87b3f7	-0.016565306
13	0xbc316148	-0.010826416
14	0xbad0f8d1	-0.0015943294
15	0x3db2f40f	0.08737957
16	0x3dd540a4	0.1041272
17	0xbd2e034c	-0.042483613
18	0xbb4542ba	-0.0030099587
19	0xbdba9e87	-0.09112268
20	0xbc36d498	-0.011159085
21	0xbd965342	-0.07340099
22	0x3dce8679	0.100842424
23	0x3db40812	0.08790602
24	0x3da2445f	0.07923197
25	0x3dce7ea3	0.10082748
26	0x3d10e5da	0.035375454
27	0xbd969ff7	-0.073547296
28	0xbcc35d8d	-0.02384832
29	0xbce6e66d	-0.028186047
30	0x3c3e892c	0.011629384
31	0xbc87a260	-0.016556919
32	0x3d54b0d4	0.05192645
33	0x3ce83105	0.028343687
34	0xbcb13c30	-0.021635145
35	0x3ce3f854	0.027828373
36	0x3e054674	0.13015157
37	0xbe6ab9a6	-0.22922382
38	0x3dabb7ab	0.08384641
39	0xbd5298af	-0.05141514
40	0xbcaa44ce	-0.020784762
41	0x3dd1e637	0.10248988
42	0xbca5c99f	-0.020237742
43	0xbcc737d3	-0.024318611
44	0x3cc9db78	0.024640784
45	0xbc492faf	-0.012279435
46	0xbd60a020	-0.054840207
47	0x3e1fb83b	0.15597622
48	0xbe116380	-0.14198112
49	0xbc12fc2c	-0.008971255
50	0x3bf48814	0.007462511
51	0x3d5ef9be	0.05443739
52	0x3cc837a2	0.02444059
53	0xbca7bd18	-0.02047591
54	0xbc8c55a6	-0.017130684
55	0xbc0fea9d	-0.0087839635
56	0x3c387ebb	0.011260684
57	0xbc2f8acf	-0.010714247
58	0x3d161c87	0.0366483
59	0x3c83c401	0.016084673
60	0xbcef59e1	-0.029217662
61	0x3d174a82	0.03693629
62	0x3cd9a0e6	0.02656598
63	0xbc267a4f	-0.010160997
64	0xbe14b379	-0.14521588
65	0x3d8f4195	0.06994931
66	0x3ba9095e	0.0051585874
67	0xbdbb5690	-0.0914737
68	0x3b902ccc	0.0043998715
69	0x3a9bee14	0.0011896514
70	0xbe807c50	-0.25094843
71	0xbccbf42d	-0.024896706
72	0xbd6dfc6f	-0.058102068
73	0xbdfca49b	-0.123360835
74	0xbd338e00	-0.043836594
75	0x3d3a61d0	0.045503438
76	0xbe09c726	-0.13454875
77	0xbe50a146	-0.20374021
78	0x3d609c42	0.05483652
79	0x3c978509	0.018496053
80	0xbb08d443	-0.002087847
81	0xbc9a640a	-0.01884653
82	0x3bc78739	0.006089118
83	0x3e1f354c	0.15547675
84	0x3c9af6a8	0.018916443
85	0x3d06704d	0.032821942
86	0x3d578471	0.05261654
87	0x3cecccaa	0.028906185
88	0xbd2b373d	-0.041800726
89	0x3d84a1e0	0.06476188
90	0xbd294607	-0.04132655
91	0xbe3e4f1c	-0.18584865
92	0xbcae9a82	-0.02131391
93	0xbc351bef	-0.011054023
94	0x3b3291cf	0.0027247553
95	0xbb46edc6	-0.0030354126
96	0xbc8cad35	-0.017172435
97	0x3c99b6f3	0.018763995
98	0x3db12810	0.086502194
99	0xbd25d95a	-0.040490486
100	0x3b1b02a2	0.0023652692
101	0xbae2f328	-0.0017314898
102	0x3aacc287	0.0013180532
103	0xbcb518c2	-0.022106532
104	0x3e33edb3	0.17571144
105	0xbca11c07	-0.019666685
106	0x3e16ea98	0.14737928
107	0xbe6c0edb	-0.23052542
108	0x3dda1d7a	0.106501535
109	0x3e1e0bda	0.15434209
110	0x3d34227f	0.04397821
111	0xbc800be6	-0.015630674
112	0xbdd5915c	-0.10428116
113	0xbdc19d75	-0.09453861
114	0xbcd6c320	-0.02621609
115	0x3d9606cd	0.07325516
116	0xbda8725a	-0.08224936
117	0xbc9a4fb4	-0.018836834
118	0xbc66eb3b	-0.014094169
119	0xbdada2ac	-0.08478293
120	0xbd8fcf72	-0.07021989
121	0x3d8861bd	0.06659267
122	0xbc14b372	-0.009075986
123	0x3e5073d3	0.20356683
124	0x3c3dd81e	0.011587171
125	0x3ca8d6c1	0.020610215
126	0x3b3b17ca	0.0028548115
127	0xbcb4eb3d	-0.022084827
128	0x3ce1bd7b	0.027556172
129	0xbc04b9cd	-0.008100939
130	0x3c583d78	0.013198249
131	0x3bde1aa6	0.006778079
132	0xbd93bfa1	-0.07214285
133	0x3d94f639	0.07273526
134	0x3c21a0bc	0.009864982
135	0x3d0412f0	0.032244623
136	0x3b8a678a	0.0042237686
137	0xbc06d34c	-0.008229088
138	0xbc8be13d	-0.017075175
139	0xbd78b7d0	-0.060722172
140	0x3d71b52f	0.05901068
141	0x3e2f518d	0.17120953
142	0x3bacdd45	0.005275401
143	0x3cc58d50	0.024115235
144	0x3c6d56c8	0.014486022
145	0xbe47e9f3	-0.19522838
146	0xbe1334f3	-0.14375667
147	0xbc9810dd	-0.018562729
148	0x3e02004d	0.12695427
149	0x3c2e440f	0.010636344
150	0x3c788db8	0.015170507
151	0xbd75f2e7	-0.060046103
152	0x3c5a8be0	0.013339013
153	0x3b6f97bc	0.0036558947
154	0x3deece3b	0.11660429
155	0xbd3d54b5	-0.04622336
156	0xbcc9d04b	-0.024635455
157	0xbe14c021	-0.14526416
158	0xbd3289b7	-0.043588366
159	0xbc033edc	-0.008010592
160	0x3d747b92	0.05968816
161	0xbbbf8ebe	-0.0058458736
162	0xbc8bc265	-0.017060468
163	0x3ce5a408	0.028032318
164	0x3d073aa4	0.03301491
165	0xbd946ef4	-0.07247725
166	0xbc0e65e5	-0.008691286
167	0xbc7178f2	-0.014738308
168	0xbc092368	-0.008370258
169	0x3bf4c7a8	0.00747009
170	0x3c95d0ff	0.018288134
171	0x3d1c6532	0.038182445
172	0x3b496602	0.0030730967
173	0xbcaa352f	-0.020777313
174	0xbd6527cd	-0.05594616
175	0xbd80657e	-0.06269358
176	0x3e47894d	0.1948597
177	0xba50b7e4	-0.0007961972
178	0x3d68578e	0.056724124
179	0x3cdb7928	0.02679117
180	0x3d81b830	0.06333959
181	0x3d18ae4e	0.037275605
182	0xbcd4c4d1	-0.025972756
183	0xbe177715	-0.1479152
184	0xbcc89f92	-0.024490152
185	0x3c9fc432	0.019502733
186	0x3c537099	0.012905263
187	0x3c91fdcd	0.017821217
188	0x3d437e58	0.047727913
189	0xbcb84c27	-0.02249725
190	0xbd07a2b3	-0.033114146
191	0xbc0f90bd	-0.008762536
192	0x3c801269	0.015633779
193	0x3cff1ed9	0.031142639
194	0x3dcd915a	0.10037489
195	0x3c987aa7	0.018613173
196	0x3d1e78d5	0.038689453
197	0x3e49d270	0.19709182
198	0x3c77322e	0.015087647
199	0xbc9747cf	-0.018466858
200	0xba103515	-0.0005501074
201	0xbc540d0b	-0.012942563
202	0xbc4b161c	-0.012395408
203	0x3c96c60a	0.01840498
204	0xbea7b272	-0.3275333
205	0x3d8b4048	0.0679937
206	0xbe1135f3	-0.14180736
207	0x3da43903	0.080186866
208	0xbc1f88e3	-0.009737226
209	0x3d2cbdaf	0.042173084
210	0xbcd16d3b	-0.02556478
211	0x3c3b9a32	0.011450337
212	0xbcacb646	-0.021083008
213	0xbd52a0b4	-0.05142279
214	0xbbe5e524	-0.007015841
215	0x3ddb5d32	0.10711135
216	0x3b807907	0.0039206776
217	0x3de1c51b	0.11023923
218	0x3acb4463	0.0015508052
219	0x3d63ebf3	0.05564494
220	0x3d8c180b	0.06840523
221	0x3c37e1c5	0.011223261
222	0xbd08a848	-0.03336361
223	0x3c084948	0.008318253
224	0x3e4fb0d8	0.20282304
225	0xbbd2aa22	-0.006428973
226	0x3ca5e1cd	0.020249272
227	0xbd4fe4c4	-0.050755277
228	0x3c588e84	0.013217572
229	0x3dd1d4a2	0.102456346
230	0x3db606d8	0.08888024
231	0x3c1d3846	0.009595936
232	0x3bbff641	0.005858213
233	0x3d0501b5	0.03247233
234	0xbe5f03d4	-0.21778804
235	0x3c38ee08	0.01128722
236	0x3dd6e123	0.1049216
237	0xbd9d5fd0	-0.076842904
238	0x3ce5d1cf	0.028054146
239	0x3c4803e8	0.012207963
240	0xbc055106	-0.008136993
241	0xbc28834e	-0.010285212
242	0xbb807fdb	-0.0039214916
243	0xbebd1a01	-0.36933902
244	0xbc3bb07b	-0.01145565
245	0x3c75eb15	0.015009661
246	0x3ba2ebf5	0.004971976
247	0x3beeeb33	0.0072912215
248	0xbe5799cc	-0.21054763
249	0x3dc5438b	0.096320234
250	0xbe316e12	-0.17327145
251	0x3c895a24	0.016766615
252	0x3e12bf41	0.1433077
253	0x3daec901	0.08534432
254	0x3ba79107	0.005113724
255	0x3c48c785	0.0122546
