trained_probes_truth_twoshot/probe_sae_recons_label_seed_23.pt (torch, 10978 bytes, 1 tensors)

net.weight f4 [1, 2304]
000000 ca 66 ef 3a a4 71 84 bd fc 32 65 bd 7e e1 9c 3b
       0.0018264886 -0.06466988 -0.055956826 0.004787623
000010 c0 ef 05 bb 5f 59 6a bc fd 61 17 be b0 8f bb 3c
       -0.0020437092 -0.014303534 -0.14783473 0.022895664
000020 49 e7 22 3c d2 f5 c6 ba 67 73 a4 3c ca 3d 29 bd
       0.009942838 -0.0015179461 0.02007456 -0.041318692
000030 14 bf 5d 3c e2 58 45 bc 05 07 82 3d a3 c6 b6 bc
       0.013534326 -0.012045117 0.06348995 -0.022311514
000040 52 00 8c 3d 20 3a e2 3d c1 74 60 3b ab 3a 52 bd
       0.068359986 0.11046243 0.0034249278 -0.05132548
000050 ae 9d cf bd ca a7 80 3d 0d a6 25 3d 82 3c 36 3e
       -0.10137497 0.06282003 0.04044156 0.1779652
000060 73 2e 7a bb e9 9f cb bc b9 c6 64 bc c4 05 07 3d
       -0.0038174659 -0.024856525 -0.013963395 0.032964483
000070 a9 9d 7b 3d d1 1d c0 bc b8 84 bf 3c 28 31 01 bc
       0.061429653 -0.023451718 0.023378715 -0.007885255
000080 97 88 b5 3c 64 26 8a 3b 48 ea 3a 3e c2 04 5b bd
       0.022159858 0.0042160023 0.18253434 -0.053471334
000090 d6 6b 4d be e8 bc 42 bc d0 b6 f9 3b 57 eb 00 3d
       -0.20060667 -0.011885859 0.00762067 0.031474438
0000a0 ff ce 20 3d 20 2a fb 3c 46 78 1d be 64 c7 ac bc
       0.039259907 0.030659735 -0.15377912 -0.02109117
0000b0 b2 01 54 bd 33 9d c8 3a 6d cf 0d bc 7a be 31 bd
       -0.05175943 0.0015305638 -0.008655411 -0.043394543
0000c0 1c 96 67 bb 6b a1 69 3c 69 8f 02 3d 24 31 1c bd
       -0.0035337275 0.014259676 0.031875048 -0.0381328
0000d0 69 fa 62 bc d5 bd a0 3c b4 22 39 3f 04 a6 82 3d
       -0.013853648 0.019621769 0.7231858 0.06379321
0000e0 8c 8c 13 3d db 17 8a 3e 32 0e eb 3d df dc 47 be
       0.036022708 0.26971325 0.11477317 -0.1951785
0000f0 36 61 d8 bc 8d 0d 43 3d 62 3a a8 bb b0 41 c7 3c
       -0.026413541 0.047620345 -0.005133913 0.024323314
000100 79 de d6 bc 1c 87 a2 be 4b 50 5a bb 9b ca 21 bd
       -0.02622913 -0.31743705 -0.0033312018 -0.03949986
000110 2d 39 f5 ba 10 d5 e1 3c 9f 71 a7 3d c7 63 8a bc
       -0.0018709056 0.027567416 0.081759684 -0.01689328
000120 9c fd 6a 3b b1 26 5b 3c fa 92 bf 3d 4c bb 46 3d
       0.003585673 0.013375924 0.093542054 0.048518464
000130 e4 7f de 3b 7d 62 69 3d 0e cb f6 bc 34 5f ee 3d
       0.006790148 0.05697869 -0.03012612 0.11639252
000140 44 26 45 bb 8c a8 b9 3b e5 60 8a 3d 16 e4 89 3e
       -0.0030082623 0.0056658443 0.067567624 0.26931828
000150 12 ab a1 bc 77 13 5d bd b5 46 42 bd ae 0f 9f 3c
       -0.019734893 -0.05397364 -0.047430713 0.019416656
000160 26 d9 c2 3d 2a f4 66 bd 93 61 09 3d 6f d4 33 3b
       0.09514074 -0.056385197 0.03354032 0.0027439853
000170 d2 10 17 3d 4b 20 1d bd 91 d7 6a be 7e 0e bc bb
       0.036881275 -0.038360875 -0.22933795 -0.0057390323
000180 ca 11 0b 3d 4d f7 16 3c 7c 8c 7d bc 45 1c b1 bd
       0.03395251 0.009214235 -0.015475389 -0.0864797
000190 d8 9c 32 3d 68 f8 1e 3d 17 33 32 be b4 8f a9 bd
       0.04360661 0.038811117 -0.17402302 -0.08279362
0001a0 f0 a9 c6 bc f8 00 1f 3c ba 3d 0a be 49 15 ca bc
       -0.024250954 0.009704821 -0.1350011 -0.024668353
0001b0 5b 1b 2b bd 3a 37 55 3b 48 2d a0 3d 89 09 d8 3c
       -0.041774135 0.0032534138 0.07821137 0.026371734
0001c0 fd 56 85 3a 29 66 57 3c 02 23 12 bd 05 30 b4 3c
       0.0010173019 0.0131469155 -0.035677917 0.021995554
0001d0 1e 09 d7 3c 93 9f 1b bc 49 85 30 3c c3 03 a1 3c
       0.026249465 -0.009498495 0.010773965 0.019655114
0001e0 e4 74 fc 3d dc 27 b6 bd 52 de 4b 3d 97 06 1e bc
       0.123269826 -0.08894321 0.049772568 -0.009645126
0001f0 10 58 16 3d fe c4 48 bd 0d 85 39 bc 2c da 07 3e
       0.036705077 -0.04901599 -0.011323226 0.1326682
000200 38 44 f5 3c 18 65 a1 3d 2f eb b1 bb ac 7b 84 3b
       0.029939756 0.0788061 -0.0054296474 0.004043063
000210 e9 e8 f5 3d fd cb b4 bc de bd 42 3e 49 ba 2f 3c
       0.12007315 -0.022069925 0.19017741 0.010725566
000220 2e 46 f4 3b cb 71 2d 3c c3 11 7e bb 34 6f 59 3d
       0.007454655 0.010586212 -0.003876791 0.053084567
000230 b0 b9 d1 bd 47 61 28 bd 65 1e ef 3b 63 d5 17 bd
       -0.10240495 -0.041108396 0.0072973245 -0.037068736
000240 d8 05 fd bc 34 87 21 3d a8 3b 87 3c a5 03 a7 3c
       -0.030886576 0.03943558 0.016507939 0.02038748
000250 2c bb df bc 63 45 a2 bd d0 73 21 bd 2b e3 1e bc
       -0.02731093 -0.07923391 -0.039417088 -0.009697716
000260 bd 41 07 be ff b8 48 bb 29 38 d9 bb 2e 8d 34 3e
       -0.13208671 -0.0030627844 -0.0066290093 0.17631981
000270 30 ed 8a bc 8f 3c e5 3d 2b 7d 8d be d4 ba f2 3a
       -0.016958803 0.11193191 -0.27634558 0.0018518814
000280 fb 17 bc 3c 0e f5 64 bc 7b da c3 bd 59 e1 3c bc
       0.022960654 -0.013974441 -0.09563156 -0.011528336
000290 2e e5 18 3c 96 bc f6 be c9 4f a2 3b 61 fc 36 3c
       0.009331984 -0.48190755 0.004953359 0.01116857
0002a0 14 ea 42 3c 8c 93 da 3d 5d 4b a4 bc 3a 96 fb bb
       0.011896629 0.106726736 -0.020055467 -0.0076778205
0002b0 ed e1 93 3e 6a 11 cc 3c 20 0f b1 3e 08 9f ec bc
       0.28883305 0.024910647 0.34581852 -0.028884426
0002c0 64 9a 49 3d b2 dc 04 bd fe 20 f3 bc ac 5a e8 bd
       0.049219504 -0.032437034 -0.029678818 -0.11345419
0002d0 2a fa 1f bc 38 71 1a be 4c 02 fe 3c 3e 08 32 3d
       -0.009764234 -0.15082252 0.031006955 0.04346489
0002e0 9e 4f 18 3b 89 be 50 bd e2 50 ff 3b a4 99 83 3d
       0.0023240815 -0.05096296 0.0077916244 0.06425789
0002f0 65 1b dc bc 2a a1 a3 3c f5 07 30 bc 59 eb 14 bd
       -0.026868531 0.01997431 -0.010744085 -0.036357258
000300 58 d2 f8 3c 09 69 b4 bd 7a 3c 90 3d 4c 81 01 be
       0.030373737 -0.08809096 0.07042785 -0.12646979
000310 4b 18 c1 be 01 e2 4e bc 10 bc 6e 3c b6 9d 7d 3c
       -0.37713847 -0.012627126 0.014571205 0.015479496
000320 86 34 18 3d ff 5b 9d bc ad 58 9a bb 67 b9 a1 ba
       0.037159465 -0.019208906 -0.004710278 -0.0012338579
000330 1a 21 1e 3e b2 bd a4 3c d0 b6 98 bd 47 dd 08 be
       0.15442315 0.020109985 -0.07456744 -0.1336566
000340 e8 61 94 3b 34 50 3a 3b 06 b2 9e 3b 0d ad 59 be
       0.004528273 0.0028429152 0.0048429994 -0.2125742
000350 72 d0 66 3c 4a 47 3a 3c 51 72 44 3e b4 44 31 be
       0.014087783 0.011369536 0.19184233 -0.17311364
000360 50 af c6 bc c1 85 aa bc 18 32 21 3d 7b 72 2a 3d
       -0.024253517 -0.020815732 0.039354414 0.041613083
000370 e1 0b 1c bc fb 8a 74 3b 9d 68 b0 bc 55 d4 8a 3d
       -0.0095243165 0.0037314284 -0.021534258 0.0677878
000380 53 c1 b0 bc 57 23 01 bc 0a b9 56 ba 5e f2 6e 3e
       -0.02157656 -0.007881961 -0.0008191025 0.23334643
000390 1a f1 56 3c 64 71 fd bd e9 95 1f 3d e6 38 da 3c
       0.0131190065 -0.12375143 0.038961325 0.02663846
0003a0 e2 b0 15 bd 3e c3 c3 3d 7d 4b 40 3e 2a b0 38 bd
       -0.03654564 0.09558724 0.18778796 -0.04508988
0003b0 71 6b 4b 3d fe f6 36 bc 31 c1 ce bc 7d 30 37 3d
       0.04966301 -0.011167286 -0.025238605 0.044723976
0003c0 66 35 3c 3e d2 a9 08 3c d9 b6 8d 3c e7 03 d8 3b
       0.18379745 0.00834127 0.017299103 0.006592262
0003d0 63 13 a5 bd 56 43 fa bb 49 8c 8c bd 59 95 82 bc
       -0.08060338 -0.0076374216 -0.06862695 -0.015940355
0003e0 83 60 cb 3c 52 c8 28 bc 43 a4 1f 3d 8e 45 0d 3c
       0.024826294 -0.010301666 0.03897501 0.00862254
0003f0 bf ab 8c bc 6d 50 0d bc d8 44 79 3d 30 1e 82 bd
       -0.017171739 -0.008625132 0.06085667 -0.06353414
