trained_probes_truth_twoshot/probe_sae_diff_label_seed_12.pt (torch, 10966 bytes, 1 tensors)

net.weight f4 [1, 2304]
000000 cc 54 00 3e af 3c 24 bc 15 60 15 3d 98 21 72 bd
       0.12532347 -0.010024234 0.036468584 -0.05911407
000010 53 64 13 3c 81 45 46 3d 4d 7f 0b 3e a7 1a 86 3b
       0.008996087 0.048406128 0.1362278 0.0040925327
000020 d7 08 70 bd 17 0a 0c 3d 75 40 b3 3c 0b db 02 3c
       -0.05860218 0.03418931 0.021881321 0.007986794
000030 72 b1 75 3b e0 34 8a 3c 13 d1 f7 39 1f 8d ae 3c
       0.00374898 0.016870916 0.00047267284 0.021307526
000040 59 9e 00 3e 3c 73 3c bd c8 76 c2 bd cf 7c d1 bd
       0.12560405 -0.046008334 -0.09495312 -0.102288835
000050 52 a7 58 bd 7b 2d da bd fc d9 ea 3d 71 f7 77 3d
       -0.052893944 -0.10653206 0.114673585 0.060538713
000060 68 d1 ae 3d 72 40 08 3e 89 eb 75 3c 75 9c b4 bd
       0.08536035 0.13305834 0.015009769 -0.08818904
000070 f6 7f a9 bd 23 b9 bc 3a 3e d9 be 3b 46 c3 0a bd
       -0.0827636 0.0014398437 0.005824237 -0.033877634
000080 49 3c 95 3d a0 68 a4 3c ce 4d 0a bd c1 e7 63 bb
       0.07286889 0.02006942 -0.033765607 -0.0034775587
000090 97 c0 f0 3d d6 51 35 be f8 f0 0a 3e a0 b1 13 bd
       0.117554836 -0.17706999 0.13568485 -0.03605807
0000a0 69 24 18 bd 0a 1b d8 3d 07 61 ab bc 98 c5 7c bd
       -0.0371441 0.10552032 -0.02092029 -0.061711878
0000b0 ad 6b 11 3c 97 df f6 bb b5 c7 77 bd 8d ba 7e 3e
       0.00887577 -0.007533978 -0.06049319 0.24875851
0000c0 ee 81 89 be 8f 32 26 3d 04 ac 58 bc 05 90 21 3e
       -0.2685694 0.04057556 -0.0132246055 0.15777595
0000d0 34 63 96 3c ad 68 71 bc df 7d 82 bc f5 35 5f bc
       0.01835785 -0.014734429 -0.01592916 -0.013623704
0000e0 12 88 e2 3c 82 0a f6 bb 47 52 8b 3d bf f8 d3 3b
       0.027652774 -0.007508577 0.068028025 0.006468862
0000f0 e3 48 10 bc f1 d4 ba 3c e0 2a 10 3d d9 55 99 b9
       -0.00880644 0.022806617 0.03519714 -0.00029246396
000100 54 b5 cb bd 8b 33 96 3d 15 2c 4e 3d 28 df 61 bc
       -0.09946695 0.0733405 0.05033501 -0.013786115
000110 07 16 a1 3c 17 07 e5 3c b2 c2 7c be 04 e0 03 bd
       0.019663824 0.027957482 -0.24683645 -0.03219606
000120 21 69 f0 bd 27 99 08 be d2 d1 3b bd de 59 7b bb
       -0.11738802 -0.13339673 -0.045854397 -0.0038353126
000130 98 43 db bd d2 5f d7 bd 55 a3 63 3d 7d 7b 99 3c
       -0.10706252 -0.10516323 0.055575687 0.018735642
000140 8c 62 36 bd 4e 89 98 bd 56 6a b6 3c 03 8e 9f 3d
       -0.044527575 -0.07448064 0.022267502 0.077907585
000150 c1 76 a1 3c 6f 2b 78 3d 27 4f a7 3c d0 59 d9 3c
       0.019709947 0.060588297 0.020423485 0.026532084
000160 c0 3e 71 bd 28 3b 8c 3d ed 69 7a bd 41 5c 44 be
       -0.058897734 0.06847221 -0.061136175 -0.19175817
000170 59 c8 49 bc 09 2e 64 bd 40 f6 01 3d 48 12 8f 3c
       -0.012315833 -0.055707965 0.031728983 0.017464772
000180 76 3d c2 3b a0 c8 e0 bb 52 ee ad 3d 1d 3e 6f bd
       0.005927737 -0.006859854 0.084927216 -0.058408845
000190 f1 86 cb 3b 54 2d 96 3c b8 c7 4e 3c 77 22 2a 3c
       0.0062111546 0.018332161 0.012620859 0.010384194
0001a0 56 c9 23 3e e5 23 8a bc 7a 3a dd 3d 52 38 20 be
       0.15994772 -0.016862819 0.10802169 -0.15646484
0001b0 1d 03 bf 3d 39 37 ee 3d e0 37 ee bb c3 a6 2c bd
       0.09326766 0.11631627 -0.0072698444 -0.042151224
0001c0 4b 36 f3 bd c9 8b 0a bd ab c8 68 bd fd d9 3d 3d
       -0.1187559 -0.033824716 -0.056831997 0.046350468
0001d0 bb 0a 91 bd 0e dd 84 bd 02 b7 e3 bb fd 51 ac bd
       -0.07082125 -0.06487475 -0.0069493065 -0.084140755
0001e0 df 17 97 bd bc b5 5a 3d 9d e6 a4 bc 4f 48 6f 3e
       -0.073776 0.05339597 -0.020129496 0.23367427
0001f0 ec 71 37 bd 6c b5 aa bb 92 a4 b1 3d 99 83 31 bb
       -0.04478638 -0.0052096155 0.086739674 -0.0027086495
000200 38 b2 97 3c d4 a2 0f bc 1f 72 9a 3d ff 32 27 3d
       0.018517599 -0.008766849 0.07541298 0.040820118
000210 47 89 c3 bd 38 6a 74 3d 6c 0e db bd 5a 96 cb 3c
       -0.09547668 0.05967161 -0.1069611 0.024851967
000220 f0 50 e2 bb eb 21 98 bc 51 89 5b bd 9c 5e 89 bd
       -0.006906621 -0.01857086 -0.053597752 -0.067074984
000230 7c 8c e9 3d 2e 5c 33 3e f2 89 32 3c 72 b8 8f bc
       0.114037484 0.17515633 0.010897147 -0.017544005
000240 2c b3 18 3d 5c fb 2f be 21 14 91 be 9a d2 42 bd
       0.037280247 -0.1718573 -0.2833567 -0.047564127
000250 1c 76 11 3e 37 97 78 3c 4c 0b 3e 3d 4e e3 9f bc
       0.14205211 0.015172771 0.046397492 -0.019517567
000260 87 7a 6e 3d 54 3d 5d 3c 9e 84 03 3d 64 41 85 bd
       0.05822232 0.013503391 0.032108895 -0.06506613
000270 ca 87 dc 3b f9 ef 1f be 65 4a 5a bd 6a 9a 6c bc
       0.0067300545 -0.15618886 -0.053293604 -0.014441112
000280 28 e1 d7 3c 92 db 42 3d 1d a4 8e bc 86 73 27 3d
       0.02635248 0.04757268 -0.01741224 0.040881656
000290 b4 9c f2 3c dc ef 4e bd d3 05 b4 bd 30 bc 85 bc
       0.029615737 -0.050521716 -0.087901734 -0.016325086
0002a0 86 f8 b6 bc bd fb bd bc 98 f4 14 3b 4e ed 98 3d
       -0.022335302 -0.023191327 0.0022728797 0.07467137
0002b0 77 ef 8e bc 92 8f 21 bd da db dc bc 07 19 36 bd
       -0.01744817 -0.03944356 -0.026960302 -0.04445746
0002c0 98 7a 59 3e 07 3a fc bb 22 b0 33 3d 71 2d 34 3d
       0.21238172 -0.007697347 0.043869145 0.04398865
0002d0 35 15 e0 3c 1a 61 e7 3c a0 ac 60 bd 5e 53 37 be
       0.027353862 0.028244544 -0.054852128 -0.17902896
0002e0 09 16 07 bd 96 4b 9f bc e0 83 aa 3c 3c 48 92 3c
       -0.03298 -0.019445222 0.020814836 0.01785671
0002f0 72 d5 08 3d f9 25 02 bd 1c a8 43 bc 78 0d 4e bd
       0.033406682 -0.031774495 -0.011941936 -0.050305814
000300 1c 7b 35 3c c0 1a 39 3d cd c0 c5 3d 1e 11 f0 3c
       0.011076715 0.045191526 0.096559145 0.029305037
000310 4d 19 ae 3d cb 08 22 3e b7 f1 d7 bc c1 1e 50 bc
       0.085009195 0.15823667 -0.026360376 -0.012702645
000320 f5 20 03 3c 61 2b 38 bd 5b c5 a6 ba 06 6b 03 3d
       0.008003463 -0.044963244 -0.0012723611 0.032084487
000330 7c 72 ab be ff 98 2a 3d a7 67 3d be 9b e6 a1 3d
       -0.33485782 0.041649815 -0.18496571 0.07905313
000340 14 03 4e bc 1a 13 8c 3c 9d 42 66 bc c0 41 37 3c
       -0.012573976 0.017098952 -0.014053968 0.01118511
000350 85 e9 8c 3c f2 01 8a 3d 70 7f b3 bc d4 28 d8 3d
       0.017201195 0.06738652 -0.021911353 0.10554662
000360 69 f0 90 3c 67 1d c9 3d 44 69 c3 3c b9 82 33 3d
       0.017692761 0.09820061 0.023853905 0.04382584
000370 e4 28 8c 3d 75 01 89 3b e4 44 55 bd ca 72 e4 3c
       0.06843737 0.004181082 -0.052067652 0.027886767
000380 f9 c8 4b 3e e8 6e 16 3c 60 79 2a 3d 9e d4 b6 bd
       0.19900884 0.009181716 0.04161966 -0.08927272
000390 e7 41 f1 3b ad aa af 3d f1 78 d1 3d 1d a1 25 bd
       0.0073625925 0.08577476 0.10228146 -0.040436853
0003a0 a4 7a 82 bd 13 30 52 3d d1 2f 33 be 4f 38 4e bc
       -0.06371048 0.05131538 -0.1749871 -0.012586667
0003b0 2c de 91 3d 85 03 9d bd 44 c6 bf 3c 81 f8 9e 3c
       0.07122454 -0.07666687 0.02340997 0.019405605
0003c0 bc 3e 82 bc 68 25 fd bb 94 d7 a0 bc dd 88 92 be
       -0.015899055 -0.0077254064 -0.019634046 -0.28620043
0003d0 33 78 53 bb b2 50 4e bb 6a 0c 4d 3d a7 db 2e 3c
       -0.003226769 -0.0031481204 0.050060667 0.010672486
0003e0 37 a0 59 be 27 60 80 3d 97 5d 32 be 82 63 95 3d
       -0.21252523 0.062683396 -0.17418514 0.0729437
0003f0 1b d7 60 3e 94 6d 8c 3d c2 fe 8d 3d fd 93 be 39
       0.21957056 0.06856838 0.06933357 0.00036349884
