trained_probes_truth_twoshot/probe_sae_diff_label_seed_4.pt (torch, 10960 bytes, 1 tensors)

net.weight f4 [1, 2304]
0.10170265 0.022506885 0.018763842 -0.07713925 -0.00028279546 -0.003965016 0.15036234 0.04611343
-0.05011511 0.043882437 0.039457828 -0.009938366 0.012207788 0.0069591817 0.004432059 0.061954044
0.117838725 -0.054477952 -0.08769328 -0.08867792 -0.032304004 -0.10003606 0.102527566 -0.0065499037
0.08741582 0.12635168 0.031407025 -0.087765805 -0.051055204 -0.005447022 0.025039226 -0.023101363
0.0533817 0.032792404 -0.012714111 -0.0028469441 0.0964201 -0.11067903 0.09797614 -0.033446085
-0.030796986 0.1461495 -0.024541914 -0.057314865 0.010951849 0.0028147877 -0.0451277 0.19865383
-0.21350408 0.022696037 0.010477156 0.0981998 0.01862896 -0.062859096 -0.0341724 0.023493707
0.0323778 0.0019171105 0.08903537 0.012791005 -0.03336261 0.05818845 -0.0011283344 -0.0032301967
-0.036920615 0.06255016 0.058587432 -0.03785841 0.009279086 0.009531966 -0.23221265 -0.035480913
-0.1251907 -0.13097608 -0.057760693 0.024441583 -0.047088232 -0.12986615 0.06252118 0.020177573
-0.01760726 0.0064040916 0.009369575 0.065567665 0.018445056 0.026836012 0.06735074 0.017368538
-0.055197123 0.030181086 -0.031082893 -0.19741933 -0.018697936 -0.0030673416 0.048436325 0.00977569
0.022148058 0.012807414 0.10969583 -0.062856995 -0.017165823 0.036076363 0.03257539 -0.031006966
0.19310834 0.01781066 0.12405103 -0.15041663 0.085216306 0.04086598 0.03542705 -0.03164996
-0.07788493 -0.050346363 -0.06830601 0.06315378 -0.058569986 -0.0021939126 0.012272342 -0.08928921
-0.092056125 0.04542593 -0.023376698 0.13397646 0.003101713 0.011138267 0.062841155 0.011621307
0.021473035 -0.012646582 0.085171126 0.020899037 -0.11226697 0.047451653 -0.059512172 0.024362521
0.035795964 -0.025633397 -0.026905334 -0.06342719 0.094847925 0.14282738 -0.014267244 -0.0073525473
0.039275106 -0.15312393 -0.14532192 -0.024361081 0.09802643 0.02271032 0.021203194 -0.022399142
0.021217976 -0.005743842 0.030813847 -0.025734916 -0.032026976 -0.08604998 -0.06851613 0.0040314114
0.08026907 -0.0071431533 -0.030862145 0.054547753 0.01313802 -0.061264634 0.03723843 0.0063858544
-0.018840618 -0.025316222 -0.0029300002 0.059690576 0.014296875 -0.031806197 -0.038578644 0.0018792832
0.18994 -0.007024409 0.022188082 0.06630691 0.047749918 0.06796015 -0.029942576 -0.07842799
-0.021083498 0.0063977046 0.02715499 0.0050437455 0.03417037 -0.024467198 -0.040495344 -0.037851825
0.0032389592 0.030147964 0.09434359 0.023422232 0.025185628 0.13640425 0.01884171 -0.019519903
0.013142702 -0.045465715 -0.011409894 0.039580815 -0.12455687 0.03865343 -0.143777 0.048564304
-0.0106872665 0.045836795 -0.015740834 0.004096362 -0.014046029 -0.0017311402 0.0007790984 0.08608373
0.01669536 0.087658584 0.004226579 0.08122033 0.078077115 -0.010431115 -0.029128484 0.00339038
0.16116737 -0.015008972 0.02098434 -0.084712684 0.01982947 0.09385158 0.06961263 -0.007693111
-0.053070072 0.041061066 -0.15665467 0.0026148907 0.06518351 -0.08767368 0.009056178 0.0365877
-0.018244168 0.0024174503 0.00096785364 -0.34502372 0.020077841 0.021311339 0.008545876 0.015897242
-0.20044227 0.0670219 -0.10844127 0.07079304 0.15377095 0.02702868 0.018751726 -0.01034761
00000000: 7b49 d03d 5c60 b83c a1b6 993c 2ffb 9dbd
00000010: 2a44 94b9 f7ec 81bb 96f8 193e 70e1 3c3d
00000020: 8045 4dbd 12be 333d 889e 213d 87d4 22bc
00000030: 2d03 483c d909 e43b ce3a 913b 86c3 7d3d
00000040: 6e55 f13d 4624 5fbd 8998 b3bd c59c b5bd
00000050: 3451 04bd b5df ccbd f9f9 d13d 93a0 d6bb
00000060: 1107 b33d 5662 013e a7a4 003d 8fbe b3bd
00000070: 431f 51bd ef7c b2bb 101f cd3c 123f bdbc
00000080: c5a6 5a3d 5451 063d d94e 50bc cc93 3abb
00000090: e777 c53d b0ab e2bd b7a7 c83d c3fe 08bd
000000a0: f649 fcbc 37a8 153e 200c c9bc fec2 6abd
000000b0: 626f 333c 4d78 383b d3d7 38bd e96b 4b3e
000000c0: d0a0 5abe 0aed b93c 61a8 2b3c fa1c c93d
000000d0: c39b 983c 45bc 80bd 5cf8 0bbd e075 c03c
000000e0: 969e 043d 8e47 fb3a 2d58 b63d 5d91 513c
000000f0: 3ba7 08bd 0357 6e3d 9fe4 93ba b5b1 53bb
00000100: 123a 17bd 4c1a 803d 60f9 6f3d 6c11 1bbd
00000110: 4f07 183c f72b 1c3c 27c9 6dbe 6f54 11bd
00000120: fe31 00be 981e 06be 7a96 6cbd b739 c83c
00000130: 97df 40bd a2fb 04be 1b0b 803d 704b a53c
00000140: 1a3d 90bc 6ad9 d13b d982 193c 5748 863d
00000150: 161a 973c 32d7 db3c 2fef 893d 7748 8e3c
00000160: 6116 62bd 533e f73c 8da1 febc 4b28 4abe
00000170: 6a2c 99bc 7405 49bb 2b65 463d 372a 203c
00000180: d86f b53c 30d6 513c 35a8 e03d 2bbb 80bd
00000190: 579f 8cbc cfc4 133d c66d 053d 5202 febc
000001a0: 31be 453e a9e7 913c 770e fe3d d106 1abe
000001b0: e385 ae3d 1663 273d f41b 113d 63a3 01bd
000001c0: 2282 9fbd fd37 4ebd 05e4 8bbd c556 813d
000001d0: 15e7 6fbd bfc7 0fbb ef11 493c 43dd b6bd
000001e0: ec87 bcbd 8a10 3a3d 7d80 bfbc 2031 093e
000001f0: 1c46 4b3b 477d 363c ddb2 803d 4b67 3e3c
00000200: 38e8 af3c 9c33 4fbc 336e ae3d 7534 ab3c
00000210: 3aec e5bd aa5c 423d 09c3 73bd e993 c73c
00000220: ca9e 123d 21fd d1bc 9368 dcbc 1de6 81bd
00000230: a13f c23d 5741 123e 29c1 69bc a3ed f0bb
00000240: efde 203d 85cc 1cbe 45cf 14be e490 c7bc
00000250: 15c2 c83d fe0a ba3c 52b2 ad3c 687e b7bc
00000260: 52d1 ad3c d736 bcbb 526d fc3c 08d2 d2bc
00000270: b82e 03bd f93a b0bd 2f52 8cbd ee19 843b
00000280: 1c64 a43d 1d11 eabb 9cd2 fcbc 776d 5f3d
00000290: da40 573c a0f0 7abd 5387 183d 6e40 d13b
000002a0: a457 9abc f763 cfbc 3f05 40bb 1b7e 743d
000002b0: 713d 6a3c 3747 02bd a404 1ebd 4852 f63a
000002c0: a27f 423e 032d e6bb c8c3 b53c ebcb 873d
000002d0: 6b95 433d b12e 8b3d 224a f5bc db9e a0bd
000002e0: 4db7 acbc d6a3 d13b 2474 de3c 0146 a53b
000002f0: 3bf6 0b3d 6f6f c8bc 72de 25bd 840a 1bbd
00000300: b844 543b ddf8 f63c 3637 c13d fbdf bf3c
00000310: 1752 ce3c 8ead 0b3e ee59 9a3c 34e8 9fbc
00000320: 7d54 573c 423a 3abd 90f0 3abc 7e1f 223d
00000330: ac17 ffbd 0f53 1e3d 473a 13be 5deb 463d
00000340: a519 2fbc 5dbf 3b3d ecf2 80bc c63a 863b
00000350: 5121 66bc 6de7 e2ba 693c 4c3a ab4c b03d
00000360: b5c4 883c 5886 b33d 1d7f 8a3b d856 a63d
00000370: e5e6 9f3d 44e7 2abc dc9e eebc 2331 5e3b
00000380: 0f09 253e 31e8 75bc 5ae7 ab3c d87d adbd
00000390: 6a71 a23c 4235 c03d 1191 8e3d 7e16 fcbb
000003a0: 0160 59bd a62f 283d 156a 20be 965e 2b3b
000003b0: ef7e 853d 428e b3bd 5d60 143c fcdc 153d
000003c0: cb74 95bc 166e 1e3b 8fb7 7d3a f3a6 b0be
000003d0: 497a a43c 1e95 ae3c 0004 0c3c ef3a 823c
000003e0: bd40 4dbe c742 893d 7516 debd f1fb 903d
000003f0: 2276 1d3e 406b dd3c 389d 993c 0689 29bc
