trained_probes_truth_twoshot/probe_sae_diff_label_seed_10.pt (torch, 10966 bytes, 1 tensors)

net.weight f4 [1, 2304]
00000000: bc5f a03d 71fa 52bb 49eb de3c ea69 9cbd
00000010: 4648 acba 210e bd3c 5cd2 f53d fa8b 373d
00000020: 060f d6bc 74b7 3f3b c183 1a3d e8c7 c83b
00000030: fa7d e23b 6bbe 753c 13b2 ae3c 081b f23d
00000040: db26 a43d c73a 3bbd e896 c3bd 6d17 9cbd
00000050: 5e24 aebc 6791 d2bd bbd3 493d ca46 e73c
00000060: 5002 723d 96d7 153e d094 573c 0764 babd
00000070: 8325 42bd a57f 1a3d cd29 5939 8410 96bc
00000080: 41cd 933d 195e 023d 7dce 81bc 382a b7ba
00000090: e7a9 2f3e 4716 16be 086f 0f3e 4bcc 6ebc
000000a0: ad7a ffbc f0b3 0f3e 53da b9bd 6112 66bd
000000b0: 0f28 2c3c c66e 8cbb eebc 5fbd 7695 1d3e
000000c0: 48a0 82be d39b 353b 5226 c63c 784e 423e
000000d0: b7b2 ee39 d0bb ffbb e624 b1bc 2a78 173d
000000e0: 3adb 1abd 09d6 4abc ab9a c93d db10 b93c
000000f0: 5190 33bd f62c e43c e590 863c 312a 3a3c
00000100: 60c4 ddbd e73c b93d 041a 573d 42a6 64bd
00000110: 7eb8 fcbc d604 953c 04c3 59be b3b2 1dbd
00000120: b8d9 c3bd 9648 11be 3c4d 86bd 5597 9d3d
00000130: 7855 ecbd b92d 0ebe f01f 2c3d cd94 223c
00000140: e1a6 07bd 3347 88bc f257 5c3c 5976 503e
00000150: 962a 713d 6487 ca3c 9d84 503d 8412 0b3d
00000160: 348f 04bd bd7b 2b3d 06da 65bd 913c 37be
00000170: 582a 99bc c2e2 03bc 217c 7d3c 9447 013c
00000180: 0d1a e53c 36cf 283c cb4d b13d 6126 a1bd
00000190: aace fc39 b63d 0a3d e1f5 0a3d 6af7 babd
000001a0: 7366 5e3e 5abc 8fbc b262 523e 218d 12be
000001b0: a709 2f3e d8b9 933c 8566 263d f815 fbbc
000001c0: 6c54 13bd a19e 7fbc 3cd7 7cbd 01a3 8a3d
000001d0: 5616 a7bd 2906 febc e310 993a 9029 28be
000001e0: 4d25 16bd 0bb6 b73d 56d9 3abd 05c0 b03d
000001f0: 4b01 03bc 17f4 003d 61ff 193d 6165 6d3c
00000200: 26f9 233b 8278 b9bc be91 9f3c 77bc 143d
00000210: 12eb bbbd 49b9 633d 2873 56bd 038e a13c
00000220: 68c6 9d3c 762f 453a bd6a a0bd 6fab 5cbd
00000230: 131b da3d bdc4 163e 9d9e b13b ad28 22bd
00000240: a64c 4d3d f64d 56be f62f 9cbe 4218 2fbc
00000250: cecb b63d bfef dc3b c21e 873c 5161 11bd
00000260: 278d f73c d6c4 183c f81a cd3d 8714 7abd
00000270: 039f a63c 4283 25be 5874 febc 9d04 52bb
00000280: 5404 c93d 9ec6 d0bc ef5c 7f3a eda4 3c3d
00000290: 0a7a 7f3c 5350 65bd ac91 b0bd eaff c9bc
000002a0: b4ee e3bc 236a a73b a601 afba 8fc5 8a3d
000002b0: 1ff8 dfbb 8d53 49bd f89b 11bd 0345 51bc
000002c0: 4b02 723e c9e0 8fbc 514b 593d 39ff 643d
000002d0: 7a09 d63c f70d 663d b5c5 563d 7811 a1bd
000002e0: 0f86 dfbc 324d 1cbb ab7e 0f3d 191c dc3c
000002f0: e03e 853d 586b 34bc 4c31 94bc 1440 0dbd
00000300: e981 8cbc 5bf9 773c 7f92 d53d fe5a 893a
00000310: 7d59 b23d 7486 203e 5dc7 b2bd 3252 a3bc
00000320: bfd0 d4bc 3ceb 66ba c241 77bb 2c6b 303d
00000330: 72fc 8abe 7495 273b 68ad e7bd 8e85 403d
00000340: 1166 c6bc d2ec 373d af39 8cbc daac 703b
00000350: 7111 dcbc 5c5f ebbc 5496 61bc 6dee 0e3e
00000360: dc4f f93c 2594 4d3e d470 40bc 294f 323d
00000370: beb0 b73d 7f9d 7e3c 1332 33bd 2b34 1c3c
00000380: 75b5 193e 3dc7 1cbc 05ee 0c3d 7d50 0bbd
00000390: 9e26 413d 3f57 e03d 4854 363d 9b43 a4bb
000003a0: da46 fabc df0d d53c 4a6a 47be 5d91 f73c
000003b0: 5c26 113e ca9b d0bd bc2a 2f3c d2f9 883c
000003c0: bbe3 17bd 61f3 fd3b 425c 313c 474d 99be
000003d0: 2c69 5b3a d158 433c 7ba8 523d 2100 c93b
000003e0: 6fe2 69be 3ffc d63d b8e2 f4bd f89f 913d
000003f0: 2e3a 6e3e 87ff 2d3d 3b76 3c3d 9b3a 39bb
0.0783076 -0.0032192732 0.027211802 -0.07637389 -0.0013144098 0.023078026 0.120030135 0.044811226
-0.02613021 0.0029253634 0.037723307 0.0061273463 0.00691199 0.014999012 0.021325147 0.11821562
0.080152236 -0.04571035 -0.095502675 -0.076216556 -0.021257576 -0.102816395 0.049274188 0.028231997
0.059084237 0.14633021 0.013158038 -0.0910111 -0.047399055 0.037719388 0.00020710305 -0.018318422
0.072168835 0.03182802 -0.015845532 -0.0013974374 0.17154656 -0.14656936 0.14007199 -0.014575074
-0.031186426 0.14033484 -0.09074845 -0.05616987 0.010507598 -0.004285666 -0.054623537 0.15389046
-0.2551291 0.0027711287 0.024188194 0.18975246 0.0004552805 -0.0078043714 -0.02162404 0.03697983
-0.037806727 -0.0123801315 0.09843954 0.022591045 -0.043838803 0.02785347 0.016426513 0.011362598
-0.10828471 0.09044819 0.052515045 -0.05582262 -0.030849691 0.018190783 -0.21265799 -0.0385005
-0.09563011 -0.14187846 -0.065577 0.0769488 -0.11539739 -0.1388463 0.042022645 0.009923172
-0.033118133 -0.016635513 0.013448702 0.20357646 0.058878504 0.024722762 0.05090772 0.033953205
-0.03236313 0.041866053 -0.056116126 -0.17894198 -0.018696949 -0.008049669 0.015471489 0.007890601
0.027966524 0.010303309 0.08657416 -0.07868648 0.00048219162 0.03375026 0.033925895 -0.09129222
0.21718769 -0.017545868 0.20545462 -0.14311649 0.17093526 0.018032953 0.040625114 -0.030650124
-0.035969183 -0.015601785 -0.0617287 0.06769372 -0.08158557 -0.031008797 0.0011678006 -0.16422105
-0.036656667 0.08970269 -0.045617424 0.08630375 -0.007995914 0.031482782 0.037597064 0.014489503
0.002502033 -0.02264047 0.019478675 0.036312547 -0.091756955 0.055596624 -0.052355915 0.019721037
0.019259647 0.0007522026 -0.07832859 -0.05387443 0.10649695 0.14723487 0.0054205195 -0.039589573
0.050121926 -0.20928177 -0.3050534 -0.010686936 0.089255914 0.006742447 0.016494159 -0.0354932
0.030218674 0.009324273 0.100149095 -0.061054733 0.020339495 -0.16163352 -0.031061336 -0.0032046207
0.09815279 -0.025485333 0.0009741326 0.046055723 0.015593061 -0.055984806 -0.08621535 -0.024658162
-0.027823783 0.005109088 -0.0013351932 0.067759626 -0.0068349983 -0.049151946 -0.035549134 -0.012772801
0.23633687 -0.01756324 0.053050343 0.05590746 0.026127566 0.05616566 0.052434642 -0.0786466
-0.027285604 -0.0023849723 0.03503291 0.026868867 0.06506133 -0.011011921 -0.018089913 -0.034484938
-0.01715179 0.015135135 0.104283325 0.0010479388 0.08708475 0.1567629 -0.08729432 -0.019936655
-0.025978444 -0.00088088564 -0.0037728404 0.043070957 -0.27145725 0.0025571259 -0.113123715 0.047002368
-0.02421859 0.044903584 -0.01711735 0.0036724121 -0.026863785 -0.028731994 -0.013768751 0.1395814
0.030433588 0.20076044 -0.01174565 0.043532524 0.08969258 0.01554048 -0.043748926 0.009533922
0.15010627 -0.0095689865 0.03440668 -0.034012306 0.04715597 0.10954141 0.04451397 -0.005012942
-0.030551363 0.02600759 -0.1947414 0.030220682 0.14174789 -0.101859644 0.010691341 0.016720686
-0.037082415 0.0077499603 0.010825219 -0.2994177 0.0008369859 0.011923031 0.051430207 0.0061340486
-0.22840284 0.10497331 -0.11957306 0.0711059 0.23264381 0.042480018 0.04601119 -0.0028263691
