trained_probes_truth_twoshot/probe_sae_input_label_seed_0.pt (torch, 10966 bytes, 1 tensors)

net.weight f4 [1, 2304]
0.021659408 -0.0038837306 0.009649207 -0.029337186 -0.013621916 0.009040457 0.34863308 0.028609985
-0.016986417 0.02197949 0.0132501805 -0.09176033 -0.11205797 -0.016693218 0.011687715 0.021830041
0.40673783 0.015856016 -0.021235876 -0.05478214 -0.13371965 -0.06192641 0.039601766 0.10455522
0.016267084 0.011482385 0.07984095 -0.015278413 -0.02784784 -0.039548848 -0.00057210843 -0.039141174
0.14487085 -0.0017290715 0.0077390843 -0.013662468 0.12473329 -0.01035917 0.020677056 0.013547119
-0.019576235 0.22005874 -0.21410301 -0.04222168 0.0044516064 -0.02673626 0.013292271 0.031065453
-0.01766426 -0.005944291 0.0314707 0.016214559 0.04547224 -0.004614305 0.06339075 -0.034790453
0.014742215 -0.012648711 0.2731124 -0.015287062 -0.015373115 0.027541641 -0.014166083 0.032574706
-0.025966626 0.021968905 0.0063800085 -0.012320659 0.011555815 0.044742808 -0.050306015 -0.022965832
-0.19519626 -0.0019768607 0.036440805 0.035971925 0.01065626 -0.021727372 0.019173432 0.01165755
-0.031347547 0.009711727 0.08040278 0.36108923 0.018187493 -0.009447536 0.091375 0.09282468
-0.03047467 -0.006038468 -0.01146143 -0.002625276 0.023518998 -0.015608529 -0.024731124 -0.008803132
0.008158341 0.044657085 0.020910418 -0.10381659 0.08871442 0.11804143 -0.012121977 -0.040172577
0.19411314 0.016160779 -0.05523429 -0.16580786 0.030763065 0.019695984 0.058809217 -0.021010913
-0.024762992 0.023084255 -0.0049012746 0.0013987661 -0.025928393 -0.048015885 0.0046319985 -0.008100716
-0.0011978693 0.06828355 -0.050475515 0.021341715 -0.004463151 -0.012632559 0.004006323 -0.0021094368
0.029920237 -0.008023884 -0.00820649 0.013201221 -0.051573083 0.008091434 0.047798295 0.063476846
-0.015696654 -0.092750005 -0.009967973 0.047038518 0.04761225 0.02225669 0.055916425 -0.025075654
-0.020159513 -0.018945718 -0.09941488 -6.4411506e-05 0.32828444 -0.02339875 -0.013790804 -0.037938736
0.042755708 0.022165556 0.022088442 -0.02693233 0.012173091 -0.06624623 -0.21492152 -0.005447489
0.022696756 -0.009288889 -0.032364365 0.09782332 0.08597916 -0.17591697 -0.001155975 0.019786114
-0.025726581 0.010930611 -0.060845308 0.0017041327 0.021137316 0.005636729 0.018678756 -0.005070274
0.18990238 -0.019217925 0.02746603 0.053535167 0.013297098 0.0045023323 -0.0027453464 -0.0034754078
0.0105203735 -0.0345763 0.059943505 0.016341172 -0.015016515 0.0028923922 0.0011518388 0.002026772
-0.020373343 -0.0005106956 0.11030127 0.0037521615 -0.030772364 0.030331448 -0.006865527 0.036376916
0.06672473 -0.0070590065 -0.01896423 0.010705901 -0.16220295 0.027825799 -0.1152642 0.04501686
0.00877332 0.044756822 -0.08843241 -0.02035541 0.0032431956 0.0005503826 0.0075307274 0.09902857
-0.03525583 -0.0033997975 0.011963513 0.04430591 0.026172156 0.03369502 -0.01853473 0.007973992
-0.024732864 0.0025742142 -0.01720981 -0.02001619 -0.0046835407 -0.015636867 0.15316375 0.09311846
-0.009338422 0.060231864 -0.0128496075 -0.014701807 0.039114848 -0.030381877 -0.0023112162 0.013044429
0.017278507 0.012963837 -0.0034309512 -0.02927949 0.00047783976 0.018899405 0.08235683 -0.0051270593
-0.033848733 0.04627896 -0.09121952 0.0097988425 0.042730704 0.018130053 0.061134517 -0.04791678
00000000: 126f b13c 3086 7ebb b517 1e3c 8a54 f0bc
00000010: 752e 5fbc 6d1e 143c 0980 b23e 7d5f ea3c
00000020: 1927 8bbc 550e b43c 4917 593c d7ec bbbd
00000030: a67e e5bd 37c0 88bc d47d 3f3c ead4 b23c
00000040: f13f d03e 7ae4 813c dcf6 adbc 3d63 60bd
00000050: ceed 08be 8ca6 7dbd 7635 223d 0c21 d63d
00000060: 8c42 853c 9d20 3c3c a783 a33d 4f52 7abc
00000070: 2721 e4bc f9fd 21bd 8cf9 15ba 7f52 20bd
00000080: 0659 143e 03a2 e2ba 2598 fd3b 8bd8 5fbc
00000090: 2b74 ff3d 82b9 29bc ee62 a93c bcf4 5d3c
000000a0: 575e a0bc 1457 613e d23d 5bbe a4f0 2cbd
000000b0: c8de 913b 0006 dbbc d3c7 593c fa7c fe3c
000000c0: a3b4 90bc 54c8 c2bb 6ce7 003d 65d4 843c
000000d0: 1941 3a3d 9933 97bb 02d3 813d 6f80 0ebd
000000e0: 5589 713c 8a3c 4fbc 63d5 8b3e 9676 7abc
000000f0: 85df 7bbc 029f e13c dc18 68bc 0e6d 053d
00000100: f6b7 d4bc 22f8 b33c 640f d13b 97dc 49bc
00000110: 9a54 3d3c 3c44 373d ae0d 4ebd d722 bcbc
00000120: 87e1 47be 388e 01bb f442 153d 4c57 133d
00000130: 9897 2e3c 9afd b1bc 9a11 9d3c 4fff 3e3c
00000140: 4966 00bd ef1d 1f3c 36aa a43d b0e0 b83e
00000150: f0fd 943c d7c9 1abc d122 bb3d de1a be3d
00000160: 04a6 f9bc 57de c5bb b9c8 3bbc d30c 2cbb
00000170: eaaa c03c eaba 7fbc ed98 cabc 033b 10bc
00000180: 90aa 053c 59ea 363d 534c ab3c cb9d d4bd
00000190: e8af b53d b5bf f13d 429b 46bc 008c 24bd
000001a0: 98c5 463e 9c63 843c 5a3d 62bd 89c9 29be
000001b0: d302 fc3c 7959 a13c efe1 703d 141f acbc
000001c0: c2db cabc 311b bd3c df9a a0bb cd56 b73a
000001d0: c867 d4bc 4eac 44bd 05c8 973b deb8 04bc
000001e0: d301 9dba 3fd8 8b3d 6abf 4ebd d2d4 ae3c
000001f0: a03f 92bb cbf8 4ebc 7947 833b 7a3e 0abb
00000200: 491b f53c 9c76 03bc 8474 06bc ef49 583c
00000210: 4c3e 53bd ef91 043c 25c8 433d 2600 823d
00000220: 4596 80bc b7f3 bdbd b650 23bc 76ab 403d
00000230: 1005 433d a953 b63c 9f08 653d 756b cdbc
00000240: 9025 a5bc 0d34 9bbc 079a cbbd aa14 87b8
00000250: e614 a83e bcae bfbc d3f2 61bc a665 1bbd
00000260: 9c20 2f3d 8a94 b53c d2f2 b43c 31a1 dcbc
00000270: a571 473c 1aac 87bd 6314 5cbe da80 b2bb
00000280: 8cee b93c 6d30 18bc 7f90 04bd 9857 c83d
00000290: d815 b03d 9423 34be 1684 97ba 7d16 a23c
000002a0: 8dc0 d2bc 4e16 333c ee38 79bd 345d df3a
000002b0: 2a28 ad3c 4fb4 b83b 3104 993c 8b24 a6bb
000002c0: c575 423e e96e 9dbc 7100 e13c b147 5b3d
000002d0: 12dc 593c 4d88 933b 45eb 33bb abc3 63bb
000002e0: a55d 2c3c e19f 0dbd 5287 753d ecdd 853c
000002f0: d407 76bc 4a8e 3d3b 4cf9 963a 97d3 043b
00000300: ffe5 a6bc 34e0 05ba a2e5 e13d d3e6 753b
00000310: 5316 fcbc a879 f83c 37f8 e0bb f6ff 143d
00000320: faa6 883d 3d4f e7bb df5a 9bbc ce67 2f3c
00000330: 8818 26be eef2 e33c a30f ecbd 9963 383d
00000340: f9bd 0f3c ee52 373d 0d1c b5bd 64c0 a6bc
00000350: cb8b 543b 8d47 103a 52c4 f63b 7ecf ca3d
00000360: 6b68 10bd 23cf 5ebb 9c02 443c 1d7a 353d
00000370: fd66 d63c ca03 0a3d 25d6 97bc 59a5 023c
00000380: 939c cabc 26b4 283b 96fb 8cbc fef8 a3bc
00000390: 6378 99bb e318 80bc f5d6 1c3e e4b4 be3d
000003a0: 2e00 19bc b0b5 763d 2987 52bc d9df 70bc
000003b0: e436 203d 6ae3 f8bc c677 17bb 4db8 553c
000003c0: a88b 8d3c 4666 543c cfd9 60bb 8adb efbc
000003d0: 9186 fa39 edd2 9a3c b3aa a83d e400 a8bb
000003e0: f8a4 0abd 028f 3d3d 4dd1 babd 538b 203c
000003f0: 6406 2f3d 7a85 943c 3068 7a3d 6344 44bd
