trained_probes_truth_twoshot/probe_sae_recons_label_seed_11.pt (torch, 10978 bytes, 1 tensors)

net.weight f4 [1, 2304]
-0.0033865708 -0.08879029 0.005578509 -0.003241683 -0.01091843 0.021776266 -0.14295483 -0.0046514324
0.009232306 0.07077179 0.005232076 -0.0050415047 -0.004274933 -0.017962094 0.08044614 -0.014034526
0.059563596 0.11137701 0.018882347 -0.034011927 -0.091332614 0.10483815 0.058883976 0.24543029
0.0074174185 -0.021704203 -0.05182876 0.010228205 0.036154762 -0.011451959 0.048599724 -0.019223662
0.01969917 -0.006671023 0.19507991 -0.048604503 -0.16758986 -0.006637929 -0.00053228566 0.016747568
0.030449072 0.043407537 -0.14028576 -0.053083844 -0.0832082 0.0011340433 0.011103868 -0.056338917
0.018160911 -0.016813144 0.03816201 -0.029357277 -0.027280314 -0.0017919568 0.73846793 0.07019047
0.028241744 0.3723288 0.12822253 -0.20959254 0.022263499 -0.027814029 -0.029203001 0.021046314
-0.0046352046 -0.29114658 -0.029352698 -0.011071188 0.004593137 0.020909706 0.073111475 -0.024881238
-0.00933816 0.02056885 0.08066571 -0.034978162 0.0059996513 0.028882628 -0.002224903 0.1648917
-0.011710038 -0.023854328 0.0802261 0.2755271 -0.014461616 -0.051341448 -0.047098126 0.0025557906
0.073805615 -0.04369025 0.031005466 0.008757256 0.020727899 -0.024720984 -0.32270566 0.022481153
0.037699096 0.009855497 -0.002150965 -0.059746824 0.03487569 0.029671466 -0.17868541 -0.075387985
-0.051228423 0.0022890514 -0.19072042 -0.06487121 -0.032098226 -0.0020499679 0.048988037 0.035941415
0.009579401 0.033651035 -0.024247523 0.03738317 0.033187162 -0.019797979 0.02532993 0.015102897
0.083525345 -0.10033739 0.06166966 -0.004685988 0.03456964 -0.03212933 0.0067797336 0.08584336
0.015549372 0.068682395 -0.0009250902 -0.0028443448 0.12861302 -0.006925522 0.17239004 -0.02018514
0.0097488025 -0.007344397 -0.0119007025 0.027655628 -0.11444726 -0.013514128 0.04736867 -0.027121302
-0.03819789 0.026612634 0.06093805 0.03223365 -0.023490045 -0.1354414 -0.02904982 0.021089256
-0.16591434 -0.0072608767 -0.024307577 0.2515408 -0.0003924907 0.13017555 -0.28006566 0.008640442
0.03494558 0.0030883856 -0.13977493 -0.011805358 -0.007927176 -0.55964476 -0.0012452096 0.0038597893
-0.023076542 0.10267057 -0.033552337 -0.0072274148 0.31022844 0.014980906 0.30407766 -0.01724474
0.08352162 -0.05015698 -0.053225912 -0.11949898 -0.020104595 -0.14130123 0.02188262 0.043553967
0.017984143 -0.0516555 0.020956006 0.12734663 -0.030069403 0.0026577788 -0.027776899 -0.037600607
0.015684584 -0.09005283 0.09208541 -0.17310691 -0.3961556 -0.021993205 0.0038561493 -0.00451409
0.027519254 -0.062689826 -0.0019399845 0.014723627 0.23455857 0.01696174 -0.09928167 -0.1392774
-0.005070959 0.013952838 -0.02355867 -0.17490883 0.021800824 0.0542527 0.18447284 -0.19679986
-0.0004284898 -0.00025835983 -0.048801 0.09889754 0.026464634 0.036782287 -0.04885252 0.02282344
-0.014700943 -0.016238948 -0.027737834 0.24735646 0.010259681 -0.13496801 0.028286647 0.06685329
-0.01980864 0.10672262 0.19533888 -0.041161105 0.026351957 0.010443451 -0.023562592 0.0032968514
0.10811816 0.013079935 -0.009013615 -0.0052947993 -0.10401888 -0.011806601 -0.06752128 -0.0052893683
0.033436995 0.0051468844 0.007059489 -0.0058418913 -0.01234695 0.015530414 0.06924378 -0.09914071
00000000: 3bf1 5dbb afd7 b5bd edcb b63b 6a72 54bb
00000010: 37e3 32bc 2464 b23c c062 12be 0b6b 98bb
00000020: 1943 173c cdf0 903d d671 ab3b 3533 a5bb
00000030: bd14 8cbb 3e25 93bc f2c0 a43d 12f1 65bc
00000040: f5f8 733d a119 e43d 27af 9a3c 1750 0bbd
00000050: 980c bbbd 62b5 d63d 5330 713d 1452 7b3e
00000060: d10d f33b 03cd b1bc 654a 54bd 3394 273c
00000070: 0417 143d ffa0 3bbc 8110 473d f17a 9dbc
00000080: 2760 a13c 9998 dabb 07c3 473e 8415 47bd
00000090: ad9c 2bbe fc82 d9bb 1689 0bba 3232 893c
000000a0: 5570 f93c 1acc 313d 12a7 0fbe 726e 59bd
000000b0: 1069 aabd 2ea4 943a ffec 353c a3c3 66bd
000000c0: 31c6 943c b8bb 89bc c54f 1c3d ac7e f0bc
000000d0: f77a dfbc 18e0 eaba 3c0c 3d3f 05c0 8f3d
000000e0: 3b5b e73c e1a1 be3e c44c 033e 6d9f 56be
000000f0: f161 b63c 3fda e3bc 223b efbc 5269 ac3c
00000100: eae2 97bb 2a11 95be 1275 f0bc ee63 35bc
00000110: 0782 963b d54a ab3c 78bb 953d bdd3 cbbc
00000120: 15ff 18bc 0180 a83c 1034 a53d 4345 0fbd
00000130: b998 c43b 439b ec3c aecf 11bb 5fd9 283e
00000140: 76db 3fbc 276a c3bc 954d a43d e311 8d3e
00000150: 6af0 6cbc 694b 52bd f7e9 40bd 0d7f 273b
00000160: 6627 973d 8cf4 32bd 2dff fd3c 987a 0f3c
00000170: 8ecd a93c a983 cabc ad39 a5be 652a b83c
00000180: 5e6a 1a3d f378 213c 34f7 0cbb 16b9 74bd
00000190: d0d9 0e3d 9311 f33c 4ff9 36be 0465 9abd
000001a0: e5d4 51bd e903 163b 374c 43be 32db 84bd
000001b0: 6e79 03bd c158 06bb aea7 483d 4e37 133d
000001c0: ecf2 1c3c abd5 093d bea2 c6bc 181f 193d
000001d0: 43ef 073d 5f2f a2bc b780 cf3c 2472 773c
000001e0: 560f ab3d b17d cdbd 5399 7c3d eb8c 99bb
000001f0: e598 0d3d 0b9a 03bd 8728 de3b a5ce af3d
00000200: cbc2 7e3c 5ba9 8c3d c181 72ba 3068 3abb
00000210: 22b3 033e 7def e2bb 0487 303e 4f5b a5bc
00000220: 71b9 1f3c 44a9 f0bb 2afb 42bc 0e8e e23c
00000230: 5363 eabd 5c6a 5dbc a705 423d 7e2d debc
00000240: 6475 1cbd bd02 da3c 2d9a 793d 6f07 043d
00000250: 326e c0bc 26b1 0abe e3f9 edbc 60c3 ac3c
00000260: 73e5 29be a6ec edbb af20 c7bc f5c9 803e
00000270: 36c7 cdb9 bd4c 053e c464 8fbe a490 0d3c
00000280: 1923 0f3d 8366 4a3b 2921 0fbe 436b 41bc
00000290: fce0 01bc e144 0fbf 4d36 a3ba 85f4 7c3b
000002a0: 040b bdbc f344 d23d 2d6e 09bd f3d3 ecbb
000002b0: 43d6 9e3e 7972 753c 11b0 9b3e d744 8dbc
000002c0: 620d ab3d 6871 4dbd 6a03 5abd e2bb f4bd
000002d0: 64b2 a4bc 45b1 10be 2e43 b33c a565 323d
000002e0: 7b53 933c b894 53bd eeab ab3c 2867 023e
000002f0: 1c54 f6bc 212e 2e3b 618c e3bc 1803 1abd
00000300: f57c 803c 9e6d b8bd 4797 bc3d f042 31be
00000310: e8d4 cabe 182b b4bc 73b7 7c3b eeea 93bb
00000320: 0f70 e13c 8663 80bd 1447 feba 5e3b 713c
00000330: 1f30 703e 59f3 8a3c 3054 cbbd bc9e 0ebe
00000340: 4a2a a6bb 729a 643c 1dfe c0bc 4d1b 33be
00000350: a497 b23c 1438 5e3d 73e6 3c3e e785 49be
00000360: eda6 e0b9 7874 87b9 8fe3 47bd cb8a ca3d
00000370: 5ccc d83c 06a9 163d 9419 48bd 39f8 ba3c
00000380: 39dc 70bc 8b07 85bc 743a e3bc 034b 7d3e
00000390: 3918 283c 0e35 0abe 66b9 e73c 61ea 883d
000003a0: bb45 a2bc 6491 da3d ea06 483e 8c98 28bd
000003b0: 0fe0 d73c 021b 2b3c 5606 c1bc fd0f 583b
000003c0: 0e6d dd3d 394d 563c d7ad 13bc ff7f adbb
000003d0: da07 d5bd 7970 41bc 9948 8abd 7052 adbb
000003e0: 3bf5 083d 32a7 a83b 4953 e73b 566d bfbb
000003f0: dd4a 4abc 4773 7e3c afcf 8d3d 490a cbbd
