trained_probes_truth_twoshot/probe_sae_diff_label_seed_17.pt (torch, 10966 bytes, 1 tensors)

net.weight f4 [1, 2304]
00000000: ada4 be3d 74ae b93b ce8d 143d c655 8ebd
00000010: 0811 9e3a 1124 0d3d eeee 013e e750 903c
00000020: 7145 08bd 6cd4 2dbc dca2 033c 939d 80bc
00000030: 1fce edbb 93ea 7fbc 8204 a5bb 8405 4e3d
00000040: 1bf0 8f3d 8e52 4cbd a0f3 80bd 5d6a 38bd
00000050: 73b6 78bd 6c81 87bd e5c3 8b3d 7702 e53c
00000060: 009e 713d a6b3 2b3e 462f bd3c cefe 63bd
00000070: 1590 a9bd 8cfd f33c 4bbf b0bc 01ed 7bbc
00000080: f194 3a3d 1cb1 ae3c 48db 1d3c de1a 343c
00000090: e112 043e 22d8 b5bd 48f1 463d 86c4 0bbd
000000a0: 9fbf 4fbd 1842 8f3d 3364 9dbc 0f74 e7bc
000000b0: 338f 473a 272b 0d3c 8cba eabc 132e d53d
000000c0: f263 45be 0001 9e3c ea87 6fbc cf2d 833d
000000d0: fa14 7c3c 3ecf 37bd 9497 08bd 415b 31bb
000000e0: 7df0 153d 3c54 d7bc 0dbd 583d 267f f4bb
000000f0: 3cc6 5fbc 1e22 823c 85ee e93c 98ed c1bb
00000100: 9bca 19be 0be7 f53c e9a4 713c 7af3 6ebd
00000110: aef3 253c 76ea 0abc 697f 3cbe 3289 47bc
00000120: 041f a5bd 06df e9bd 7b2b 05bd d435 db3c
00000130: 22b9 90bd 82e8 d6bd b6c8 153d 7690 39bc
00000140: c017 45bd 2909 d6b9 1c1b 253c 4836 133e
00000150: e0a0 663d 69b0 e93c 2440 7a3d 19d0 ef3c
00000160: 58bd 47bd 8336 4f3d 2420 36bd a5c1 42be
00000170: 201c d0bc d21e e93b de22 c73b 9c3c 733b
00000180: ad5e fbbc c6cd 10bc 6f51 863d 089a 87bd
00000190: cdc8 dc3b 5bd3 623b 421c 1a3c eea9 39bc
000001a0: f89f 343e 37e1 b73c d3b8 083e a86a 06be
000001b0: f002 cb3d 5965 263c 81b4 f8bc 7d06 7fbd
000001c0: da17 e9bd 1114 cabc f4ff 70bd b22f 2b3d
000001d0: 1bf7 0bbd ad0a eebc c9b6 80bc 15b3 81bd
000001e0: 1f1b e8bc 4c79 6a3d 72cf e1bc a786 c23d
000001f0: 09bc e0bc 6119 753c 9046 273d 500a 0fbd
00000200: b528 eb3b b45f 0bbd d505 453d 6324 263c
00000210: c627 93bd 5cbb 3d3d c6bf 9abd 2768 be3c
00000220: 9fac fd3a 26a6 823b 29cf e1bc 497b 27bd
00000230: 3a69 853d bee1 003e 1c75 61bb a2c6 f43c
00000240: 62df 843c a010 03be e139 7fbe 422e d5bc
00000250: 0f3f b83d 6dad 6d3c 96bf 463d d267 12bd
00000260: 3e39 373d f89c ab3b 2f03 9e3d a636 43bd
00000270: b65a 963c 5dc4 10be 0277 18bd 5a82 3a3c
00000280: c9e1 a93d 1d99 3f3c 5dcb 8a3b 61e5 3d3d
00000290: 21dc a23c 9385 ecbc 70da 5bbd f4d0 31bd
000002a0: da71 9fbc 99a3 c1bc 07c6 ffbb 308a 873d
000002b0: 10e1 22bd fc6c e6bc 14c2 23bd 1294 f8bc
000002c0: 1773 443e 0ff7 77bc 058a 2f3d 77a9 113d
000002d0: 9853 993c eb6c d7bb e44f 21bd 67ac c6bd
000002e0: b3ff 043c 7bbb e93c eb8f 0a3c 7381 97bb
000002f0: 51c5 ff3c 6735 cabc 30a8 a3bc c358 25bc
00000300: db88 8d3c f3d4 153d 5dd7 963d 66d5 d63c
00000310: 597b e53d 0e3a f53d 1c40 c3bc c5f1 343c
00000320: 9620 9b3b 995e 04bd 7ba2 953b dda2 2d3d
00000330: bae4 f1bd 9238 9b3d 77a6 f2bd fdda 8f3d
00000340: dee0 31bb ec3f 973c a3d3 e2bc cb73 8a39
00000350: ef00 afbb ec71 59bc 1b67 9abc 6c86 003e
00000360: 6a3f 823c b1a1 f33d e4cf 063c b10d e53c
00000370: 7ee0 db3c d46e 393c 625f 00bd b632 913c
00000380: 0ec9 ff3d 1122 bbbc 9604 6a3c 350a 6cbd
00000390: cb2e 7b3c f0f5 4f3d 71c7 613d 67b5 29bd
000003a0: 8f89 cdbd 62df 303b 89a2 27be 2bab 78bc
000003b0: 0844 683d 9f5c 7bbd ce5c 9c3b 0a46 443c
000003c0: 663e cabb 330d 58bb b43d 03bb c15a a3be
000003d0: 9fda 82bc 2f6a 0bbc 74a5 483d 9f41 f53c
000003e0: 817b 1bbe cda0 f63c 0a0f c0bd 3a41 003e
000003f0: 6984 233e 570d 4b3d 2894 a43c 046f 4bbd
0.09308753 0.0056665484 0.036268048 -0.06949954 0.0012059519 0.034458224 0.126888 0.017616702
-0.03326935 -0.010609727 0.008034434 -0.015700137 -0.0072572376 -0.015619892 -0.0050359378 0.05029823
0.07028218 -0.049883418 -0.06296468 -0.04502331 -0.060720872 -0.06616482 0.06824473 0.027955277
0.05898857 0.16767749 0.02309383 -0.055662923 -0.082794346 0.029783987 -0.02157559 -0.01537633
0.045552198 0.021324687 0.0096348 0.010992734 0.12897827 -0.08879115 0.048569947 -0.034122966
-0.050719853 0.06995028 -0.019212818 -0.028253583 0.0007612586 0.008616245 -0.028653406 0.104091786
-0.19276407 0.019287586 -0.014619807 0.06405222 0.015385861 -0.044875376 -0.03334768 -0.0027062448
0.0366063 -0.026285283 0.052914668 -0.0074614463 -0.013658103 0.015885409 0.028556118 -0.005918216
-0.15018694 0.030017396 0.01474879 -0.058337666 0.010128899 -0.008478751 -0.18407978 -0.012178706
-0.080625564 -0.114194915 -0.03251217 0.026759066 -0.07066561 -0.10493566 0.036568366 -0.011325946
-0.048118353 -0.00040824086 0.010077264 0.14376175 0.056305766 0.028526502 0.061096326 0.029274033
-0.048764557 0.050589096 -0.044464245 -0.19019182 -0.025404036 0.00711427 0.0060771545 0.0037114983
-0.030684793 -0.008838123 0.06558501 -0.06621176 0.0067378045 0.003461084 0.009406151 -0.011332018
0.17639148 0.022446258 0.13351755 -0.13126624 0.0991267 0.010155999 -0.030359508 -0.062262047
-0.113815024 -0.024667772 -0.058837846 0.041793533 -0.034171205 -0.029057825 -0.015712159 -0.06332985
-0.028333245 0.057244584 -0.027564738 0.09498339 -0.027433412 0.014959664 0.040838778 -0.034921944
0.0071764835 -0.034026816 0.048101265 0.010140511 -0.071853206 0.046321258 -0.07556109 0.023243023
0.0019353813 0.0039870916 -0.027564602 -0.04088906 0.06514211 0.12586114 -0.0034402078 0.029879872
0.016219798 -0.1279931 -0.24924423 -0.026023034 0.089964025 0.01450668 0.048522554 -0.035743542
0.044732325 0.005237218 0.07715451 -0.04765954 0.018353801 -0.14137407 -0.03722287 0.011383617
0.08295018 0.01169422 0.0042356686 0.04636133 0.019880356 -0.028872287 -0.053675115 -0.043412164
-0.019463468 -0.02363758 -0.007805589 0.06618154 -0.039765418 -0.02812814 -0.03998001 -0.030344043
0.19184528 -0.015134587 0.042856235 0.035562005 0.018716618 -0.0065742633 -0.03938283 -0.09700852
0.008117604 0.02853178 0.008457164 -0.004623586 0.031222017 -0.024683667 -0.019977659 -0.010091963
0.017277172 0.036580037 0.07365296 0.026224803 0.11205167 0.11973964 -0.02383428 0.0110439705
0.004734109 -0.032316778 0.0045664883 0.042391647 -0.11811204 0.07579149 -0.11848157 0.070241906
-0.0027142088 0.018463098 -0.027688807 0.00026407684 -0.0053406875 -0.01327179 -0.018847993 0.12551278
0.015899379 0.118960746 0.008228276 0.02796063 0.026840445 0.011317927 -0.031340964 0.017724376
0.1248952 -0.022843393 0.01428332 -0.05762692 0.0153309805 0.050771654 0.055121843 -0.041432764
-0.10036003 0.0026988615 -0.16370596 -0.015177528 0.056705505 -0.061367627 0.0047718054 0.011979589
-0.0061719893 -0.0032966852 -0.0020025792 -0.31905177 -0.015973387 -0.008509203 0.048985913 0.029938517
-0.15183832 0.030105973 -0.093778685 0.12524882 0.15968479 0.04957327 0.020090178 -0.04966642
