trained_probes_truth_twoshot/probe_sae_recons_label_seed_19.pt (torch, 10978 bytes, 1 tensors)

net.weight f4 [1, 2304]
0	0x3cbac80a	0.022800464
1	0xbd6978cb	-0.056999963
2	0xbc9173ce	-0.017755415
3	0x3c885ba5	0.016645262
4	0xbcbd848c	-0.023134492
5	0xbc6fe229	-0.014641323
6	0xbddfcc54	-0.10927644
7	0xbc4a664a	-0.012353489
8	0x3caac059	0.020843672
9	0x3d0bec86	0.034161113
10	0x3b158a36	0.0022817976
11	0xbcd650ec	-0.026161633
12	0xbcd877cd	-0.026424313
13	0xbcd55a57	-0.026044054
14	0x3d8125fb	0.06306072
15	0xbccf5aff	-0.025311945
16	0x3d6fe4f6	0.058567964
17	0x3d92eacc	0.0717369
18	0x3c729222	0.014805349
19	0xbd09c1e2	-0.033632167
20	0xbdce2636	-0.10065882
21	0x3d14adb6	0.036298476
22	0x3d27fe91	0.041014258
23	0x3e251b76	0.16123757
24	0x3ae09eb1	0.0017137137
25	0xbc867ca0	-0.016416848
26	0xbb851166	-0.004060912
27	0x3c962715	0.018329183
28	0x3d0f151a	0.034932233
29	0xbbe6a679	-0.007038888
30	0x3d4fbae5	0.050715346
31	0x3c81838e	0.0158098
32	0x3cc46054	0.023971714
33	0x3c8e157d	0.01734423
34	0x3dfb9a79	0.12285323
35	0xbd2ee6b4	-0.042700484
36	0xbe3083d0	-0.17237782
37	0xbb46a91d	-0.0030313202
38	0xbc3e4122	-0.011612209
39	0x3d069e08	0.032865554
40	0x3d083164	0.033250228
41	0x3cddbc82	0.027067427
42	0xbe11e6f4	-0.14248258
43	0xbd1677b4	-0.03673525
44	0xbd9f49ea	-0.0777777
45	0xba786b7d	-0.0009476466
46	0x3c486ae8	0.01223252
47	0xbd854aeb	-0.0650843
48	0x3c5d9e30	0.013526484
49	0xbcb1cd93	-0.02170447
50	0x3cae94c0	0.021311164
51	0xbce600ae	-0.028076496
52	0xbc651e37	-0.013984255
53	0xbc128d98	-0.008944891
54	0x3ef91972	0.48652226
55	0x3ccf15fb	0.025279036
56	0x3c8edc7e	0.017439123
57	0x3e7f1f99	0.24914397
58	0x3dbd5c18	0.09246081
59	0xbe333e24	-0.17504174
60	0x3b639732	0.003472757
61	0x3ce7ac57	0.02828042
62	0xbbbd5883	-0.0057783737
63	0x3ccec81f	0.02524191
64	0xbcc6a7f8	-0.024250016
65	0xbe734a95	-0.2375892
66	0x3b186cce	0.0023258212
67	0xbc0accd4	-0.008471686
68	0x3c859c53	0.016309893
69	0x3c427ced	0.011870605
70	0x3cdc1366	0.026864719
71	0xbc707748	-0.014676876
72	0x3aba7815	0.0014226461
73	0x3c6dad3c	0.014506634
74	0x3d6a7abb	0.05724595
75	0x3bfde819	0.0077486155
76	0x3aafd6b8	0.0013415432
77	0x3c8a5c8d	0.016889835
78	0xbd053eb9	-0.03253052
79	0x3e05a542	0.13051322
80	0xbc71bcd5	-0.014754494
81	0xbca31fbd	-0.019912595
82	0x3d854500	0.06507301
83	0x3e5ea705	0.217434
84	0xbcab08a8	-0.020878151
85	0xbd5c6260	-0.053804755
86	0xbd199ebc	-0.037504897
87	0x3cb0a43c	0.021562688
88	0x3da4cb86	0.080466315
89	0xbd07b1e6	-0.03312864
90	0x3c74bf93	0.014938253
91	0x3c83097f	0.015995739
92	0x3cb33140	0.02187407
93	0xbc8c39ab	-0.017117342
94	0xbe62a268	-0.22132266
95	0x3c6b5a9e	0.014364867
96	0x3ba17d20	0.004928246
97	0x3cbba5e1	0.022906246
98	0xbc40c0a9	-0.011764684
99	0xbd75663b	-0.059911948
100	0x3d245370	0.040118635
101	0x3d1d0a6f	0.03834003
102	0xbe0dc0f3	-0.13843136
103	0xbd43418b	-0.04766993
104	0xbcf9d5fd	-0.030497545
105	0x3c52caae	0.012865705
106	0xbe084be9	-0.13310207
107	0xbd0d2dd2	-0.034467526
108	0xbcba1fc8	-0.022720233
109	0x3c98be4f	0.018645434
110	0x3d54b3ac	0.05192916
111	0xbc1d6401	-0.009606362
112	0x3c6da1e4	0.01450393
113	0x3bec54f5	0.007212276
114	0xbcb0b4d9	-0.02157061
115	0x3c902489	0.017595546
116	0x3d053b02	0.032526977
117	0xbd00ae36	-0.03141614
118	0xbb93c401	-0.0045094495
119	0x3cab5cee	0.020918336
120	0x3dd93d14	0.10607353
121	0xbdac68c1	-0.08418418
122	0x3d8882db	0.06665584
123	0xbc47f765	-0.01220498
124	0x3cd26e1f	0.025687275
125	0xbc4c224c	-0.012459349
126	0x3bc23591	0.005926796
127	0x3da8a338	0.082342565
128	0x3d07fa52	0.03319771
129	0x3d3cdc98	0.046108812
130	0xbb80884a	-0.003922497
131	0xbc00c57c	-0.007859584
132	0x3dc0cd99	0.09414215
133	0xbb11c4e2	-0.0022242595
134	0x3e20b5b4	0.15694314
135	0xbb8ead37	-0.004354145
136	0xbb51dc46	-0.0032022162
137	0x3c5d7251	0.013516025
138	0x3c4ef9ff	0.012632846
139	0x3ce9e22a	0.028550226
140	0xbdbbda70	-0.09172523
141	0xbc707047	-0.0146752065
142	0x3c055bb6	0.008139541
143	0xbca8ce09	-0.020606058
144	0xbcc07c11	-0.02349666
145	0x3d38c56c	0.04511015
146	0x3d831922	0.06401278
147	0x3b6db9fd	0.0036274188
148	0xbd7b543b	-0.061359625
149	0xbdaafe83	-0.083493255
150	0xbc7b1d43	-0.015326801
151	0xbc8957b3	-0.016765451
152	0xbdcf2ca7	-0.10115939
153	0xbc53a175	-0.012916912
154	0x3bf25664	0.0073955525
155	0x3db96e69	0.09054262
156	0xbcd4b782	-0.02596641
157	0x3dd39da2	0.103328004
158	0xbe6cd7f2	-0.23129252
159	0x3ce37233	0.027764415
160	0x3ce9aca2	0.0285247
161	0x3c4e5a79	0.012594813
162	0xbda4bb54	-0.080435425
163	0xbd006b45	-0.0313523
164	0x39f33bc4	0.000463931
165	0xbecb5283	-0.3971139
166	0x3ba27c14	0.004958639
167	0x3cb440dd	0.022003585
168	0x3c299c64	0.010352228
169	0x3d87a1c6	0.06622653
170	0x3ae49d0d	0.0017441824
171	0xbbe0e91a	-0.0068637254
172	0x3e9a031e	0.30080503
173	0xbb33c06f	-0.0027427932
174	0x3e50d86a	0.20395055
175	0xbbf69538	-0.0075251125
176	0x3da0da6b	0.0785416
177	0xbd2f4b67	-0.04279652
178	0xbcf848a8	-0.030308083
179	0xbda2bff2	-0.07946767
180	0xbca74707	-0.02041961
181	0xbdf2f5e3	-0.118633054
182	0x3c936056	0.017990272
183	0x3c118ebb	0.008884127
184	0x3b404704	0.0029339204
185	0xbce8bac5	-0.028409371
186	0x3ba2d61f	0.004969373
187	0x3e349dfe	0.17638394
188	0xbd237b43	-0.039912473
189	0xbc9b041b	-0.018922856
190	0xbb24f464	-0.0025170082
191	0xbce800c8	-0.028320685
192	0x3c61ea03	0.013788703
193	0xbd6d41b5	-0.05792399
194	0x3cd9ae85	0.026572475
195	0xbdf161f1	-0.11786259
196	0xbe982b89	-0.29720715
197	0xba642fb3	-0.00087046175
198	0xbcabd9bb	-0.020977845
199	0xbc9a4cbf	-0.018835424
200	0x3aefb730	0.0018288847
201	0xbd3b9149	-0.04579285
202	0xbd05f239	-0.032701705
203	0xbb2e93ea	-0.0026638457
204	0x3e1e0f14	0.1543544
205	0x3c224ef0	0.0099065155
206	0xbd847f22	-0.06469561
207	0xbd8de7ed	-0.06929002
208	0x3c8fc748	0.01755108
209	0x3a8f11df	0.001091536
210	0xbc84a00b	-0.016189596
211	0xbe30c785	-0.1726361
212	0x39ae99e9	0.00033302538
213	0x3cf66ec3	0.030082112
214	0x3deddefc	0.116147965
215	0xbe2706d3	-0.16311197
216	0x39b1ee8c	0.00033937802
217	0x3c56ef3e	0.013118563
218	0xbd3664c6	-0.0445297
219	0x3d894d17	0.06704157
220	0x3befb68a	0.0073154615
221	0x3ced34ba	0.028955806
222	0xbd0c6df2	-0.03428454
223	0x3d3fe15c	0.04684578
224	0xbd2e9209	-0.04261974
225	0xbb9d2a6d	-0.0047963173
226	0xbc890483	-0.016725784
227	0x3e2a1ad0	0.1661179
228	0xba2e21dd	-0.0006642619
229	0xbdb4c8d8	-0.088273704
230	0x3cc01b72	0.023450587
231	0x3d06d0fa	0.03291414
232	0xbc00cdc2	-0.0078615565
233	0x3dd033ad	0.101661064
234	0x3e1607d7	0.14651428
235	0xbd71145c	-0.058857307
236	0x3c522e6d	0.012828452
237	0xbc2b42e5	-0.010452961
238	0xbc35586a	-0.011068443
239	0x3bc9dc3c	0.006160287
240	0x3d8e8a0f	0.06959926
241	0xbc633828	-0.013868369
242	0x3c67bbb3	0.014143872
243	0x3bfb816a	0.0076753395
244	0xbde6c18d	-0.11267386
245	0xbcbfa010	-0.023391753
246	0xbcceaa2a	-0.025227625
247	0xbbe24b30	-0.0069059357
248	0x3ce1153e	0.02747595
249	0x3a324e26	0.0006801806
250	0x3bfd8314	0.007736573
251	0xbc2be814	-0.010492343
252	0xbc984b3f	-0.018590568
253	0xbb873ed9	-0.004127365
254	0x3d295c67	0.041347887
255	0xbd82768d	-0.06370268
