trained_probes_truth_twoshot/probe_sae_recons_label_seed_17.pt (torch, 10978 bytes, 1 tensors)

net.weight f4 [1, 2304]
0	0xbb4c988c	-0.0031218855
1	0xbce42b9e	-0.02785283
2	0xba85d218	-0.0010209708
3	0xbb6a23fe	-0.003572702
4	0xbd4d9825	-0.050193924
5	0x3c0653b8	0.008198671
6	0xbe3e929f	-0.18610619
7	0x3c50ffbc	0.012756284
8	0x3a73697c	0.0009285433
9	0x3bc1b0cd	0.005910969
10	0xbb5da1ae	-0.0033818292
11	0xbce0a9e4	-0.02742476
12	0xbc4477bf	-0.01199144
13	0xbcb8ed19	-0.022573994
14	0x3d844ddf	0.06460165
15	0xbc82c63c	-0.015963666
16	0x3d53e278	0.05172965
17	0x3d8a6756	0.06757991
18	0x3c0cbc1d	0.008589772
19	0xbd29b891	-0.041435782
20	0xbdf6786c	-0.120346874
21	0x3d2fd13c	0.04292415
22	0x3d25913f	0.04042172
23	0x3e2cc6db	0.16872732
24	0xbc9efe8a	-0.019408483
25	0x3c07b6b1	0.008283303
26	0xbcc9a1c1	-0.024613263
27	0xbb00fd99	-0.0019682406
28	0x3d342127	0.04397693
29	0xbae99bad	-0.0017822884
30	0x3c790531	0.015198992
31	0x3bb654d8	0.0055643134
32	0x3ae46bfd	0.0017427203
33	0xbb735fc2	-0.0037135934
34	0x3e4461e3	0.19177966
35	0xbd0bca8f	-0.03412872
36	0xbe56c104	-0.20972067
37	0x3c10a42d	0.008828205
38	0xbad1b256	-0.0015998583
39	0x3c06c280	0.008225083
40	0x3ccf70e7	0.02532239
41	0x3c93b43e	0.018030282
42	0xbdd9425f	-0.106083624
43	0xbd1f77ce	-0.038932614
44	0xbd489d9b	-0.04897843
45	0x3cd4ac80	0.02596116
46	0x3cc8c306	0.024507057
47	0xbd56b34b	-0.05241708
48	0xb9d2201e	-0.0004007825
49	0x3c32cbbf	0.010912835
50	0x3c1e54e2	0.009663792
51	0xbc470050	-0.012146071
52	0xbcad971c	-0.021190219
53	0xbb75c6a7	-0.003750244
54	0x3f023d89	0.50875145
55	0x3ca287b7	0.019840105
56	0x3d4c5e26	0.049894474
57	0x3e7792a6	0.24177036
58	0x3e072ea2	0.13201383
59	0xbe27dd28	-0.16392958
60	0x3b99c71d	0.0046929256
61	0xbd07aadf	-0.03312194
62	0x3c10059b	0.008790399
63	0x3c23bf7f	0.009994387
64	0xbca0d0a5	-0.01963074
65	0xbe8e8cf6	-0.2784192
66	0xbd0943a6	-0.03351178
67	0xbcb6dd70	-0.022322387
68	0x3bb6b6c7	0.005575988
69	0x3b281a13	0.0025650307
70	0x3d2e8d48	0.042615205
71	0x3b2c11e9	0.0026255792
72	0xbcba03f6	-0.022706967
73	0xbbb066e1	-0.005383358
74	0x3d9eb932	0.07750167
75	0xbcbbd4bd	-0.02292859
76	0x3cd476e4	0.025935598
77	0x3d15bb32	0.036555476
78	0xbcdf25f7	-0.027239783
79	0x3dd651e6	0.1046484
80	0xbcbeb35a	-0.02327888
81	0x3c75772c	0.014982026
82	0x3db467bd	0.08808849
83	0x3e43280e	0.19058248
84	0xbd0a67d1	-0.033790413
85	0xbd992691	-0.07478059
86	0xbd3fc215	-0.04681595
87	0x3cc44785	0.023959884
88	0x3d7f5a2e	0.06234186
89	0xbce20729	-0.027591305
90	0x3cec9281	0.028878452
91	0x3c4adc0a	0.012381563
92	0x3ce6787d	0.028133625
93	0xbc7fb3fe	-0.015606878
94	0xbe5fc988	-0.21854222
95	0xba37ff0c	-0.0007018901
96	0x3cf1b611	0.029505761
97	0x3c0ca118	0.00858333
98	0xbc7fe52d	-0.015618605
99	0xbd940646	-0.07227759
100	0x3c7a83f5	0.01529025
101	0x3b775024	0.0037736977
102	0xbe0db77f	-0.1383953
103	0xbdd34fe9	-0.10317976
104	0xbcb1d7b1	-0.021709295
105	0x3c76deae	0.015067739
106	0xbe0a9cc5	-0.13536365
107	0xbd1f52da	-0.038897373
108	0xbd546dad	-0.051862407
109	0xba80260f	-0.0009776967
110	0x3d6b030b	0.05737595
111	0xbc475968	-0.012167312
112	0x3c88b46c	0.016687594
113	0xba26390a	-0.0006340897
114	0xbcd7ef40	-0.0263592
115	0x3d13b5ab	0.036061924
116	0x3cfc6d82	0.030813936
117	0xbd19d5a2	-0.03755725
118	0xbc9ddc82	-0.019270185
119	0xbb9e3949	-0.0048286063
120	0x3dab749a	0.08371849
121	0xbdcbf743	-0.09959271
122	0x3d3cc78a	0.046088733
123	0xbc53eff3	-0.012935626
124	0x3d05fa12	0.03270919
125	0xbc8a2de1	-0.01686758
126	0xbc4520d5	-0.012031754
127	0x3dd3d423	0.10343196
128	0x3c70c9b5	0.014696528
129	0x3d448626	0.047979496
130	0xbce5e417	-0.028062863
131	0xbd021ce8	-0.03176585
132	0x3e094ead	0.13408919
133	0xbcef8114	-0.029236354
134	0x3e58915c	0.211492
135	0x3aac960c	0.0013167276
136	0xbc0c4113	-0.008560437
137	0x3c7474cb	0.014920424
138	0x3b9d646e	0.004803232
139	0x3d41e9ce	0.047342114
140	0xbdff8bd6	-0.124778435
141	0xbceb0a32	-0.028691385
142	0x3ca0223e	0.019547578
143	0xbcda3178	-0.026634917
144	0xbcaa2b41	-0.020772578
145	0x3d5dba3d	0.05413269
146	0x3d5e4af9	0.05427072
147	0x3c6fda67	0.0146394735
148	0xbd94dd01	-0.07268716
149	0xbdb4b6bf	-0.088239186
150	0xbc97fb14	-0.01855234
151	0x3c518d7c	0.01279008
152	0xbe035968	-0.12827075
153	0xbc9d31d6	-0.019188803
154	0xbc8137b6	-0.015773635
155	0x3e4020b6	0.18762478
156	0xbab08c34	-0.0013469518
157	0x3e054b54	0.13017017
158	0xbe818ced	-0.2530283
159	0x3c109713	0.008825081
160	0xbb87ffd5	-0.0041503706
161	0xbc9125d8	-0.01771824
162	0xbdbc2e2b	-0.09188493
163	0xbb86b4b5	-0.0041108974
164	0xba320ee5	-0.00067923806
165	0xbec79f46	-0.38988703
166	0x3ba359e6	0.004985082
167	0xbb597161	-0.0033179151
168	0xbc685808	-0.014181145
169	0x3d85537a	0.065100625
170	0xb947f441	-0.0001906911
171	0xbbe88855	-0.00709633
172	0x3e8eef49	0.27916935
173	0x3c0f685b	0.008752908
174	0x3e8ad7c6	0.27117747
175	0xbd2917dc	-0.04128252
176	0x3da939c4	0.08262971
177	0xbd6a3a8c	-0.05718474
178	0xbc93c0e1	-0.018036308
179	0xbdb7125e	-0.0893905
180	0xbd6ea99a	-0.058267213
181	0xbe2b3e67	-0.16723023
182	0x3d1d0e8c	0.03834395
183	0x3cdd694c	0.027027749
184	0x3d01d398	0.031695932
185	0xbd4ceedf	-0.050032493
186	0x3c48a32f	0.012245937
187	0x3e1061bf	0.14099787
188	0xbccd7fd9	-0.025085377
189	0x3c80875b	0.015689543
190	0xbc8d6c0c	-0.017263435
191	0x39ab86b0	0.00032716012
192	0x3cff7243	0.031182414
193	0xbdc7a36c	-0.09747967
194	0x3da095ca	0.0784107
195	0xbdfa8dc9	-0.122340746
196	0xbe9cf44d	-0.30655137
197	0x3bd69ffd	0.006549834
198	0x3cb782a8	0.022401169
199	0x3ca4173a	0.020030607
200	0x3d151de3	0.036405455
201	0xbd96274e	-0.073317155
202	0x3c13a55b	0.009011592
203	0x3cfe680d	0.031055475
204	0x3e0df11c	0.13861507
205	0x3b3f7b5a	0.002921781
206	0xbd50df2a	-0.050994076
207	0xbdc77b39	-0.097403
208	0x3cb98910	0.022648364
209	0xb9df9e70	-0.0004265192
210	0xbc5b7fa7	-0.013397134
211	0xbe3140d8	-0.17309892
212	0x3cf83ecc	0.030303381
213	0x3d2a8353	0.041629147
214	0x3e193d32	0.1496475
215	0xbe2e7509	-0.17036833
216	0x3af8001c	0.0018920931
217	0x3c67e8bb	0.014154608
218	0xbd2cc6d0	-0.04218179
219	0x3dcd6043	0.10028126
220	0x3cde5b9e	0.027143296
221	0x3c96810c	0.018372081
222	0xbd423d55	-0.047421772
223	0x3d1df4eb	0.03856365
224	0xbcfdf0ba	-0.030998576
225	0xbc8a00c1	-0.016846063
226	0xbb81921d	-0.0039541856
227	0x3e4af9f2	0.19821909
228	0x3c74ae38	0.014934115
229	0xbe15cd39	-0.14629067
230	0xb9ecc7b9	-0.00045162233
231	0x3c7c96ce	0.015416814
232	0xbcf53014	-0.029930152
233	0x3d9edce1	0.07756973
234	0x3e5ab3f4	0.21357709
235	0xbd96f20c	-0.073703855
236	0x3c38c2a0	0.011276871
237	0x3cac1b03	0.021008974
238	0xbc92a118	-0.017899081
239	0x3cdecd28	0.027197435
240	0x3e2607ff	0.16213988
241	0xbc258291	-0.01010193
242	0x3afef8e1	0.0019452834
243	0xbccddde0	-0.025130212
244	0xbdf58919	-0.1198904
245	0xbc6d4e6c	-0.014484029
246	0xbce6712a	-0.028130133
247	0x3ccf7f70	0.025329322
248	0x3d17da0c	0.03707318
249	0xbc85840e	-0.01629832
250	0xbbf33d81	-0.0074231033
251	0xbc33b57d	-0.010968563
252	0xbccb5338	-0.024819955
253	0xbc218145	-0.00985748
254	0x3d2233c9	0.039600167
255	0xbdad2b86	-0.08455567
