trained_probes_truth_twoshot/probe_sae_diff_label_seed_3.pt (torch, 10960 bytes, 1 tensors)

net.weight f4 [1, 2304]
000000 09 36 c3 3d 86 83 12 bc f5 d1 e7 3c e4 43 af bd
       0.09531791 -0.00894249 0.028298358 -0.08557871
000010 71 be 67 bc e1 b1 71 3d bd 76 12 3e 41 a4 f1 3c
       -0.014144526 0.05900753 0.14303108 0.029497268
000020 38 37 14 bd 8f 99 0c 3d 5c 9e b8 3c 5f c2 5e 3c
       -0.036185473 0.034326132 0.02253645 0.013596146
000030 69 7d f0 bc 53 3e 00 bc 59 b1 02 bd 80 f9 9c 3d
       -0.029356675 -0.007827359 -0.031907413 0.07664776
000040 15 50 80 3d 28 9b 19 bd 6f 8a ce bd 55 a1 62 bc
       0.062652744 -0.037501484 -0.10084998 -0.01383241
000050 2e fe 82 bc 13 df c3 bd 74 ba 09 3e c1 99 1c 3d
       -0.015990343 -0.095640324 0.13450032 0.03823257
000060 8d 66 00 3d ca 50 1f 3e 6d ef b8 3c d0 67 dc bd
       0.0313478 0.15558162 0.022575105 -0.10761988
000070 de 8b 9f bd bf 04 41 3b a6 0f 0f bc c3 91 b2 bc
       -0.077903494 0.0029452292 -0.008731758 -0.02179802
000080 c1 25 47 3d 24 64 00 3a 21 d5 f7 bc cd b4 94 bc
       0.04861999 0.00048977346 -0.030252995 -0.018152619
000090 5a c2 d4 3d f7 92 43 be a3 59 e3 3d e4 c0 71 bd
       0.10388632 -0.19099031 0.11101081 -0.059021845
0000a0 e1 98 0b bd e2 ec 12 3e 35 19 7f bc fc d0 46 bd
       -0.034081344 0.14348176 -0.015569975 -0.048539147
0000b0 b3 d6 e9 3c c2 54 bf bb 25 3e 9b bd 3c 88 37 3e
       0.02854476 -0.0058389613 -0.075802125 0.17923063
0000c0 58 b1 8b be e2 35 22 3d 83 16 08 3d 51 60 97 3d
       -0.2728374 0.039602168 0.033224594 0.07391418
0000d0 c8 a4 8c 3c cf 0c c4 bb cb b7 09 bc e2 91 1b 3d
       0.017168418 -0.005982972 -0.008405636 0.03798092
0000e0 c5 cb 45 3d 10 9d 55 ba 7f 91 9f 3d f2 10 e5 bb
       0.048290033 -0.00081487093 0.07791423 -0.0069905454
0000f0 06 18 2d bc 4f 74 23 3d 08 1c be bb d8 4c 6f 3b
       -0.01056481 0.039905842 -0.0058016814 0.0036514308
000100 2d c7 2d be da 5f 50 3d 38 e8 71 3c c7 04 ad bd
       -0.16970511 0.05087266 0.014764838 -0.08448177
000110 e4 e7 a5 3b 37 c1 f6 3b 30 d9 67 be aa db 8d bc
       0.005063044 0.007530357 -0.22641444 -0.017316658
000120 7b ac a3 bd 7f 58 b5 bd 07 f6 8a bc 6c 7a 42 3c
       -0.079918824 -0.0885477 -0.016963018 0.011870008
000130 de 07 16 be 86 08 e1 bc 80 45 a5 3d 59 71 64 3d
       -0.14651439 -0.027469885 0.08069897 0.05577216
000140 ca 37 3e bd 0b 6d a9 bc 5a 36 86 bc c7 cb 88 3d
       -0.046439923 -0.020681879 -0.016383339 0.066794924
000150 b5 ca 2c 3d dc 88 4d 3c 14 6f 46 3d 3f ca 58 3c
       0.042185504 0.012544837 0.048445776 0.013231813
000160 24 aa a9 bc e9 a4 27 3d 2a a9 5e bd 99 e1 87 be
       -0.020711012 0.040928755 -0.054360546 -0.26539305
000170 8f 1d 20 bd 00 62 ef 3c 29 47 06 3d b8 79 31 3c
       -0.03909069 0.029221535 0.032782707 0.010832243
000180 a7 64 c4 bc 57 4d 42 3c a8 b7 8c 3d fb 52 ba bd
       -0.023973776 0.01185926 0.06870967 -0.090978585
000190 08 47 b1 3a 6e e8 ed 3c e1 80 ce 3c 96 9a ae bd
       0.0013525197 0.029041495 0.025207939 -0.08525579
0001a0 fc 02 0c 3e d4 cf a2 bc 81 84 f5 3d bf a7 25 be
       0.13673013 -0.01987449 0.11988164 -0.16177271
0001b0 ff 4a 8d 3d 29 72 06 3d 80 ff 4e 3d 24 4b 9f bc
       0.0689907 0.032823715 0.050536633 -0.01944501
0001c0 2a 5c df bd 20 64 28 bd d3 b7 93 bd e1 d1 f7 3c
       -0.10906251 -0.04111111 -0.07212796 0.030251445
0001d0 33 ee 99 bc 1c 22 66 bc c2 32 05 bc fd 98 70 bd
       -0.01879034 -0.014046218 -0.008129777 -0.05873965
0001e0 16 2a 81 bd 9c 91 1f 3d 25 a8 5c bd 61 b8 10 3e
       -0.063068554 0.038957223 -0.053871293 0.14132835
0001f0 23 a0 92 b9 6a 19 f8 bc c5 3c 0b 3d 2f 92 ea bb
       -0.000279666 -0.030285556 0.0339935 -0.0071585397
000200 29 8f 66 3c 17 c7 51 bd a8 b0 88 3d 99 42 ad 3c
       0.014072218 -0.051215257 0.066743195 0.02114992
000210 51 c0 91 bd f6 f6 5c 3d 0b 8e 24 be ee 41 09 3d
       -0.071167596 0.053946458 -0.1606981 0.03351014
000220 05 84 4d 3c 32 01 92 bc 63 9f 9f 3a b3 5c 58 bd
       0.012543683 -0.017822836 0.0012178238 -0.05282278
000230 c3 45 a0 3d 2e 00 0d 3e 40 1a 0f 3b ef c6 be 3c
       0.07825806 0.137696 0.0021835715 0.023288218
000240 cf a6 e8 3c 13 c0 3c be 1e f7 06 be 8b ba f2 bc
       0.028399853 -0.18432645 -0.13180205 -0.029629966
000250 7c 2e c9 3d fd aa 08 3d 64 f8 9f 3c 66 81 cd bc
       0.09823319 0.033366192 0.019527622 -0.025086116
000260 19 4b 26 3d 50 a1 f5 3c 1b e2 02 3e 25 2d 12 bd
       0.040598962 0.029984146 0.12781565 -0.035687584
000270 60 9b 71 3c 8f 8e 21 be 1b bb 0c bd 81 ac 0c bc
       0.014746517 -0.15777038 -0.034358125 -0.00858605
000280 1e a7 5a 3d 9b 08 6e 3d 10 d5 93 bc 82 93 9f 3d
       0.05338203 0.058113676 -0.018045932 0.07791807
000290 f5 69 cc 3c 9a 21 67 bd 06 a1 d9 bc 6a ef cf bc
       0.024952868 -0.05642853 -0.02656604 -0.025382716
0002a0 de 17 50 bc e9 95 ce bb da 81 af 3a a9 14 9d 3d
       -0.012701003 -0.006304492 0.0013390139 0.07669956
0002b0 55 50 2a bd 7b 51 a5 bc 8c 2e 4e bd 58 15 de bc
       -0.041580517 -0.020180454 -0.05033736 -0.027109787
0002c0 dd f4 4a 3e a9 b6 86 3c c1 6c 4a 3d 53 66 39 3d
       0.1981997 0.016444521 0.049420122 0.0452636
0002d0 ee 90 43 3d ef 2b 38 3d 76 53 d3 bc 2c 71 d0 bd
       0.047745638 0.044963773 -0.025796633 -0.10177836
0002e0 8e 67 b0 3b fb a2 64 bc 0d 9e 02 3d 71 a9 c0 3b
       0.0053834384 -0.013954873 0.03188901 0.005879574
0002f0 cd b3 85 3c f9 14 b6 bc f6 68 87 bc 15 2f 1c bd
       0.016321087 -0.022226797 -0.016529541 -0.03813084
000300 a9 9e 98 bc 56 9d 2a 3d 38 b6 ce 3d 7c 45 16 3d
       -0.018630343 0.041653953 0.10093349 0.03668736
000310 aa e7 95 3d 57 d8 25 3e 4e ec b1 bc a9 7d e7 3c
       0.07319577 0.16195808 -0.021719124 0.028258162
000320 36 7e dc bc f6 70 eb bc 35 26 f6 b9 82 4f 3f 3d
       -0.02691565 -0.028740387 -0.00046949243 0.046706684
000330 73 e9 38 be 60 da 85 3c 0f f8 23 be 4b f7 5b 3d
       -0.18057804 0.01633948 -0.16012596 0.053702634
000340 19 cf d7 3b b7 c8 bd 3c 4a ae 46 bd 92 d6 58 bb
       0.0065859673 0.023166997 -0.04850606 -0.0033086878
000350 ff af 4f 3c 7f e5 a4 bc 89 36 b4 bc 9f ec a9 3d
       0.012676238 -0.020128964 -0.02199866 0.08297085
000360 c8 c4 5a bb 1e 60 3a 3d 53 4b 66 3b 01 08 6a 3d
       -0.003338145 0.04550182 0.0035140112 0.05713654
000370 83 75 2c 3d df 54 cf 3a cd a7 0d bd 88 6a d5 3c
       0.042104255 0.001581814 -0.034583855 0.026051775
000380 2e 39 01 3e a3 55 7e bb 0d e5 9f 3c 09 1d 60 bd
       0.12619469 -0.0038808368 0.0195184 -0.05471519
000390 5e 7e 3a 3d 98 9e 08 3e 33 29 ae 3d 74 e9 34 3c
       0.04553067 0.13341749 0.08503952 0.011041988
0003a0 f5 24 d9 bc 92 78 0d 3d 1b d3 30 be 5b 99 a1 3c
       -0.02650688 0.034538813 -0.1726803 0.019726446
0003b0 5c ab 20 3b 1d 34 91 bd 71 84 82 3c 12 4d 0a 3d
       0.00245162 -0.07090018 0.015932294 0.033764906
0003c0 53 54 7d 3a 22 63 46 3c 4f e7 2b bb 50 83 6e be
       0.00096637494 0.012108596 -0.00262304 -0.23292279
0003d0 80 3b f2 3b 3f f2 80 3c ff f3 cf 3c 29 14 8b 3c
       0.007392347 0.015740512 0.025384901 0.016977387
0003e0 71 bf 3b be 06 6e ba 3d 68 9e 9d bd 5c 00 19 3e
       -0.18334748 0.091030166 -0.07696229 0.14941543
0003f0 9c cc 54 3e 2c 47 a9 3c c8 fa 4b 3d 37 29 01 bd
       0.20781177 0.02066382 0.04979971 -0.031533446
