trained_probes_truth_twoshot/probe_sae_diff_label_seed_0.pt (torch, 10960 bytes, 1 tensors)

net.weight f4 [1, 2304]
0.07538718 0.012433438 0.012779896 -0.065652445 0.052169394 0.060728155 0.1119535 0.020842662
-0.03568244 0.027270323 0.00015471768 -0.01616737 -0.0071671614 -0.017444022 -0.017046181 0.03708806
0.09897871 -0.027993564 -0.07515692 -0.045319933 -0.022841241 -0.059541594 0.05905114 0.0478284
0.06326657 0.16944481 0.043239355 -0.100055635 -0.06354073 -0.0034288107 -0.0061086784 -0.0060064914
0.046956208 0.012331433 -0.03856463 -0.024226772 0.05560291 -0.17115529 0.078915335 -0.03224307
-0.037983578 0.08328294 -0.014511695 -0.054780874 -0.0036537936 -0.028486045 -0.03734542 0.1444737
-0.1329408 -0.004218962 -0.021935182 0.12615786 0.015994454 -0.025814682 -0.015183642 -0.012899016
0.03184037 -0.030406935 0.019024871 -0.0164165 -0.011781293 0.042012572 -0.0069618593 0.026333615
-0.06455249 0.047827005 0.025449667 -0.092899956 0.012606136 0.013669162 -0.2521539 -0.009376818
-0.057835564 -0.10059844 -0.022967363 -0.007620801 -0.06232518 -0.10263046 0.051219102 0.007336467
-0.04166331 0.014015953 0.024472924 0.07453179 0.024353927 0.031281944 0.04690791 0.008643338
-0.017708752 0.030333549 -0.027246112 -0.20487833 0.012106575 -0.027700216 -0.008174301 -0.011745923
0.007452532 0.011921392 0.04032466 -0.08546515 0.026162105 0.037761275 0.0056984583 -0.010898003
0.10389056 -0.005823628 0.08319398 -0.14684327 0.041110333 0.056494173 0.006815647 -0.008524014
-0.06871111 0.010244274 -0.026862815 0.011154892 -0.05773125 -0.038695883 -0.006396315 -0.053013947
-0.058253933 0.053866774 -0.029298853 0.15627372 -0.006295744 -0.006286571 0.015385778 -0.007714077
-0.0051077637 -0.032876614 0.101688124 0.007296894 -0.07722019 0.040420618 -0.09738379 0.026011996
0.010128461 -0.013246136 -0.02623744 -0.019361945 0.09652903 0.075828806 0.011353297 0.012142354
-0.0063419966 -0.11467852 -0.16735221 -0.017766729 0.08834416 -0.0063479976 -0.0061939666 -0.058082063
0.023590824 0.023184745 0.06029436 -0.035204105 0.012979249 -0.16829027 -0.0503947 0.003940243
0.047510203 -0.014724121 -0.03311099 0.016186029 0.01991311 -0.04841231 -0.036712006 0.00015166108
-0.029992314 0.0038039058 0.011469886 0.0530266 -0.0013342742 -0.012263277 -0.016829148 -0.020668661
0.14395447 -0.010705926 0.055465482 0.015092594 0.044774543 0.039464995 -0.018930152 -0.072663344
-0.031520013 0.01204363 0.020305596 0.0060568964 0.010269988 -0.0058048884 -0.015391082 -0.0045360266
-0.008029089 0.040041167 0.052517183 0.014916187 -0.0072088838 0.17555219 -0.010260795 -0.011341257
-0.003344743 0.028692527 -0.0205739 0.0083408635 -0.248942 0.065588325 -0.13695738 0.07510112
-0.015746798 0.023981627 -0.015970834 0.011915116 -0.0017604716 -0.03604792 -0.002463584 0.07521722
-0.031343568 0.1053515 0.016252536 0.06101826 0.05339431 0.03705718 -0.012851551 -0.00038344448
0.12841594 0.011661945 0.004066757 -0.03233088 0.0101754 0.079883456 0.06576225 0.022251744
-0.062620096 0.046301465 -0.1764437 -0.009408742 0.08464742 -0.076214276 0.002800223 0.019109348
0.0038413217 0.019438153 0.004373121 -0.2713825 0.0058495137 -0.012670114 0.03896929 -0.004343154
-0.10613233 0.06910477 -0.16988252 0.089451 0.11520458 0.027471868 0.06325338 0.029947324
00000000: 9864 9a3d 9eb5 4b3c c562 513c ca74 86bd
00000010: 93af 553d 16be 783d e047 e53d 3bbe aa3c
00000020: c027 12bd 0366 df3c b63b 2239 6f71 84bc
00000030: 82da eabb c4e6 8ebc 6fa4 8bbc a6e9 173d
00000040: 5ab5 ca3d c252 e5bc dfeb 99bd 65a1 39bd
00000050: 8e1d bbbc e3e1 73bd 9cdf 713d b6e7 433d
00000060: e791 813d f182 2d3e c01b 313d f8e9 ccbd
00000070: a421 82bd e6b5 60bb 4f2b c8bb 1ad2 c4bb
00000080: 2755 403d c709 4a3c f2f5 1dbd 3977 c6bc
00000090: e1bf 633d 5543 2fbe 5d9e a13d 4f11 04bd
000000a0: ab94 1bbd 3f90 aa3d 76c2 6dbc e961 60bd
000000b0: 7c74 6fbb 915b e9bc 83f7 18bd eaf0 133e
000000c0: a221 08be 383f 8abb 69b1 b3bc 872f 013e
000000d0: cd06 833c 5079 d3bc cfc4 78bc 6556 53bc
000000e0: 0c6b 023d f717 f9bc 0cda 9b3c e57b 86bc
000000f0: 5306 41bc 6015 2c3d 4f20 e4bb 98b9 d73c
00000100: 1934 84bd 40e6 433d d27b d03c 5542 bebd
00000110: f789 4e3c 9ff4 5f3c 511a 81be 3aa1 19bc
00000120: fce4 6cbd 8e06 cebd 0d26 bcbc eab7 f9bb
00000130: b048 7fbd eb2f d2bd 1fcb 513d bf66 f03b
00000140: 26a7 2abd 2ba3 653c 717b c83c 20a4 983d
00000150: e381 c73c 7f21 003d 8222 403d ca9c 0d3c
00000160: f211 91bc 107e f83c 3d33 dfbc a0cb 51be
00000170: a85a 463c 90eb e2bc 81ed 05bc f971 40bc
00000180: 5f34 f43b f151 433c 782b 253d 5a08 afbd
00000190: e951 d63c 91ab 1a3d 22ba ba3b 8a8d 32bc
000001a0: 93c4 d43d 22d4 bebb 9b61 aa3d 155e 16be
000001b0: 4f63 283d 6f66 673d ca55 df3b 4ea8 0bbc
000001c0: 69b8 8cbd 99d7 273c 680f dcbc 02c3 363c
000001d0: 9a77 6cbd 937f 1ebd 2e98 d1bb 2725 59bd
000001e0: ad9b 6ebd 68a3 5c3d 2604 f0bc 3806 203e
000001f0: 874c cebb 94ff cdbb a114 7c3c 5ec6 fcbb
00000200: 075f a7bb a1a9 06bd dd41 d03d c91a ef3b
00000210: 9e25 9ebd 1790 253d 2771 c7bd 1c17 d53c
00000220: d8f1 253c 5206 59bc e6ef d6bc f19c 9ebc
00000230: 03b1 c53d 224c 9b3d 2e03 3a3c b9f0 463c
00000240: 86d0 cfbb 92dc eabd 615e 2bbe 888b 91bc
00000250: c8ed b43d dd02 d0bb c2f6 cabb 75e7 6dbd
00000260: 8b41 c13c efed bd3c 38f7 763d 2e32 10bd
00000270: eaa6 543c 4954 2cbe ac6a 4ebd 271d 813b
00000280: 0f9a 423d 713d 71bc 649f 07bd 9098 843c
00000290: d220 a33c fd4b 46bd 545f 16bd 3607 1f39
000002a0: 71b2 f5bc f34a 793b 30ec 3b3c 6c32 593d
000002b0: d0e2 aeba e9eb 48bc 48dd 89bc 5351 a9bc
000002c0: cd68 133e e967 2fbc c62f 633d ed46 773c
000002d0: 8365 373d 0ca6 213d 6813 9bbc 85d0 94bd
000002e0: 211b 01bd a552 453c ec57 a63c ee78 c63b
000002f0: 7443 283c ef36 bebb e02a 7cbc f3a2 94bb
00000300: 718c 03bc 3502 243d 421c 573d 0663 743c
00000310: 8038 ecbb f4c3 333e e51c 28bc aed0 39bc
00000320: 7a33 5bbb 970c eb3c 988a a8bc 1ea8 083c
00000330: a7ea 7ebe 2c53 863d 8e3e 0cbe 9ece 993d
00000340: 6eff 80bc 1e75 c43c 44d5 82bc 9e37 433c
00000350: a0bf e6ba fca6 13bd 1574 21bb 7c0b 9a3d
00000360: 1d62 00bd 87c2 d73d 0a24 853c 48ee 793d
00000370: feb3 5a3d 45c9 173d 508f 52bc 0c09 c9b9
00000380: 787f 033e be11 3f3c 6e42 853b 636d 04bd
00000390: b9b6 263c f099 a33d 5cae 863d 4a49 b63c
000003a0: f73e 80bd 9ba6 3d3d a8ad 34be 2027 1abc
000003b0: a05b ad3d 3b16 9cbd f283 373b 358b 9c3c
000003c0: afbe 7b3b c33c 9f3c 664c 8f3b a6f2 8abe
000003d0: 47ad bf3b 4f96 4fbc 439e 1f3d 0451 8ebb
000003e0: e85b d9bd cd86 8d3d aff5 2dbe 1632 b73d
000003f0: 61f0 eb3d af0c e13c fd8a 813d 1754 f53c
