trained_probes_truth_twoshot/probe_sae_recons_label_seed_7.pt (torch, 10972 bytes, 1 tensors)

net.weight f4 [1, 2304]
00000000: e410 323c 2be1 9abd 54f1 fdbc e2d4 9e3c
00000010: 520d e3bc a16e 36bb d485 2abe 66b9 933c
00000020: c3a6 a43a 7ea1 413d 1282 ef3c b317 86bc
00000030: bceb bebb 0210 b6bc ade7 7a3d 42b4 51bc
00000040: a12d c13d 38a0 953d adbb c03c d4ce 7dbd
00000050: 3e2f d1bd d6c4 933d 8407 493d 8285 683e
00000060: 1d70 a6bb d79d 133b 8c54 f9bc f776 d63c
00000070: f854 683d a7c8 cabc 075e 3f3d 7a29 4b3a
00000080: 2443 cf3c 2a50 8d3b 81e3 373e 9bb3 eabc
00000090: 3a69 3dbe 7611 88ba 5eab a3bb 4c06 353c
000000a0: 2e7d 2c3d 1fee 0c3d c507 1bbe e6dc debc
000000b0: d24e 74bd ab16 3e3b 3d64 123b d261 6abd
000000c0: 53c0 b63c d88f fbbc f468 403c e6e8 8fbc
000000d0: 7d9a 50bc 43a4 ef39 2c7f 293f 6920 8e3c
000000e0: 4a98 c43c afc0 913e 3755 db3d 2050 40be
000000f0: 07e4 42bc dce9 fa3c a091 e4bb 7f27 2c3c
00000100: ea11 c3bc 2e73 9bbe de92 78bc c73c c5bc
00000110: 9b1e 3e3c 8794 9b3c 8a24 703d de34 32bc
00000120: 5db7 1b3c f0d6 ecbb 617f 833d 852d 35bd
00000130: 2a24 613c a8b8 163d 30d8 31bc 9416 073e
00000140: cfe2 253c 465b 73bc 08f6 9d3d 3290 243e
00000150: c6c8 48bd d080 b3bd f509 eabc 49a3 533c
00000160: 92d4 ad3d 5e96 dbbc cdb3 073c c87b 0839
00000170: 0661 203d e57b c6bc fe6b 8ebe 4a48 34bc
00000180: 49ca 733b 481c 7d3d e5d9 2bbc 52b5 87bd
00000190: eb8f 683c 340f 1c3b 2b85 2bbe 37cc 9ebd
000001a0: c37d c0bc eef5 eeba 5e23 19be cb50 4fbd
000001b0: deb9 60bd bcda 333c 3e45 a13d 532f 0e3d
000001c0: 308c e43c d553 933c 9fec 04bc 4356 e93b
000001d0: ed83 423c df62 253c 14ea 68bd 500c a43c
000001e0: d662 803d 9be5 d2bd 3b92 823d 7321 7ebc
000001f0: 23ac 233d fdcc 19bd faf1 a1bc 2751 b83d
00000200: 33d2 2a3d 5521 b13d 1bd3 abbc d2e9 9ebc
00000210: ba8b 203e c077 01b9 b986 383e 9ee3 c13b
00000220: 9a99 f7bc c42c 6d3c 0f21 b73c 5fe1 183d
00000230: a4cd fdbd 8772 a2bc 1f3a 103d 857b 28bd
00000240: b829 34bd dda4 e73c 3313 eb3c 9136 a63c
00000250: 36da 99bc 75d6 78bd d051 25bd 2264 6cbc
00000260: e9fc 25be 9b0f 403b 1b4d 813b d24f 4c3e
00000270: b64d fdbc 2b88 003e 8e2a 6dbe 9b00 ff39
00000280: 271c 9b3b 0b7a cbbb 8a19 cebd 68f7 34bd
00000290: e859 1abc de1b 16bf b391 033c 062c 133b
000002a0: b3da 6c3c 121c bc3d 2b9d 2bba 69f9 acbc
000002b0: 9690 ba3e 568b 3f3c 6ae7 953e 117d aabc
000002c0: 9aa5 043d c512 19bd b63c bbbc 361a 0abe
000002d0: f972 38bc 0136 02be 23eb ce3c e0a1 f73c
000002e0: f591 623c f372 2fbd a960 c33b ae7f da3d
000002f0: e2e4 a2bc 0ba5 843c eb25 303b 840e bbb9
00000300: 47c6 f53c ccda 26be 8d30 073e 396f 77be
00000310: 21a7 c2be ac22 5fbc f2ec 7f3c 8e37 96bc
00000320: 3558 093d f8e2 8bbc 8d8c 0dbb b927 cbbb
00000330: 97e0 443e e5db c938 317b 32bd 7640 05be
00000340: 540c 433c 6355 a83c 0f7b 90bc bcff 48be
00000350: 2e47 913b 9a20 423d 0d21 243e 84f2 4ebe
00000360: 561d 97b8 bffc 4eb8 caf2 69bc 96d5 803d
00000370: 4e19 983b 5036 103d 2f14 22bd e9f2 673d
00000380: ebdf d2bc 2d81 36bc 9bc0 2dbc 710d 6c3e
00000390: ef2b f6bb a377 02be 21d1 d83b dca9 483d
000003a0: 0e94 c1bb 9b47 013e e75c 5e3e b9c7 6dbd
000003b0: 49f9 1d3d 5ce3 b23b 6c6f f23b 6669 fc3c
000003c0: f080 8b3c abea 32bc 9cc3 07bc 739c d2bc
000003d0: 2187 99bd 0ca6 293c f966 4cbd 472d 9bbc
000003e0: e7a2 9a3c 2114 923c 107d 903c fdb6 42bc
000003f0: 9783 d4bc 0206 c73a f80d e63c cba3 5dbd
0.010868285 -0.07562479 -0.030998863 0.01938862 -0.027716313 -0.0027836936 -0.16652614 0.01803274
0.0012561906 0.04727315 0.029236827 -0.016368723 -0.0058264416 -0.02222443 0.0612561 -0.0127993245
0.09432531 0.0730595 0.02352699 -0.061964825 -0.10214089 0.07215278 0.049079433 0.22707179
-0.005079283 0.00225245 -0.030435823 0.026179774 0.056721658 -0.024753882 0.04672053 0.0007750016
0.02530057 0.004312535 0.1795788 -0.028650096 -0.18497172 -0.001038118 -0.004994794 0.011048865
0.04211157 0.034406777 -0.15139683 -0.027204942 -0.05964548 0.002900521 0.0022337579 -0.057222195
0.022308504 -0.030708238 0.011743773 -0.01756711 -0.012732145 0.00045708017 0.66209674 0.017349439
0.023998398 0.28467318 0.10709613 -0.18780565 -0.011895186 0.030629091 -0.0069753677 0.0105074635
-0.023812253 -0.30361313 -0.015171735 -0.024076832 0.011603977 0.018991722 0.058628596 -0.010876862
0.009504166 -0.007227771 0.0642078 -0.044232864 0.013741532 0.036797196 -0.010854766 0.13192207
0.010124876 -0.014853304 0.07712942 0.16070631 -0.049019597 -0.087648034 -0.028569201 0.012917348
0.0848781 -0.0268051 0.008282614 0.00013016083 0.03915503 -0.024229 -0.27816767 -0.011003563
0.0037199429 0.06179455 -0.010488962 -0.06626381 0.014194469 0.0023812773 -0.16750018 -0.07753795
-0.023497468 -0.0018231252 -0.14954898 -0.05061416 -0.054864757 0.010977443 0.07874535 0.0347131
0.027898878 0.01798431 -0.0081130555 0.007120879 0.011872274 0.0100943735 -0.05686386 0.020025402
0.062688515 -0.102977 0.063755475 -0.015510905 0.039959084 -0.037549008 -0.019768704 0.089998536
0.041704368 0.08648936 -0.020974686 -0.019398604 0.15678301 -0.00012347009 0.18020143 0.0059170267
-0.03022461 0.014476005 0.02235463 0.037324306 -0.123927385 -0.019830002 0.03521168 -0.041133422
-0.0439851 0.028276855 0.028695678 0.020289691 -0.018780809 -0.060751397 -0.040361226 -0.01442817
-0.16209759 0.0029306177 0.0039459593 0.19952324 -0.030920845 0.12551944 -0.23160765 0.0004863784
0.0047335806 -0.006209617 -0.10063465 -0.044181257 -0.009420849 -0.5863627 0.008030343 0.002245666
0.014456439 0.091850415 -0.0006546552 -0.021115022 0.36438435 0.011690935 0.29278117 -0.02081159
0.032384492 -0.037371416 -0.022856098 -0.13486561 -0.01125788 -0.12715913 0.025258606 0.030228555
0.013828744 -0.042834233 0.0059624505 0.10668884 -0.01988453 0.01619198 0.002687807 -0.00035678234
0.030001773 -0.16294402 0.13202114 -0.24163522 -0.38018134 -0.013619106 0.015620457 -0.018337037
0.033531386 -0.017076 -0.0021598667 -0.0061998037 0.19226299 9.6253854e-05 -0.043574516 -0.13012871
0.011904795 0.020548528 -0.017636804 -0.19628805 0.004433534 0.047394373 0.16028233 -0.202097
-7.205705e-05 -4.9349615e-05 -0.014279077 0.06290738 0.0046416884 0.035208046 -0.03957003 0.05662814
-0.025741538 -0.011139196 -0.010605003 0.23052002 -0.0075125615 -0.1274095 0.006616727 0.048990116
-0.005907542 0.12624972 0.21715127 -0.0580518 0.038567815 0.0054592323 0.0073985364 0.030811977
0.017029256 -0.010920207 -0.008286383 -0.025709366 -0.07496477 0.01035453 -0.04990289 -0.018942488
0.018876506 0.017831864 0.01763776 -0.011884448 -0.025941653 0.0015184286 0.028082833 -0.054111283
