trained_probes_truth_twoshot/probe_sae_input_label_seed_12.pt (torch, 10972 bytes, 1 tensors)

net.weight f4 [1, 2304]
0	0x3cc6c1c5	0.024262318
1	0xbcc1a59f	-0.023638545
2	0x3ca636cc	0.020289801
3	0xbc659864	-0.014013384
4	0xbc4c5db1	-0.01247351
5	0x39ae2501	0.00033215436
6	0x3ed86070	0.42261076
7	0x3aba433b	0.001421071
8	0x3acf4786	0.0015814162
9	0x3c76de0a	0.015067587
10	0x3c721dac	0.014777582
11	0xbd9df16b	-0.077120624
12	0xbd5fbee1	-0.054625396
13	0xbaa56fc4	-0.001262181
14	0x3cddf4ca	0.027094264
15	0x3b39617f	0.0028286872
16	0x3f019447	0.5061688
17	0x3cec6e82	0.028861288
18	0xbcc7932e	-0.024362173
19	0xbd15b08e	-0.03654533
20	0xbe1e0ce5	-0.15434606
21	0xbe0c23cb	-0.13685529
22	0x3d05638f	0.03256565
23	0x3df28112	0.118410245
24	0x3d02fa83	0.031977188
25	0x3ba7a993	0.0051166504
26	0x3d902b7a	0.070395425
27	0x3cbbd40c	0.02292826
28	0x3b76e445	0.003767268
29	0xbc783eab	-0.01515166
30	0x3c18a1e2	0.00931594
31	0xbd3f6231	-0.046724502
32	0x3e5924a8	0.2120539
33	0xbabb9846	-0.0014312349
34	0x3cad6ee5	0.021171043
35	0xbc4fe98f	-0.012689962
36	0x3db0ba33	0.08629265
37	0xbd121675	-0.035665948
38	0xba661173	-0.0008776404
39	0x3c3b94c5	0.011449044
40	0xbba81316	-0.0051292283
41	0x3e9f1775	0.31072584
42	0xbe9a288f	-0.3010907
43	0xbd4ba47f	-0.049717423
44	0x3cc6133c	0.024179094
45	0xbc52e1c3	-0.012871209
46	0x3c030b2f	0.007998272
47	0xbb4da984	-0.0031381557
48	0xbcbadebb	-0.022811284
49	0x3d14261d	0.03616916
50	0x3d60fae3	0.054926764
51	0x3cb2d0e6	0.021828126
52	0x3d64c670	0.055853307
53	0x3b8885b5	0.0041663297
54	0x3d81a09b	0.06329461
55	0xbbe6e8aa	-0.0070467787
56	0xbc1c7f50	-0.009551838
57	0x3c95863b	0.018252483
58	0x3ea6a0e2	0.3254462
59	0xbba73e2f	-0.0051038484
60	0xbc14540c	-0.009053241
61	0x3c52c9e4	0.012865517
62	0x3c8e9f34	0.017409898
63	0x3d13a094	0.03604181
64	0xbd18bec3	-0.0372913
65	0x3d136bcc	0.035991475
66	0xbc1186c0	-0.008882225
67	0xbb0414bf	-0.0020153967
68	0x3c972452	0.018449936
69	0x3d1b579e	0.037925355
70	0xbd26bd04	-0.040707603
71	0xbd051acb	-0.032496255
72	0xbe45ceb9	-0.1931714
73	0xbd1a8061	-0.037720088
74	0xbd94ce4e	-0.07265912
75	0x3ca0856b	0.019594869
76	0xbc370e11	-0.011172787
77	0x3cb8d727	0.02256353
78	0x3c9a49f9	0.018834101
79	0x3d343d21	0.04400361
80	0xbc2b01df	-0.010437458
81	0xbcf8aea2	-0.030356709
82	0x3d7de2b3	0.061983775
83	0x3ef156a5	0.47136417
84	0x3c4f365d	0.012647239
85	0x3b896be6	0.0041937707
86	0x3df446c0	0.11927557
87	0x3d91cb04	0.071188
88	0xbd4e76ce	-0.05040627
89	0x3c9b9c30	0.018995374
90	0xbc5846d8	-0.013200484
91	0xbbf5cca6	-0.0075012026
92	0x3c3142ba	0.0108191315
93	0xbd087d0c	-0.03332238
94	0xbbf36717	-0.0074280608
95	0x3c0854dd	0.008321014
96	0xbc40003e	-0.011718808
97	0x3d09bd3e	0.03362774
98	0x3cb45b03	0.022016054
99	0xbdc92308	-0.09821135
100	0x3d8c1ee0	0.068418264
101	0x3de20570	0.11036193
102	0xbbfd88ee	-0.0077372706
103	0xbd3edca4	-0.046597138
104	0x3e95fabe	0.29292864
105	0x3d0109f8	0.031503648
106	0xbd02293d	-0.03177761
107	0xbe107a70	-0.14109206
108	0x3d2b7cf2	0.041867204
109	0x3c48beac	0.012252491
110	0x3d39f73b	0.045401793
111	0xbd0fb982	-0.035089023
112	0xbce35b62	-0.027753536
113	0xbbce15b7	-0.0062892097
114	0xbc05462d	-0.008134407
115	0xbb32776f	-0.0027231833
116	0xbcb4cb3d	-0.022069568
117	0xbc499f16	-0.012305995
118	0xbc184433	-0.009293604
119	0xbcab572f	-0.020915596
120	0xbd46007e	-0.048340313
121	0x3d97b49f	0.074074976
122	0xbd068ca1	-0.032848958
123	0x3ca5e22a	0.020249445
124	0x3a634b85	0.0008670616
125	0x3a690e88	0.000889041
126	0x3d2c166a	0.042013563
127	0x3d816714	0.06318489
128	0x3c388f53	0.01126464
129	0x3d095096	0.03352412
130	0xbc92b3b0	-0.017907947
131	0x3d048e8d	0.03236251
132	0x3be437bd	0.0069646523
133	0x3c12a141	0.008949579
134	0x3c6f8e67	0.014621354
135	0x3d9c5fc4	0.07635453
136	0xbd198ecd	-0.0374897
137	0xbdd647d7	-0.10462921
138	0xbd055419	-0.032550905
139	0x3cfad233	0.030617809
140	0x3cfcafb4	0.0308455
141	0x3c741daf	0.014899655
142	0x3cd36834	0.025806524
143	0xbbe80ddf	-0.0070817317
144	0x3c710422	0.014710458
145	0xbc2f15b0	-0.010686323
146	0xbe1f67a2	-0.15566877
147	0xbbdd9788	-0.0067624487
148	0x3eb389b4	0.35065997
149	0xbc569dfe	-0.013099192
150	0x3c9acca2	0.018896405
151	0xbbdc4cb9	-0.0067230132
152	0x3d0da175	0.034577806
153	0x3c96f046	0.018425118
154	0x3b345035	0.0027513627
155	0xbd7f5094	-0.062332705
156	0x3c92f0c2	0.017937068
157	0xbd16ccce	-0.03681641
158	0xbeba0303	-0.36330423
159	0xbc410a3a	-0.011782223
160	0x3c4e5222	0.012592824
161	0xba3c42e7	-0.00071816
162	0xbb670b4c	-0.0035254536
163	0x3da4fdee	0.08056246
164	0x3d9dbc6f	0.077019565
165	0xbe310b12	-0.17289379
166	0xbc624113	-0.01380946
167	0x3c67b795	0.01414289
168	0xba1c0b68	-0.00059526274
169	0x3b0c6bb0	0.0021426491
170	0xbd93c77b	-0.07215782
171	0x3c9b45ef	0.018954245
172	0x3c580f02	0.013187172
173	0xbc960edf	-0.018317638
174	0x3d28d801	0.041221622
175	0xbd04644f	-0.032322224
176	0x3e76df20	0.24108553
177	0xbc4ee515	-0.01262786
178	0x3c1b9e44	0.009498183
179	0x3d9db13c	0.076998204
180	0xbacd5e42	-0.001566835
181	0x3b097197	0.0020972246
182	0x3c125c5c	0.008933153
183	0xbbd24b02	-0.006417633
184	0xbbaef385	-0.0053390884
185	0xbd42a955	-0.04752477
186	0x3da5d99a	0.08098145
187	0x3d1f4a84	0.038889423
188	0xbbb35012	-0.0054721916
189	0xbc885cdf	-0.016645847
190	0x378885ba	1.6274735e-05
191	0xbcda6fae	-0.026664581
192	0xbb8d0ec5	-0.004304739
193	0xbc18e098	-0.009330891
194	0x3e1a1fb6	0.1505116
195	0x3c8295b6	0.015940528
196	0xbd8e837d	-0.06958673
197	0x3ca8de00	0.02061367
198	0x3c081aec	0.0083072
199	0x3c8eaef2	0.017417405
200	0x3d8ad351	0.06778587
201	0xbc07e395	-0.008294006
202	0xba74f463	-0.0009344278
203	0x3ce88753	0.02838484
204	0xbe5d15f6	-0.21590409
205	0x3c54c9f1	0.0129876
206	0xbdd8559e	-0.10563205
207	0x3ce69a95	0.028149882
208	0x3c797a7d	0.015226957
209	0x3cf9c016	0.030487102
210	0xbda5c789	-0.08094699
211	0xbbe36fa7	-0.0069408
212	0x3c98db01	0.018659117
213	0x3cb44bf6	0.022008877
214	0xba849504	-0.0010115211
215	0x3d94690a	0.07246597
216	0xbc46b54a	-0.012128184
217	0x3ca5c624	0.020236082
218	0x3c29bdbe	0.0103601795
219	0x3d4f32ce	0.05058556
220	0x3d45f9d3	0.048333954
221	0x3c3aef2b	0.011409561
222	0xbd1fe54e	-0.03903704
223	0x3ca8a0ae	0.02058443
224	0x3a609d59	0.00085683685
225	0x3c16aa34	0.009195853
226	0x3c23cdc9	0.0099977935
227	0xbd2edbe2	-0.042690165
228	0xbc142b3d	-0.009043512
229	0xbcaf5da5	-0.021406958
230	0x3e41ff83	0.18945126
231	0x3d152b9c	0.036418542
232	0xba8f0bec	-0.0010913587
233	0x3d5e724d	0.054308224
234	0xbc14e650	-0.009088114
235	0xbcc91a73	-0.024548745
236	0x3c8f314d	0.017479563
237	0xbc776c46	-0.015101498
238	0x3c7c6d23	0.01540688
239	0x3c0bd28c	0.008534085
240	0xbac6595f	-0.0015132836
241	0xbca77bea	-0.020444829
242	0xbc3e4737	-0.011613659
243	0xbd0b1ec2	-0.03396488
244	0xbbe86200	-0.0070917606
245	0x3d2c2812	0.0420304
246	0x3d8400ac	0.06445441
247	0x3ce73007	0.028221143
248	0xbd52e559	-0.051488254
249	0x3d101572	0.0351767
250	0xbdb7ba51	-0.08971084
251	0x3b30370d	0.0026888282
252	0x3cd40246	0.02587999
253	0x3ce53a69	0.027981954
254	0x3daad8fb	0.08342167
255	0xbda117d7	-0.07865875
